checkpoints/best.pt (torch, 53724 bytes, 7 tensors)

convs.0.bias f4 [64]
0	0x3b109b2a	0.0022065141
1	0x3bdc2600	0.006718397
2	0x3c909618	0.017649695
3	0x00000000	0.0
4	0x00000000	0.0
5	0x3d783168	0.060593992
6	0xbc1d5ed2	-0.009605126
7	0xbd83c511	-0.06434072
8	0xbb8d673f	-0.0043152864
9	0xbc6d9f25	-0.014503275
10	0xbc8f06a2	-0.017459217
11	0xbcc77d4b	-0.024351737
12	0x00000000	0.0
13	0xbc41a230	-0.011818454
14	0xbb90e17e	-0.004421412
15	0x3dbf267d	0.09333513
16	0xbd37ebe6	-0.044902705
17	0x00000000	0.0
18	0x3d310627	0.043218758
19	0xbcbb8848	-0.022892132
20	0xbc94c67c	-0.018161051
21	0x00000000	0.0
22	0xbcfa7cd6	-0.030577105
23	0x00000000	0.0
24	0x3d05c216	0.032655798
25	0x3d400d7d	0.046887863
26	0xbbefb62d	-0.007315418
27	0x3d56756b	0.052358072
28	0xbc41e0f9	-0.011833423
29	0x3d26270b	0.040564578
30	0x3c42e1e0	0.011894673
31	0x00000000	0.0
32	0x3ba20b5d	0.0049452023
33	0x00000000	0.0
34	0xbc027140	-0.007961571
35	0xbcdf0e77	-0.027228577
36	0x00000000	0.0
37	0xbca49aae	-0.020093288
38	0x00000000	0.0
39	0x00000000	0.0
40	0xbc922e4e	-0.017844345
41	0xbd4e7309	-0.050402675
42	0x00000000	0.0
43	0xbc3e15df	-0.011601894
44	0x3d513e95	0.051085074
45	0xbcb32a76	-0.021870833
46	0x3b5f23fe	0.0034048553
47	0x00000000	0.0
48	0x3c6f460f	0.014604106
49	0x3be3f8dc	0.0069571566
50	0x00000000	0.0
51	0x3cc5a254	0.024125256
52	0x3c54cf23	0.012988838
53	0x3c0462d6	0.008080205
54	0x00000000	0.0
55	0x00000000	0.0
56	0x3d67fb90	0.056636393
57	0x00000000	0.0
58	0x00000000	0.0
59	0x3d19266d	0.03739016
60	0x3bb2aa96	0.0054524643
61	0x00000000	0.0
62	0x00000000	0.0
63	0x00000000	0.0

convs.0.lin.weight f4 [64, 2]
0	0x3e6605d9	0.22463168
1	0xbdb90203	-0.09033587
2	0x3e875108	0.2642901
3	0x3db2ecce	0.08736573
4	0xbea1e9d3	-0.31623706
5	0x3e3f8708	0.18703854
6	0xbda9e68e	-0.08295928
7	0xbdecb3b8	-0.11557716
8	0xbe802422	-0.25027567
9	0xbe9978ed	-0.29975072
10	0x3cc4cc85	0.024023304
11	0xbdf65080	-0.12027073
12	0x3de4c558	0.11170453
13	0xbe8483a9	-0.258817
14	0x3e220958	0.15823877
15	0xbe8e778e	-0.27825588
16	0xbda300aa	-0.07959111
17	0x3d553202	0.052049644
18	0x3e22e2a7	0.15906774
19	0x3e70d3d2	0.23518303
20	0x3e85f5d6	0.2616412
21	0xbe82998a	-0.25507766
22	0x3d4b2878	0.04959914
23	0xbe1c1012	-0.15240505
24	0xbd075610	-0.03304106
25	0xbe671834	-0.22567827
26	0x3e8541ff	0.26026914
27	0xbe75f039	-0.24017419
28	0x3e190906	0.14944848
29	0x3dac4ec9	0.084134646
30	0x3d9e1c1a	0.07720204
31	0xbe393294	-0.180857
32	0x3e700bc6	0.23441991
33	0x3ce1d40e	0.027566936
34	0x3d1ede88	0.03878644
35	0xbe880aec	-0.26570833
36	0x3daa47df	0.083144896
37	0xbdafa0c6	-0.08575587
38	0xbe125930	-0.14291835
39	0x3e802b9f	0.2503328
40	0x3d4bcc72	0.04975552
41	0xbe3decb9	-0.18547334
42	0xbe1c44e9	-0.15260662
43	0xbc6be960	-0.014398903
44	0x3e09bb5f	0.13450383
45	0xbddf0b3d	-0.108908154
46	0xbe3029e4	-0.1720348
47	0xbdd374f4	-0.103250414
48	0xbe8ae8bd	-0.2713069
49	0x3da5cec7	0.0809608
50	0x3e60dfb7	0.2196034
51	0xbe99f8aa	-0.30072528
52	0x3dbe0190	0.09277642
53	0x3e2846a6	0.164332
54	0x3d4ffb0c	0.050776526
55	0xbde53b8e	-0.11193
56	0x3e4017ff	0.18759154
57	0x3e1904e1	0.14943267
58	0x3daef060	0.08541942
59	0xbd9a7413	-0.07541671
60	0xbdba0bc8	-0.09084278
61	0xbcd46429	-0.025926666
62	0xbd5a2a88	-0.053263217
63	0xbdb803a4	-0.089850694
64	0x3e4b07d1	0.198272
65	0x3e873544	0.26407826
66	0xbcf48580	-0.029848814
67	0xbd8a4158	-0.067507446
68	0xbb697d15	-0.0035627533
69	0xbcd4a930	-0.025959581
70	0x3d8a81f0	0.06763065
71	0x3d67393d	0.05645107
72	0xbe8c3608	-0.27384973
73	0xbde3e10a	-0.11126907
74	0x3e709e15	0.23497804
75	0x3dcbfad2	0.099599496
76	0xbc75b3a0	-0.014996439
77	0xbe3a254e	-0.18178293
78	0xbe3ce4b4	-0.18446618
79	0xbe8a486f	-0.27008387
80	0xbe0cb448	-0.13740647
81	0x3dab70a1	0.08371092
82	0x3e254bc5	0.16142185
83	0x3dcbab3d	0.099447705
84	0xbe887533	-0.26651916
85	0xbe39ab52	-0.1813176
86	0xbd3e344d	-0.046436597
87	0x3e8d8c79	0.27646235
88	0x3cd628b8	0.026142463
89	0xbdd538e3	-0.10411241
90	0x3dfe0b30	0.124044776
91	0xbdeaca5f	-0.114643805
92	0xbe68b8cb	-0.22726743
93	0x3e415925	0.18881662
94	0xbe0c635a	-0.13709775
95	0xbd779314	-0.060443
96	0xbe9ab91d	-0.30219355
97	0x3e39ef76	0.18157753
98	0x3e6855b8	0.22688949
99	0x3da962a8	0.0827077
100	0xbe574821	-0.21023609
101	0xbe985b90	-0.29757357
102	0xbe9e8339	-0.3095949
103	0x3e42403c	0.18969816
104	0x3e2121fd	0.15735622
105	0x3e7e28b5	0.24820216
106	0x3e2861c5	0.16443546
107	0x3d6a30aa	0.057175316
108	0xbb418080	-0.0029526055
109	0xbe6acdef	-0.2293012
110	0xbe844360	-0.25832653
111	0xbe9064b1	-0.2820182
112	0x3db33cdc	0.087518424
113	0xbe3fc462	-0.18727258
114	0xbd788b88	-0.060679942
115	0xbe31af96	-0.17352137
116	0xbd610b5c	-0.054942474
117	0xbe594eae	-0.2122142
118	0xbe5c63d2	-0.21522453
119	0x3da505ec	0.0805777
120	0xbdec6545	-0.11542753
121	0x3e223aa5	0.15842684
122	0xbdc61910	-0.09672749
123	0xbe627cb5	-0.22117884
124	0xbd59e680	-0.053198338
125	0xbe15aa24	-0.14615685
126	0xbdbceae0	-0.09224486
127	0xbe92f694	-0.2870375

convs.1.bias f4 [64]
0	0xbcc89909	-0.024487035
1	0x3d90b9ac	0.07066664
2	0x3d980fef	0.07424914
3	0xbcc5fc2f	-0.024168102
4	0x3d771205	0.06031992
5	0x3bad4ea4	0.0052889157
6	0x3bdb2483	0.006687702
7	0xbcf8aa7a	-0.030354727
8	0x3da86eb8	0.08224243
9	0xbb3e5f88	-0.002904864
10	0xbc543065	-0.012950991
11	0xbc7325a1	-0.014840514
12	0xbcbe74e1	-0.023249092
13	0x3cc826d7	0.024432583
14	0xbc71839a	-0.014740849
15	0xbc3041c9	-0.010757872
16	0x3d04296f	0.032266077
17	0x3d434f6b	0.04768316
18	0x3c34dae4	0.011038516
19	0xbc3374f2	-0.010953175
20	0x3daaf1f8	0.08346933
21	0xbc9c9ece	-0.019118693
22	0xbc900b1d	-0.017583424
23	0x3c47aeb2	0.012187647
24	0xbcd3b7e9	-0.025844531
25	0xbc9b48cb	-0.018955609
26	0xbcc175ab	-0.023615679
27	0x3c0583c2	0.008149089
28	0xbc3e8d51	-0.011630372
29	0x3a1ee11c	0.00060607656
30	0x3d0423c7	0.032260682
31	0x3d2b33b6	0.041797362
32	0x3c9e3c92	0.019315992
33	0xbca9eef8	-0.020743832
34	0x3d045c6d	0.032314707
35	0x3d70a4eb	0.058751028
36	0xbd011fd1	-0.031524483
37	0xbcd4b320	-0.02596432
38	0x3c95fca9	0.018308954
39	0xbcae9a18	-0.021313712
40	0x3d068ab3	0.032847118
41	0xbc0c64e0	-0.008568972
42	0xbc53ad79	-0.012919777
43	0x3b84d044	0.0040531475
44	0xbba9fc9c	-0.005187584
45	0x3c9cb6cd	0.019130135
46	0x3d1dff17	0.03857335
47	0x3da7183c	0.08158919
48	0xbd0396d2	-0.032126255
49	0x3ca049b1	0.019566389
50	0xbc4c5452	-0.012471275
51	0x3b601450	0.0034191795
52	0x3b5f53b5	0.0034076993
53	0xbb987903	-0.0046530976
54	0x3d467788	0.048453838
55	0xbb818b64	-0.0039533842
56	0x3d080b13	0.033213686
57	0x39c3a98c	0.0003731962
58	0x3c02d7e9	0.007986047
59	0xbcc2be6c	-0.02377244
60	0x3cc949ce	0.024571326
61	0x3ca04adb	0.019566944
62	0x3d4ce0bc	0.05001901
63	0xbd87d463	-0.066323064

convs.1.lin.weight f4 [64, 64]
0	0xbc5e3f6b	-0.013564925
1	0x3db99eaf	0.090634696
2	0x3cbeef83	0.023307567
3	0xbe20d266	-0.1570526
4	0x3db39e86	0.0877047
5	0x3df60c4b	0.120140634
6	0xbde6e8d6	-0.11274879
7	0xbe0fd1e4	-0.1404491
8	0xbe19ea65	-0.1503082
9	0xbe021070	-0.12701583
10	0xbd4874c8	-0.048939496
11	0x3c849d48	0.016188279
12	0xbac82780	-0.0015270561
13	0xbda655e3	-0.0812185
14	0x3df734aa	0.12070592
15	0xbc036781	-0.008020283
16	0xbe06dd3d	-0.13170333
17	0xbd6ab1bc	-0.057298407
18	0xbe1d36ea	-0.1535298
19	0xbdbef127	-0.0932334
20	0xbe51220c	-0.20423144
21	0x3d1af3dc	0.03783022
22	0xbe4100e6	-0.18847999
23	0x3dab7e66	0.08373718
24	0x3e0b6476	0.13612542
25	0xbe1122e6	-0.14173469
26	0xbe0091e5	-0.12555654
27	0xbe47cfd6	-0.19512877
28	0x3d2f2b93	0.042766165
29	0x3c6723d0	0.014107659
30	0xbdf911e2	-0.12161614
31	0x3e05ed1d	0.13078733
32	0x3d98013f	0.07422113
33	0xbe485116	-0.19562182
34	0xbc40f3b0	-0.01177685
35	0xbdd163da	-0.10224123
36	0xbd19c39c	-0.037540063
37	0x3dd96d89	0.10616595
38	0xbcbec568	-0.02328749
39	0xbe19f9b5	-0.15036662
40	0x3e109824	0.14120537
41	0xbe53fba3	-0.2070146
42	0xbd9847a8	-0.07435542
43	0x3d8f360d	0.06992731
44	0x3e455f3f	0.19274615
45	0x3e467eae	0.19384262
46	0xbd840b23	-0.06447437
47	0x3d93f676	0.07224743
48	0xbe4f4f1d	-0.20245023
49	0xbd760b6d	-0.06006949
50	0xbd89ec8c	-0.06734571
51	0x3d4c6783	0.049903404
52	0xbe226b60	-0.15861273
53	0x3d01246a	0.031528868
54	0x3de5141a	0.11185475
55	0x3e2cc883	0.16873364
56	0xbd533a5f	-0.05156934
57	0x3e4a8c7d	0.19780155
58	0xbe517742	-0.2045565
59	0xbd98f9fa	-0.07469554
60	0x3d8f7b8b	0.07005986
61	0x3d6366cc	0.055517957
62	0x3dd0d0ea	0.10196097
63	0xbe131dc4	-0.14366823
64	0x3e1a1287	0.1504613
65	0xbe56879b	-0.20950167
66	0xbe39e31f	-0.18153046
67	0xbc713dd0	-0.01472421
68	0xbe5762b1	-0.21033742
69	0xbdbe1dc7	-0.09283023
70	0xbe0ba161	-0.1363578
71	0x3e5cc15f	0.2155814
72	0x3d6e2b0e	0.05814653
73	0xbd9b383d	-0.07579086
74	0x3bcac696	0.006188224
75	0xbe2b1105	-0.16705711
76	0xbe516316	-0.20447955
77	0xbe02bf4b	-0.12768285
78	0xbe6b9f9e	-0.23010108
79	0x3e8b6d9d	0.27232066
80	0xbd82dd05	-0.063898124
81	0xbd6f63a4	-0.058444634
82	0xbe13b4c8	-0.14424431
83	0x3cc206e2	0.023684923
84	0xbca2e00c	-0.019882225
85	0xbe16eead	-0.14739485
86	0x3e2a18dd	0.16611047
87	0x3e3ae00d	0.18249531
88	0xbe1d1ae8	-0.15342295
89	0x3e5d88c0	0.21634197
90	0xbd08b033	-0.03337116
91	0x3e38efff	0.18060301
92	0x3da99cea	0.08281882
93	0x3c397d8f	0.011321439
94	0x3e6131c9	0.21991648
95	0x3e0867ef	0.13320898
96	0xbe0fc8a0	-0.14041376
97	0xbe06eb7a	-0.13175765
98	0xbe5ba9b0	-0.2145145
99	0x3d4f788c	0.05065207
100	0xbe26c2fe	-0.16285321
101	0xbe31497e	-0.17313191
102	0xbe0e1aa0	-0.13877344
103	0xbe5b30e6	-0.21405372
104	0xbe3d3e45	-0.18480785
105	0x3e4060e4	0.18786961
106	0x3df7adf6	0.12093727
107	0x3e356dce	0.17717668
108	0x3c9ed2a5	0.019387553
109	0xbd19c013	-0.037536692
110	0xbd8900cc	-0.06689605
111	0x3b8a8f20	0.0042284876
112	0xbe16d99a	-0.14731446
113	0x3cd91fb3	0.026504373
114	0xbe0e16c0	-0.13875866
115	0x3d2e40c6	0.04254224
116	0x3e3b9005	0.18316658
117	0x3cc4cd08	0.024023548
118	0x3e21b837	0.15792929
119	0xbe1de607	-0.1541978
120	0x3dd17333	0.10227051
121	0xbe08e582	-0.133688
122	0xbcc4c710	-0.024020702
123	0xbdaa9dd5	-0.08330885
124	0xbe0410c2	-0.12897018
125	0xbe5626c5	-0.20913227
126	0xbda46952	-0.08027901
127	0x3ced8538	0.028994188
128	0xbd994d11	-0.074854024
129	0xbe6e3bb1	-0.23264958
130	0x3e308ec1	0.17241956
131	0x3e2463b7	0.16053663
132	0xbe05aa2a	-0.13053194
133	0x3d621e9e	0.05520498
134	0x3e039885	0.1285115
135	0xbe5ac925	-0.21365793
136	0xbe2d68ab	-0.16934459
137	0x3de861ad	0.11346755
138	0xbc5d65a5	-0.0135130035
139	0x3d8d3272	0.06894387
140	0xbdb86464	-0.09003523
141	0x3d274e09	0.040845904
142	0x3e06bad7	0.13157211
143	0x3cbcbc84	0.02303911
144	0xbdd76cc7	-0.105187945
145	0xbe531a4b	-0.20615499
146	0xbd89e27f	-0.06732654
147	0x3e099ce6	0.13438758
148	0xbe427973	-0.18991642
149	0xbc890198	-0.016724393
150	0x3e074e3b	0.13213436
151	0xbd7d1bcc	-0.061794087
152	0xbd75c58d	-0.060002852
153	0xbb59b83a	-0.003322138
154	0xbdd0dd81	-0.101984985
155	0x3df4e85e	0.11958383
156	0xbe594e47	-0.21221267
157	0x3d8f0ca3	0.06984832
158	0xbce4e4ed	-0.027941192
159	0xbce1d090	-0.02756527
160	0xbc9a08d7	-0.018803043
161	0x3df7b38a	0.12094791
162	0xbe09b6b8	-0.13448608
163	0xbe51eb11	-0.20499827
164	0xbe205e4b	-0.1566097
165	0xbe3bf1ec	-0.18354005
166	0xbdd7e143	-0.10541012
167	0x3e2f1aa5	0.17100008
168	0xbe2207cb	-0.15823285
169	0xbe0758b0	-0.13217425
170	0xbe34bb92	-0.17649677
171	0xbded348a	-0.11582287
172	0x3dc291bd	0.095004536
173	0xbe0d82d9	-0.13819446
174	0x3cad2e4e	0.021140244
175	0x3d95d802	0.07316591
176	0xbc8646b5	-0.016391138
177	0x3d9a5e1d	0.07537482
178	0x3d4b7e84	0.0496812
179	0x3e6995ba	0.22811022
180	0xbccf925f	-0.02533835
181	0x3e2c0e26	0.16802272
182	0x3e25f155	0.16205342
183	0x3dd3f81a	0.10350056
184	0x3e7a9cdf	0.24473904
185	0xbe14797d	-0.14499469
186	0xbe147bfa	-0.14500418
187	0x3dffa8f3	0.124833964
188	0x3da6bd47	0.081415705
189	0x3e48127f	0.19538306
190	0xbce6ed38	-0.028189287
191	0xbd230578	-0.039800137
192	0x3e1ac17a	0.15112868
193	0x3bf2eb46	0.0074133007
194	0x3e1d17e1	0.1534114
195	0xbde22b47	-0.11043411
196	0xbd917b68	-0.07103616
197	0x3b286513	0.002569501
198	0x3e0d03c0	0.13770962
199	0xbe369c67	-0.178331
200	0xbdcc88f2	-0.09987058
201	0x3e0f7d7c	0.14012712
202	0x3d0ff816	0.035148703
203	0x3e2d71a3	0.1693788
204	0xbd96325e	-0.073338255
205	0xbe14d1f5	-0.14533217
206	0xbe16aef8	-0.14715183
207	0xbdcf8895	-0.10133473
208	0xbe2e8f12	-0.17046764
209	0x3ddbbcea	0.10729392
210	0x3d887afb	0.06664082
211	0xbe2c00a5	-0.16797121
212	0x3e572935	0.21011813
213	0x3d7c7954	0.061639145
214	0x3d66ecc0	0.056378126
215	0xbdbad480	-0.091225624
216	0x3dcff2a8	0.10153705
217	0xbe18b66e	-0.14913341
218	0x3e16338e	0.14668104
219	0xbd8dffe7	-0.06933575
220	0x3dabddca	0.08391912
221	0xbd782b16	-0.060587965
222	0x3e0718fd	0.13193126
223	0xbe39ef7d	-0.18157764
224	0xbd79a5d6	-0.06094917
225	0xbd6f5d4c	-0.058438584
226	0xbe049268	-0.12946475
227	0xbdf1f1e1	-0.11813713
228	0xbd78d7e8	-0.06075278
229	0x3cb78f4c	0.022407196
230	0x3e1d5da3	0.15367751
231	0xbd11ba20	-0.035577893
232	0x3e38b258	0.18036783
233	0xbddfb013	-0.10922255
234	0xbde44580	-0.111460686
235	0xbd1aaf2a	-0.037764706
236	0xbd2d03eb	-0.042240065
237	0x3d8258ac	0.06364569
238	0x3e1fec2e	0.15617439
239	0x3d97d146	0.074129626
240	0xbe5ecb31	-0.21757199
241	0xbd8fed61	-0.07027698
242	0xbd302d78	-0.043012112
243	0xbe78c0fa	-0.24292365
244	0x3d6cb668	0.057791144
245	0x3e419a39	0.18906488
246	0x3ddc37fe	0.10752867
247	0xbb8c7b00	-0.0042871237
248	0xbce27b22	-0.027646605
249	0xbdcfa4cd	-0.10138855
250	0xbcc509a8	-0.024052456
251	0x3e05daaf	0.13071702
252	0xbe084255	-0.13306554
253	0x3d0de07c	0.034637913
254	0xbe22aafb	-0.15885536
255	0xbd728230	-0.059206188

proj.weight f4 [64, 64]
0	0xbd6b682c	-0.057472393
1	0x3d7aa885	0.06119587
2	0x3dd40499	0.103524394
3	0x3d920781	0.071303375
4	0xbd103278	-0.03520438
5	0xbde1440c	-0.10999307
6	0xbda30139	-0.079592176
7	0xbce485c1	-0.02789581
8	0xbbf2c509	-0.0074087423
9	0xbdb6deaf	-0.08929192
10	0x3cc07ff1	0.023498507
11	0xbd1fad18	-0.038983434
12	0x3d2ccd64	0.042188063
13	0xbd6d7a9e	-0.057978265
14	0x3c58c84c	0.013231348
15	0xbd008a6a	-0.031382002
16	0x3e5f1c8a	0.2178823
17	0xbddd3430	-0.108009696
18	0xbd1f6353	-0.038913082
19	0x3d08d6a9	0.03340784
20	0xba4646a0	-0.00075636245
21	0x3be895d8	0.007097941
22	0x3db1a5f8	0.08674234
23	0x3bf4a1e1	0.0074655865
24	0x3cceffdc	0.025268488
25	0x3cfe48fd	0.031040663
26	0xbd881d7e	-0.0664625
27	0xbd680d29	-0.056653176
28	0x3d915f29	0.070982285
29	0x3d81b500	0.06333351
30	0x3dbb483d	0.09144638
31	0xbcb405fb	-0.021975508
32	0x3dd2f152	0.102999344
33	0x3d9d1ccd	0.07671509
34	0xbce861f0	-0.028367013
35	0xbd561b47	-0.052272107
36	0x3d157fab	0.036498707
37	0xbdb64557	-0.08899944
38	0xbb97b3fa	-0.004629609
39	0x3d2a0cf4	0.04151626
40	0xbc718557	-0.014741263
41	0x3d8e6f63	0.06954839
42	0xbd317943	-0.043328535
43	0x3dcab077	0.09896939
44	0xbd8fa352	-0.07013573
45	0xbd8dbc7b	-0.069207154
46	0x3dd01706	0.10160641
47	0x3e04c4a3	0.12965636
48	0x3cd7a19c	0.026322179
49	0xbd0f7b63	-0.03502978
50	0xbd6e7da8	-0.058225304
51	0xbbd26098	-0.0064202063
52	0x3d8c963f	0.06864595
53	0x3de5f3d8	0.1122815
54	0x3db1fb6d	0.08690534
55	0x3a06ff6b	0.00051497546
56	0x3e3c407d	0.18383975
57	0x3d10a7bd	0.035316218
58	0xbc06fd90	-0.008239165
59	0x3b315605	0.0027059328
60	0xbc9ed74c	-0.01938977
61	0x3d81cce6	0.063379094
62	0x3c3d069e	0.011537222
63	0x3d893ae7	0.06700688
64	0xbc908169	-0.017639833
65	0xbd2c0205	-0.041994113
66	0x3d309536	0.04311105
67	0xbd80f835	-0.06297342
68	0x3dbe6adf	0.09297728
69	0x3dc4ed0b	0.09615525
70	0x3d3ba68c	0.04581313
71	0xbc5d8d75	-0.0135224955
72	0x3cf12670	0.029437274
73	0x3d8a8318	0.067632854
74	0xbdbb6b7c	-0.091513604
75	0xbc827fe4	-0.015930124
76	0xbd7e2f36	-0.062056743
77	0xbdccd805	-0.1000214
78	0xbd80a288	-0.062810004
79	0xbd9f34a5	-0.07773713
80	0x3e796a51	0.24356963
81	0x3db2f3cb	0.08737906
82	0xbd8c3254	-0.06845537
83	0xbdaea6a2	-0.085278764
84	0x3e2dd926	0.16977367
85	0x3d3bf783	0.045890342
86	0x3da3232c	0.07965693
87	0x3c865091	0.016395839
88	0xbcf3c459	-0.029756712
89	0xbd96e74b	-0.073683344
90	0x3d865687	0.065594725
91	0xbe0a81fd	-0.13526149
92	0xbdbdec67	-0.09273606
93	0x3d8a8076	0.06762783
94	0xbc99f347	-0.018792761
95	0x3cdf3edf	0.027251659
96	0x3d7f9230	0.062395275
97	0xbd855db7	-0.06512015
98	0xbd72181f	-0.059105035
99	0xbd80a35b	-0.062811576
100	0xbdb2df0f	-0.08733951
101	0x3c3ed1e0	0.011646718
102	0x3e35379d	0.17696996
103	0x3bce4f34	0.006296063
104	0x3d632a5e	0.055460326
105	0xbd495d73	-0.049161386
106	0x3cd85bc1	0.02641094
107	0xbdbe9043	-0.093048595
108	0xbc1bf886	-0.009519702
109	0x3d092c8e	0.033489756
110	0xbcf22f10	-0.029563457
111	0x3e922a03	0.28547677
112	0x3d0e6792	0.03476674
113	0x3d53dfd5	0.051727135
114	0x3e1e8b54	0.15482837
115	0x3d80edf4	0.06295386
116	0x3ad09be8	0.0015915604
117	0x3db1ac6c	0.08675465
118	0x3e078cac	0.13237256
119	0xbdca7a9d	-0.09886668
120	0x3dc42197	0.09576719
121	0x3d89004d	0.066895105
122	0xbd1c979b	-0.03823052
123	0xbdc89a58	-0.09795064
124	0xbd8de06d	-0.069275714
125	0xbcd068e3	-0.025440639
126	0x3dadd4ce	0.08487855
127	0x3da0ad81	0.07845593
128	0xbc841ac5	-0.016126046
129	0xbdf87e48	-0.12133461
130	0x3c1b063a	0.009461934
131	0x3d2e7a97	0.04259738
132	0xbcf9da27	-0.030499531
133	0x3c9d894b	0.019230505
134	0xb9979c91	-0.00028917615
135	0x3d62f4ed	0.05540936
136	0x3dd30a7c	0.10304734
137	0x3d694bf9	0.05695722
138	0xbcee022f	-0.029053776
139	0x3deec4bd	0.116586186
140	0xbc26baed	-0.0101764025
141	0xbd8a452c	-0.06751475
142	0x3dd427c8	0.1035915
143	0x3df461c2	0.11932708
144	0x3e3829c1	0.17984678
145	0x3de0b0c6	0.10971217
146	0x3db24dac	0.08706221
147	0x3d620e14	0.055189207
148	0x3db2dd2d	0.08733592
149	0xbd7ac2e0	-0.061221004
150	0xbad9d041	-0.0016617851
151	0xbda92ba5	-0.08260278
152	0x3cf55767	0.029948903
153	0xbdcfddea	-0.101497486
154	0xbb069d57	-0.002054056
155	0x3d9996c1	0.07499457
156	0xbd1207e2	-0.03565205
157	0xbc3fe48f	-0.011712207
158	0xbda52ec7	-0.08065563
159	0x3a13c9c2	0.0005637669
160	0xbe104223	-0.14087729
161	0xbcb2ead4	-0.02184049
162	0xbbb20742	-0.005432994
163	0x3d025993	0.031823706
164	0xbddcb7e0	-0.10777259
165	0x3cbf1684	0.023326166
166	0x3be8fb6c	0.00711005
167	0xbcadb076	-0.021202307
168	0xbe0f2319	-0.13978232
169	0xbdaf576b	-0.085615955
170	0x3d0d4c70	0.034496725
171	0x3bc71440	0.006075412
172	0x3df5b638	0.11997646
173	0x3db7e605	0.089794196
174	0x3dbd1b73	0.09233751
175	0x3e2270e3	0.15863375
176	0x3d985de0	0.0743978
177	0x3d747459	0.05968127
178	0xbdb3c79c	-0.08778307
179	0x3da8ee03	0.08248522
180	0x3d84e305	0.06488613
181	0x3a18789f	0.0005816314
182	0xbd554381	-0.05206633
183	0x3daaf416	0.08347337
184	0x3e166f96	0.14691004
185	0x3a7e913b	0.0009710972
186	0xbd462ed4	-0.048384503
187	0xbdbbeb33	-0.0917572
188	0x3d44a63a	0.04801009
189	0xbd10ba4b	-0.035333913
190	0xbcfa44a0	-0.030550301
191	0xbdb985d9	-0.090587325
192	0x3cf0d618	0.029398963
193	0x3de85f52	0.11346306
194	0x3ccec164	0.0252387
195	0x3d58bcdb	0.05291448
196	0xbdc6d79e	-0.097090945
197	0xbdc45c68	-0.095879376
198	0xbd7ad2ce	-0.061236195
199	0xbd8da960	-0.06917071
200	0xbced70d4	-0.028984465
201	0xbd8ad8fb	-0.06779667
202	0xbd29026c	-0.041262075
203	0xbd7a07d9	-0.06104264
204	0x3d4b11e0	0.049577594
205	0x3c93b337	0.018029792
206	0x3d10dc24	0.035366192
207	0x3d5adddc	0.053434238
208	0x3d11ea49	0.035623822
209	0xbd19cf1d	-0.037551034
210	0x3c8ba951	0.01704851
211	0xbdd8d2ae	-0.10587059
212	0x3dc09053	0.09402528
213	0xbd944fba	-0.07241769
214	0x3dc16c15	0.09444443
215	0x3df9c7af	0.1219629
216	0x3d29d126	0.041459225
217	0xbd8a2208	-0.06744772
218	0x3db587a3	0.08863761
219	0xbdbd3d58	-0.09240216
220	0x3c8afbae	0.016965713
221	0x3de470fe	0.11154364
222	0x3e023844	0.12716776
223	0x3bce46ac	0.006295046
224	0xbc9722e5	-0.018449256
225	0xbb32659c	-0.0027221208
226	0xbdeb2769	-0.11482126
227	0x3cd71a4b	0.026257655
228	0xbdab8582	-0.08375074
229	0x3cf98b95	0.030462066
230	0x3c2107b2	0.009828495
231	0x3dc497d4	0.095992714
232	0xbd77a7a2	-0.0604626
233	0x3dd09016	0.10183732
234	0xbc9008ed	-0.017582381
235	0xbcc64f14	-0.02420763
236	0xbdec3de5	-0.11535243
237	0x3de78589	0.11304767
238	0x3cff2733	0.031146621
239	0x3d5a9b40	0.053370714
240	0x3bb0d897	0.0053969133
241	0x3d22095f	0.03955972
242	0x3b4f5b45	0.0031640094
243	0x3ddd75ad	0.108134605
244	0x3da3eeac	0.080045074
245	0x3c42acc3	0.01188201
246	0x3dfe4a22	0.124164835
247	0x3dd48d60	0.10378528
248	0x3dac2ad0	0.08406603
249	0xbaa6e30e	-0.0012732462
250	0x3d064d40	0.032788515
251	0xbd218399	-0.039432142
252	0x3d95306b	0.072846256
253	0xbdb732ed	-0.0894526
254	0xbd2c603e	-0.04208397
255	0x3d729d3c	0.05923198

proj.bias f4 [64]
0	0x3dec6d3a	0.11544271
1	0x3e16c6b9	0.14724244
2	0x3d7b9d84	0.061429515
3	0x3e12c754	0.1433385
4	0xbdc2400c	-0.09484872
5	0xbe0133b7	-0.12617384
6	0xbe18e474	-0.14930898
7	0x3c929069	0.017891126
8	0xbd4edff8	-0.050506562
9	0xbdffa74b	-0.124830805
10	0xbd7e41af	-0.06207436
11	0xbce335af	-0.02773556
12	0x3e178f3b	0.14800732
13	0xbc2debac	-0.010615271
14	0x3e0ec6c7	0.13943015
15	0x3d242e87	0.040083434
16	0x3d9ccbb1	0.076560386
17	0x3ddf0c08	0.10890967
18	0xbe2a3740	-0.16622639
19	0xbdcfc038	-0.10144085
20	0xbdc0e50a	-0.09418686
21	0x3e07a754	0.13247424
22	0x3d8e49fe	0.06947707
23	0xbdab4ab7	-0.0836386
24	0xbe0c91bd	-0.1372747
25	0x3ca105ea	0.01965614
26	0xbb1eb58a	-0.0024217092
27	0xbd733b0f	-0.059382495
28	0xbdf21f3b	-0.11822363
29	0xbdd39d0c	-0.10332689
30	0x3d0c0fa0	0.03419459
31	0xbe16c2a4	-0.14722687
32	0xbd593192	-0.05302579
33	0x3dec38e8	0.115342915
34	0x3de44665	0.11146239
35	0xbb81a28c	-0.0039561447
36	0xbd01f622	-0.03172887
37	0x3d949f3d	0.07256935
38	0x3da667e4	0.08125284
39	0x3df96125	0.12176732
40	0x3d966d94	0.07345119
41	0x3df5d970	0.120043635
42	0x3e056ca4	0.13029724
43	0xbde4a063	-0.11163404
44	0xbde3b0b1	-0.111176856
45	0x3d419b6b	0.04726736
46	0x3d8748bb	0.06605669
47	0xbdeaa846	-0.11457877
48	0x3d9c7215	0.07638947
49	0xbe18986d	-0.14901896
50	0xbdb18bbe	-0.08669232
51	0x3d995164	0.07486227
52	0xbc4d95c8	-0.012547918
53	0xbdf61be7	-0.12017041
54	0x3dd9831b	0.106207095
55	0x3c91539b	0.017740062
56	0xbd7aaa64	-0.061197653
57	0xbe0e8961	-0.13919593
58	0xbd936335	-0.071966566
59	0xbcb6055b	-0.02221935
60	0xbdd8d999	-0.105883785
61	0x3d83e781	0.0644064
62	0xbdd39967	-0.103319936
63	0x3e168b40	0.14701557

scorer.bilin.weight f4 [1, 64, 64]
0	0x3da04f31	0.078276046
1	0x3d67d55b	0.056599956
2	0xbd55c8ae	-0.052193336
3	0xbe15207d	-0.14563175
4	0xbcca10b1	-0.024666162
5	0x3c0a55c5	0.008443301
6	0xbd8505f4	-0.06495276
7	0x3dbc9ae6	0.09209232
8	0x3d641b3a	0.055690028
9	0x3df8238f	0.12116157
10	0xbdbd7e0d	-0.09252558
11	0xbd9b61a8	-0.07586986
12	0x3b89bcb6	0.0042034043
13	0x3c69787f	0.01424992
14	0xbdd537b6	-0.10411017
15	0x3dd209e1	0.102557905
16	0x3d1add99	0.03780899
17	0xbd4da9b8	-0.050210685
18	0x3e433171	0.19061829
19	0xbd99fd56	-0.07519023
20	0xbdc59990	-0.0964843
21	0x3bd1fcb8	0.0064083003
22	0x3da79c43	0.081841014
23	0x3dc12b94	0.0943214
24	0xbcba6af1	-0.022756072
25	0x3db5c42e	0.08875309
26	0x3d6d13c5	0.05788018
27	0x3cf37135	0.029717067
28	0x3dc0ea1f	0.09419655
29	0x3d418cc5	0.04725339
30	0x3b107378	0.002204148
31	0xbc8ea04f	-0.017410425
32	0xbd5a443c	-0.05328773
33	0xbdd99828	-0.106247246
34	0xbd0dd0c0	-0.034622908
35	0xbd9af80b	-0.07566842
36	0x3d8c451a	0.068491176
37	0x3b1735ca	0.0023072832
38	0xbe07addf	-0.1324992
39	0xbded7bcf	-0.1159588
40	0x3d889da3	0.06670692
41	0xbda05c37	-0.078300886
42	0xbca8fe87	-0.02062918
43	0xbd5fe819	-0.054664705
44	0x3b23eb46	0.002501206
45	0x3d87aa93	0.06624331
46	0x3c80d842	0.01572812
47	0x3d9ca362	0.0764835
48	0xbc6d5cbd	-0.014487443
49	0xbdaf2a0e	-0.08552943
50	0x3c225ac1	0.009909333
51	0x3d9fd950	0.07805121
52	0x3cbc4dc9	0.02298631
53	0x3d4ca808	0.049964935
54	0xba2e35e1	-0.0006645602
55	0x3dc3f4a6	0.09568147
56	0x3da077ae	0.07835327
57	0x3cd6255b	0.02614086
58	0xbd4fa4c2	-0.050694235
59	0x3dde27b2	0.10847415
60	0xbd28b853	-0.04119141
61	0xbdc0ceec	-0.09414467
62	0x3d8f0a31	0.06984366
63	0xbdd582a9	-0.10425312
64	0xbe0615eb	-0.13094299
65	0xbdf55151	-0.119784005
66	0xbcbb0e1e	-0.02283388
67	0xbdcd8f65	-0.10037116
68	0x3e0e087a	0.13870421
69	0x3c99209b	0.018692305
70	0x3a9b2389	0.0011836152
71	0xbdac3792	-0.08409037
72	0xb945e3aa	-0.00018872196
73	0x3e0ed7b6	0.13949475
74	0xbd4fa44f	-0.050693806
75	0xbe0abb7d	-0.13548084
76	0x3bfecb36	0.0077756895
77	0x3d753feb	0.05987541
78	0xbe0bdb80	-0.13657951
79	0xbd1ef6e1	-0.03880966
80	0x3dbea08d	0.093079664
81	0xbddf8c7c	-0.10915467
82	0x3e11816c	0.14209527
83	0xbb54ef4c	-0.0032491265
84	0xbdc268f4	-0.094926745
85	0xbe13b26c	-0.14423531
86	0x3d71332c	0.058886692
87	0x3d974a88	0.073872626
88	0x3dbeab0d	0.09309969
89	0x3d188fec	0.03724663
90	0x3d219b39	0.039454672
91	0x3df04917	0.11732691
92	0x3df579b5	0.119861044
93	0x3dffe62a	0.12495072
94	0x3d46f33a	0.048571803
95	0x3d395ac2	0.04525257
96	0x3d7b0cb9	0.06129143
97	0xbe0daffa	-0.13836661
98	0x3cee81bc	0.029114597
99	0x3d653ada	0.05596433
100	0x3d9b4ae7	0.07582646
101	0xbd97e16d	-0.074160434
102	0x3dbbe11c	0.091737956
103	0xbb8f5949	-0.0043746573
104	0xbd80ded9	-0.06292505
105	0xbc74e3a4	-0.014946852
106	0xbd99450e	-0.07483874
107	0x3c810dfd	0.01575374
108	0x3e17d4c6	0.1482726
109	0x3d3e7ab2	0.04650373
110	0xbd18a3ea	-0.037265696
111	0x3cc96d51	0.024588259
112	0x3caac5c3	0.020846253
113	0xbd5c8847	-0.0538409
114	0xbd74c07e	-0.059753887
115	0x3e05e26c	0.13074654
116	0xbc572977	-0.013132445
117	0x3d929237	0.071567945
118	0xbda2f4b3	-0.07956829
119	0xbddb9b73	-0.10723009
120	0x3d2a96a8	0.041647583
121	0x3e01e752	0.12685898
122	0xbdbed78b	-0.09318455
123	0xbdda939f	-0.10672688
124	0xbbeec7ef	-0.0072870175
125	0x3d8caa31	0.06868399
126	0xbdafa9d0	-0.08577311
127	0x3d932417	0.07184618
128	0x3dbf6ee5	0.09347323
129	0xbd28c191	-0.041200224
130	0x3a235d43	0.00062318536
131	0xbcc2346b	-0.023706635
132	0x3e0615a7	0.13094197
133	0x3c8e37ad	0.017360533
134	0x3da80127	0.08203345
135	0xbd309e29	-0.043119583
136	0x3be2045e	0.0068974933
137	0xbcee3a32	-0.029080484
138	0x3c59830f	0.013275876
139	0xbcc5a95b	-0.024128607
140	0x3c501c27	0.012702025
141	0x3d38d5d1	0.045125786
142	0xbdffd3b2	-0.124915496
143	0x3dcd252a	0.10016854
144	0x3d65f28a	0.056139506
145	0x3d787fac	0.060668632
146	0x3e03d014	0.12872344
147	0x3d766b12	0.060160704
148	0x3dc2d6d9	0.09513635
149	0x3d465f98	0.04843101
150	0x3d67bfe5	0.05657949
151	0xbd807b68	-0.06273538
152	0x3da2ee79	0.07955641
153	0xbc3f2fe8	-0.011669137
154	0x3d233fbc	0.039855704
155	0x3d39761c	0.045278654
156	0xbdac9ec6	-0.08428721
157	0xbd411152	-0.04713566
158	0xbda2984f	-0.07939207
159	0xbcdcaa87	-0.026936783
160	0x3d2cf847	0.042228963
161	0x3c6b4973	0.014360773
162	0x3dbbf3ff	0.09177398
163	0xbdbec539	-0.09314961
164	0x3d313684	0.04326488
165	0x3dce1fef	0.100646846
166	0xbdd71e12	-0.10503782
167	0xbe0505c1	-0.12990476
168	0x3c46c475	0.0121318
169	0xbd8a3b9c	-0.06749651
170	0x3c8f050a	0.017458457
171	0xbd4a5710	-0.049399436
172	0x3d002ad8	0.03129086
173	0xbde0d64d	-0.10978375
174	0x3db5c31c	0.08875105
175	0xbd92ec2a	-0.07173951
176	0xbdfdef60	-0.12399173
177	0xbd76c81a	-0.060249425
178	0xba38b7c7	-0.0007046428
179	0x3de83050	0.1133734
180	0x3c484fa8	0.012226023
181	0xbbd93aae	-0.0066293096
182	0xbe26a157	-0.16272484
183	0x3d2069f6	0.039163552
184	0x3c337a8e	0.010954512
185	0x3b0902d4	0.0020906227
186	0xbcb73f3a	-0.022369016
187	0x3ca46733	0.02006874
188	0x3dae6ec3	0.0851722
189	0xbd990d73	-0.07473268
190	0xbc6be24c	-0.014397215
191	0x3d29d6c4	0.041464582
192	0xbdd750d2	-0.10513462
193	0xbc976592	-0.01848105
194	0x3d821954	0.06352487
195	0x3d8b49af	0.068011634
196	0xbd951850	-0.07280028
197	0xbd19a358	-0.037509292
198	0x3d83a454	0.064278275
199	0x3d8ef8c7	0.06981044
200	0xbcaee629	-0.021349983
201	0xbdb72bba	-0.08943887
202	0x3c9b2cf4	0.018942334
203	0x3d803395	0.062598385
204	0xbdbc86a9	-0.09205372
205	0xbdec6021	-0.11541773
206	0xbc999533	-0.018747902
207	0x3df5e054	0.12005678
208	0xbdebf58c	-0.11521444
209	0xbc7b3c0c	-0.0153341405
210	0x3e207a6e	0.15671703
211	0x3d70daa3	0.05880226
212	0xbd4f1336	-0.05055543
213	0xbd879ea8	-0.06622058
214	0xbded4442	-0.11585285
215	0x3d1f131f	0.038836595
216	0xba8a7fb8	-0.0010566628
217	0x3be11289	0.0068686646
218	0xbd0b60dd	-0.034027923
219	0xbd7db0b2	-0.061936088
220	0x3e0fac84	0.14030653
221	0x3d65cd2b	0.056103867
222	0x3d879fda	0.06622286
223	0x3dbc0040	0.09179735
224	0x3d972185	0.0737944
225	0xbd82a52c	-0.0637916
226	0xbd71f2f7	-0.0590696
227	0xbd6e7cb6	-0.058224402
228	0xbdbd6a9b	-0.09248849
229	0xbe027b98	-0.1274246
230	0xbd77a0d1	-0.0604561
231	0x3dc39085	0.09549049
232	0xbe129aac	-0.14316815
233	0xbdad33bf	-0.084571354
234	0xbdf1e075	-0.1181039
235	0xbd6f6142	-0.05844236
236	0x3e0cb23b	0.13739865
237	0xbdb1b878	-0.08677763
238	0xbdddf60d	-0.10837946
239	0xbd5c49c7	-0.053781297
240	0x3cbb3ca7	0.02285607
241	0xbcbb94b2	-0.022898052
242	0xbda118a4	-0.07866028
243	0x3de8fb90	0.11376107
244	0x3c2b2eae	0.010448141
245	0xbd732a0a	-0.059366263
246	0xbd7ebf90	-0.062194407
247	0x3d875728	0.066084206
248	0x3d787b53	0.060664486
249	0xbcdb0f5f	-0.026740728
250	0xbd300e21	-0.042982224
251	0xbd145238	-0.036211222
252	0x3d9e5cb1	0.07732523
253	0xbde1d030	-0.11026037
254	0x3e1079b4	0.14108926
255	0xbc32fbb1	-0.010924266
