checkpoints/best.pt (torch, 53724 bytes, 7 tensors)

convs.0.bias f4 [64]
00000000: 4fd7 f03d bdce 6cbb 430a f23c 0000 0000
00000010: 0000 0000 91ce ffbc b55c 203e 5488 a1bd
00000020: 93c9 e1bd d828 75be ca91 a7bd d77a 103e
00000030: 0000 0000 ba48 e93d d611 4abe e8d5 3e3e
00000040: 3c8a b1be 0000 0000 4a59 0d3e 2ce4 96be
00000050: 1935 f5bc 0000 0000 7b23 5fbd 0000 0000
00000060: 6e31 553d 6399 c83d 2dcc 93be 2323 a6bc
00000070: 679a 07be 6433 e8be 7a55 15bb 0000 0000
00000080: 6ff1 58be 0000 0000 5e42 7abc 4804 f5be
00000090: 0000 0000 9fac 56bd 0000 0000 0000 0000
000000a0: 1e0d e5bd e55e 97be 0000 0000 681d 77be
000000b0: a928 b4ba 1adc f7bc 83c3 94bd 0000 0000
000000c0: b186 02be dacf ec3c 0000 0000 ac69 17be
000000d0: 39cc 88be d9f4 f43b 0000 0000 0000 0000
000000e0: dc93 33bb 0000 0000 0000 0000 79bb 8f3d
000000f0: 8eb3 05be 0000 0000 0000 0000 0000 0000
0.11759817 -0.0036133968 0.029545909 0.0 0.0 -0.031226428 0.15660365 -0.07887331
-0.11024775 -0.23941362 -0.08182104 0.1410936 0.0 0.113908246 -0.19733366 0.18636286
-0.34675777 0.0 0.13803592 -0.29470956 -0.029932545 0.0 -0.054477196 0.0
0.052049093 0.09794881 -0.2886671 -0.020280426 -0.13242494 -0.45351708 -0.0022786544 0.0
-0.2118585 0.0 -0.015274612 -0.4785483 0.0 -0.052410718 0.0 0.0
-0.111841425 -0.29564586 0.0 -0.24132311 -0.0013745028 -0.03025632 -0.072638534 0.0
-0.12746693 0.028907705 0.0 -0.14786404 -0.2671831 0.007475477 0.0 0.0
-0.0027401363 0.0 0.0 0.070181794 -0.13056776 0.0 0.0 0.0

convs.0.lin.weight f4 [64, 2]
00000000: f7c6 be3e a399 8abe da54 c43e c67a 88bc
00000010: 8554 84bf b072 233e 8ee6 a9bd b8b3 ecbd
00000020: 2224 80be ed78 99be 5866 2b3d 2c1e 0dbe
00000030: 9018 4ebd 2cc5 dbbe c98b c83e 7141 a1be
00000040: 9ba3 2bbd f867 e33b 02b9 fc3d f8ed 713e
00000050: e1a2 ee3e d720 b1be 5aa3 693e 499d 78be
00000060: 1056 07bd 3418 67be 1ab3 e13e 296b acbe
00000070: efd7 113d 8d1b 313e 6991 8f3e 4e05 8fbe
00000080: 0c30 a13e 1a20 203c 88de 1e3d ec0a 88be
00000090: 93be 873e 6318 78be 183e 663c ccd0 813e
000000a0: 1b3a 3a3d 1974 4cbe e944 1cbe 60e9 6bbc
000000b0: 1bbf b73e 2c01 9ebe e429 30be f474 d3bd
000000c0: bb60 1fbf dec0 913d ffd3 d53e bcea bfbe
000000d0: 5e8c 833e 649b 133e 1756 f83c cc76 00be
000000e0: a807 cb3e 3a54 583d 78fb ad3e e052 ae3d
000000f0: 69f5 8bbc 9b3b 94bc 882a 5abd a403 b8bd
00000100: a455 133e 27b2 033e 8085 f4bc 5841 8abd
00000110: cc30 32bc 4d48 08bd 8e75 4a3d 68d7 4d3e
00000120: 0836 8cbe 0ae1 e3bd e2b0 a03e e9e7 d9bc
00000130: a0b3 75bc 4e25 3abe b4e4 3cbe 6f48 8abe
00000140: 4434 50be d925 453c 961b b33e 42c9 263e
00000150: 3375 88be 52ab 39be ba7f d23c 677f 3f3e
00000160: 03f5 99bb a5da 38be b446 bc3e ab9c bfbe
00000170: 4ebd 6fbf 22b0 d63d 5a63 0cbe 1493 77bd
00000180: dd48 8ebf 4ad7 aa3c f12b 983e 22c5 35bd
00000190: 2148 57be 905b 98be 7b65 88bf 5bb6 2f3e
000001a0: 3e8e 8b3e 106d 043e 9177 af3e 3768 f0bc
000001b0: 8080 41bb efcd 6abe 6043 84be b164 90be
000001c0: 23bf 163d 3881 6ebe 888b 78bd 96af 31be
000001d0: 5c0b 61bd ae4e 59be 8d6c 5fbf 1c15 363e
000001e0: 6b28 8dbe adb0 603e 1019 c6bd b57c 62be
000001f0: 80e6 59bd 24aa 15be e0ea bcbd 94f6 92be
0.37261173 -0.2707034 0.38345987 -0.016660105 -1.0338293 0.15961719 -0.08295928 -0.11557716
-0.25027567 -0.29975072 0.04184565 -0.13781041 -0.050316393 -0.42923868 0.39169148 -0.3149524
-0.041904073 0.0069398843 0.12339975 0.23625934 0.46608642 -0.34595367 0.2281622 -0.2427875
-0.03304106 -0.22567827 0.44081956 -0.33675507 0.03560632 0.17295666 0.28040627 -0.27933735
0.3148197 0.009773279 0.03878644 -0.26570833 0.26512584 -0.24228053 0.01405289 0.25354612
0.04546557 -0.19966163 -0.15260662 -0.014398903 0.3588799 -0.3086027 -0.1720348 -0.103250414
-0.62256974 0.071168646 0.41763303 -0.37483776 0.2569303 0.14414746 0.030314488 -0.12545317
0.3965428 0.0528147 0.33980918 0.08511901 -0.017084794 -0.018094828 -0.053263217 -0.089850694
0.14388138 0.12860928 -0.029848814 -0.067507446 -0.010875892 -0.033272076 0.049428515 0.20101702
-0.27384973 -0.11126907 0.3138495 -0.026599841 -0.014996439 -0.18178293 -0.18446618 -0.27008387
-0.20332438 0.012032949 0.34981984 0.16287711 -0.26651916 -0.1813176 0.02569567 0.18700944
-0.004698397 -0.18052156 0.36772692 -0.37424216 -0.9364823 0.104828134 -0.13709775 -0.060443
-1.1115986 0.020854611 0.29721025 -0.044377454 -0.21023609 -0.29757357 -1.0655969 0.17159407
0.2725696 0.12932229 0.3427091 -0.029346569 -0.0029526055 -0.2293012 -0.25832653 -0.2820182
0.036803376 -0.2329148 -0.060679942 -0.17352137 -0.054942474 -0.2122142 -0.8727501 0.1778149
-0.275699 0.21942396 -0.09672749 -0.22117884 -0.053198338 -0.14615685 -0.09224486 -0.2870375

convs.1.bias f4 [64]
00000000: a96d a0bd d2fc 4ebd de16 1b3e 92fc 03be
00000010: 7839 09be 8a85 1ebe fb24 d6bd bd86 453d
00000020: c2cc da3d d512 f93b e588 10be 7871 89bd
00000030: 8c63 5e3e c680 4d3e 759d 1bbe ee91 b73a
00000040: e61d a1bd 74fd 00bc cddd 85bd f78e e8bd
00000050: 4582 e0bd ff7b afbd 65fc 2c3c 4637 b93d
00000060: 4f72 c23d d24c 0abe 7aa0 c1bd 9071 c2bd
00000070: 5a96 62bd 9cda f6bc 13eb 9f3d ed1a 7d3e
00000080: ddcc 273e da4c bebd b480 0abe 26b9 043e
00000090: c8c3 97bd 56a4 b8bd fe15 abbd a043 02bd
000000a0: edb1 8ebd 19cd a9bd 35c2 a63e 375a e5bd
000000b0: 20ef fbbc 6d10 173e b714 6bbb 81b2 67bd
000000c0: 1d92 44bd 18e5 0b3d f1b4 22bc fe9d 503e
000000d0: 68ed 43bd 57ea 523e 9cc1 ad3c a804 bc3d
000000e0: bf45 aebd ba75 77bd 869d 1abe a5e8 d3bd
000000f0: 6101 d9bd 3c65 213e 92fa 943c 5e57 39be
-0.07833416 -0.050534077 0.15145442 -0.12889317 -0.13400829 -0.15480629 -0.10456272 0.0482242
0.10683586 0.007601122 -0.14114721 -0.067110956 0.21717662 0.20068654 -0.15196784 0.0014005282
-0.07867031 -0.007872928 -0.06536446 -0.113553934 -0.10962347 -0.08568572 0.010558222 0.09043746
0.09494459 -0.13505867 -0.094544366 -0.094943166 -0.055319168 -0.030133538 0.07808509 0.24717303
0.16386743 -0.09292002 -0.13525659 0.12961254 -0.07410389 -0.090157196 -0.08353804 -0.031802773
-0.069675304 -0.082910724 0.32570043 -0.11198848 -0.030753672 0.1475236 -0.0035870501 -0.05656672
-0.047990907 0.034154028 -0.009930835 0.20372769 -0.04783383 0.20597206 0.021210484 0.091805756
-0.08509397 -0.060415007 -0.15099153 -0.10347108 -0.10595966 0.15761274 0.018185887 -0.18099734

convs.1.lin.weight f4 [64, 64]
00000000: 8f8f 24bd 2c31 053d ce5d 92bc 66d2 20be
00000010: 869e b33d 8e5a e83d c85e 0cbe e4d1 0fbe
00000020: faa8 33be 7228 43be 4188 53bd e94c 05bc
00000030: 8027 c8ba 1bad 78bd 27b7 b13d fe61 53bc
00000040: 2e31 2bbe bcb1 6abd dec2 1abe da41 d3bd
00000050: 0c22 51be dcf3 1a3d b509 28be 667e ab3d
00000060: 95bd ca3d 13dc 3dbe 2d31 2cbe de2c 2fbe
00000070: 6ec8 cd3c 241f ac3c 3a87 05be 1ded 053e
00000080: 088c 573d 1651 48be b0f3 40bc 10a5 25be
00000090: 9cc3 19bd 224f 613d 68c5 bebc b5f9 19be
000000a0: 77ae 253e ef57 69be a847 98bd 3332 db3c
000000b0: 142c 2b3e f52b 573e 9227 e7bd 76f6 933d
000000c0: 4669 53be c3e8 b6bd 8cec 89bd ef42 383d
000000d0: be8b 02be 49b7 523c 1a14 e53d 83c8 2c3e
000000e0: a79f 79bd 7d8c 4a3e 4277 51be e40c 01be
000000f0: 845d e43c cc66 633d ead0 d03d c41d 13be
00000100: 0d48 20be 6724 56be afdf 22be d03d 71bc
00000110: b162 57be 767e 5abd d749 27be e063 2b3e
00000120: cf18 213d 144d 2d3b 727a 1bbd fd29 b5be
00000130: 1663 51be 3919 adbe 030a 4ebe 5eea 36be
00000140: 6c25 6abd a463 6fbd f7ca febe 1e24 043e
00000150: 4fb2 c23c adee 16be 45e8 383d 0de0 3a3e
00000160: 3606 36be 0b6e 793b a648 8f3d 40f5 05bb
00000170: f7a8 d63d d96d 153d 821c 523e ef67 083e
00000180: 5122 f8bd 7aeb 06be b0a9 5bbe d7b7 513e
00000190: fec2 26be c596 86be a01a 0ebe e630 5bbe
000001a0: 422c 23be 5a16 533e f6ad f73d d77a b03e
000001b0: c570 babd 06b6 05be e6c1 4f3c 208f 8a3b
000001c0: 4e96 5dbe c350 36bd c016 0ebe 28ac 863e
000001d0: dae4 603e 983a 8ebd 37b8 213e 07e6 1dbe
000001e0: 3acd bf3d 82e5 08be 10c7 c4bc 8df5 42bd
000001f0: 959b df3d c526 56be 5269 a4bd 3885 ed3c
00000200: ae07 a8be 07e9 58bf 979c 4cbb b763 243e
00000210: 2aaa 05be 8901 b03c 2495 483e 6097 733e
00000220: f908 4cbe 262f a6be df95 083e 253d 55be
00000230: 6464 b8bd 3f84 07be 0de1 1cbe e881 eabd
00000240: cd72 b8be 4b1a 53be 04a3 70be c7dd 3e3d
00000250: 0ab5 55be 9801 89bc bbca 8f3e cc1b 7dbd
00000260: 0aec 9ebd 30dc d8bb 7f9b 0ebf dec1 2a3d
00000270: 3d02 28bf 1e86 c03c d7db dcbc 90d0 e1bc
00000280: 72cf 53be 8ab3 f73d b8b6 09be 94a9 5fbe
00000290: 4b5e 20be 5f66 25bf 43e1 d7bd a51a 2f3e
000002a0: 261a 99bd 4719 3ebf 92bb 34be aae9 acbe
000002b0: 199d b63d faf7 76bd f168 a6bd 02d8 953d
000002c0: c2e3 21be 3c12 b1be 847e 4b3d 370c bcbc
000002d0: f90c cebe e424 82be 55f1 253e 1af8 d33d
000002e0: 8bf2 4a3e 7d79 14be fa7b 14be 68d2 653d
000002f0: 87c5 3ebd 7f12 483e 38ed e6bc 7805 23bd
00000300: 64c2 0e3e 7f6f 0fbd 2398 aa3d 472b e2bd
00000310: 687b 91bd c49e 7dbd 1442 f23d 75eb 21be
00000320: 7632 c9bd f10a a03d 76fd 903d e6b5 f43d
00000330: 5e32 96bd 0a78 10be 01b9 62be 0e2e 12be
00000340: 8d1c 86be eabc db3d 37f0 9e3d 00ef 46be
00000350: 6656 473e 5479 7c3d 9dd9 d93c 80d4 babd
00000360: 675e 373d 46fb 1dbe fd95 513d d473 e0bd
00000370: 6b55 0d3d 14f3 83bd 1a7d b53d 7def 39be
00000380: e8f7 20be 4c5d 6fbd 6892 04be a202 4fbe
00000390: e8d7 78bd 66bd 46bd a35d 1d3e 20ba 11bd
000003a0: 1e4a 123e 43d3 06be 8045 e4bd 480a 91bd
000003b0: f84f 52bd 2094 9f3d d903 073e 46d1 973d
000003c0: dd5c 87be af5d e2bd 782d 30bd 589b 69be
000003d0: 6615 95bb 4945 2e3e fe37 dc3d 007b 8cbb
000003e0: 0dd4 8ebd cda4 cfbd a809 c5bc c975 ab3d
000003f0: 5691 19be 7ce0 0d3d fbaa 22be 3082 72bd
-0.04017597 0.032517597 -0.017866995 -0.1570526 0.0877047 0.11345397 -0.13708031 -0.1404491
-0.17544928 -0.19058397 -0.051643614 -0.008136013 -0.0015270561 -0.06071196 0.08677512 -0.012901781
-0.1671798 -0.057298407 -0.15113398 -0.103152946 -0.20423144 0.03783022 -0.16409953 0.08373718
0.09899441 -0.18540983 -0.16815634 -0.17106959 0.025119986 0.021010943 -0.13039866 0.13078733
0.05262378 -0.19562182 -0.01177685 -0.16176248 -0.037540063 0.055007108 -0.02328749 -0.15036662
0.16179834 -0.2278745 -0.07435542 0.026757335 0.16716033 0.21012862 -0.11286844 0.07224743
-0.20645627 -0.089311145 -0.06734571 0.044985708 -0.1274862 0.012861081 0.11185475 0.16873364
-0.060943272 0.19780155 -0.2045565 -0.12602574 0.027876623 0.055517957 0.10196097 -0.14366823
-0.15652485 -0.20912324 -0.15905641 -0.01472421 -0.21033742 -0.05334326 -0.16336761 0.16737318
0.0393303 0.0026443647 -0.03795857 -0.35383597 -0.20447955 -0.33808306 -0.20121007 -0.17862841
-0.057164595 -0.058444634 -0.49764225 0.12904403 0.023766665 -0.14739485 0.045143384 0.18249531
-0.17775807 0.0038059975 0.069962785 -0.002044037 0.10481446 0.036481712 0.20518687 0.13320898
-0.1211592 -0.13175765 -0.2145145 0.20480286 -0.16285321 -0.26286903 -0.13877344 -0.21405372
-0.15934852 0.20613995 0.12093727 0.3446872 -0.0910354 -0.13057718 0.012680506 0.0042284876
-0.21639368 -0.044510614 -0.13875866 0.2630322 0.219623 -0.069447696 0.15792929 -0.1541978
0.09365316 -0.133688 -0.024020702 -0.047597457 0.10918347 -0.20913227 -0.08027901 0.028994188
-0.3281836 -0.8473057 -0.0031221265 0.16053663 -0.13053194 0.021485107 0.19588143 0.23788214
-0.19925298 -0.32457846 0.13338421 -0.20824106 -0.09003523 -0.13234042 -0.15320225 -0.11450559
-0.36025086 -0.20615499 -0.23499686 0.046598222 -0.20869842 -0.016724393 0.2808436 -0.061794087
-0.07759865 -0.0066180453 -0.5570602 0.041688792 -0.65628415 0.023501452 -0.026960297 -0.02756527
-0.20684603 0.12094791 -0.13448608 -0.21842033 -0.1566097 -0.6460933 -0.10541012 0.17100008
-0.074756905 -0.7425732 -0.17649677 -0.33772022 0.08916683 -0.060295083 -0.08125485 0.07316591
-0.15809539 -0.34584224 0.0496812 -0.022955043 -0.40244272 -0.2541877 0.16205342 0.10350056
0.19819085 -0.14499469 -0.14500418 0.056108862 -0.046575096 0.19538306 -0.028189287 -0.039800137
0.13941342 -0.03501844 0.08329799 -0.11043411 -0.07103616 -0.06191899 0.1182901 -0.15812476
-0.09824078 0.07814587 0.07079594 0.11948757 -0.073338255 -0.14108291 -0.22140886 -0.14275381
-0.26193658 0.10729392 0.07760661 -0.19427109 0.19466552 0.061639145 0.026593024 -0.091225624
0.044767763 -0.15427884 0.05116843 -0.109595925 0.03450529 -0.06442848 0.08861752 -0.18157764
-0.15719569 -0.058438584 -0.12946475 -0.20215848 -0.06075278 -0.04852047 0.15367751 -0.035577893
0.14286086 -0.13166527 -0.111460686 -0.07082039 -0.051345795 0.077919245 0.13185062 0.074129626
-0.26438037 -0.11053025 -0.043012112 -0.22813165 -0.00454967 0.17018618 0.10752867 -0.0042871237
-0.06974039 -0.10138855 -0.024052456 0.08372075 -0.14996848 0.034637913 -0.15885536 -0.059206188

proj.weight f4 [64, 64]
00000000: 5568 35bd 7f25 b0bd 160f 103e 10fd 8c3d
00000010: d27d fcbd 4c9b 07bd 91ad 8cbd a548 eb3d
00000020: 7ba9 d5bd 32dd abbb eb4f 87bd a95b a1bd
00000030: 1d86 843e 3613 09bd 6d2b 96bd 3d34 1cbe
00000040: 479a 0bbe e0db 0b3e cf92 faba 2acd 5b3d
00000050: 1d23 f33d 1543 053e 8a2a 82be 4d5a 88be
00000060: ff68 9fbd 4d5b 57bd 3acc 50be fced 15bd
00000070: 21d5 183e 74e5 79be 7ed2 88bd 2d4b 933e
00000080: 25e0 273e 0b54 db3d 1af0 d2bd 410d 09be
00000090: 38e5 56be d9f7 fbbd 86e8 10bd ac7f 0a3e
000000a0: 354b 223e a846 ea3d 404c 0d3e 5a6e e33d
000000b0: c1c7 1bbd 0545 16bb f8e4 fe3b 20d4 b5bd
000000c0: b38b 2d3d 067d 16bd d544 9dbd 5417 133d
000000d0: dbfd ea3d 4acb 193f 0338 243e a0fb 113e
000000e0: 7fa4 663d b8de 4e3d 3c58 913d 4efc 6c3c
000000f0: 2e48 b3bc 5863 2f3d 9f66 74be 23a7 e53c
00000100: dec6 44bd 46a3 85bd 5719 8ebd c105 55bc
00000110: 922c db3d 04f4 943d 1f6c 243d 6ec9 79bd
00000120: 836b cabd d31e 0e3d 67ac 97bd 2f2b 49bd
00000130: bacf fd3d 0523 41be 5c05 27be 0295 733e
00000140: 8e3e 0f3e da44 953e 2dab 4d3d b788 f6bd
00000150: 5e69 2f3e 2d40 c43d 8ca6 523e 4856 36bd
00000160: aab1 c3bd aaed 6b3d 3379 3e3d f746 e7bd
00000170: 45f8 78bd db6e 50bd 0437 36be e8b7 393e
00000180: 9e19 cabd 4acf ffbc e60e 8ebd 6bd7 03be
00000190: f945 1b3d f070 df3c 55a6 213e 2738 9e3d
000001a0: 9aef bd3c f672 88bc bf39 ca3b 59eb efbc
000001b0: becd b73c cd19 e1bd 8692 213d d781 5f3e
000001c0: 486d f9bc a685 b7bc e5ed 333e 4338 8d3d
000001d0: 1e2b bbbc f343 ca3d 6b6f 923c 47e1 9cbe
000001e0: 2a85 103d 84eb a43d 85a1 cebb 7e7b dcbd
000001f0: 666a 343c 39ca 37bd 702f 5f3e 8d20 f53d
00000200: 915b 2bbb 816c c2be 1aaf 5b3e c5d4 573d
00000210: 1a10 933d 4c4c 8f3d 6fce 2cbd c04e 873d
00000220: f644 9f3e 3f72 063d ac35 88bd 47c5 3a3d
00000230: 8dd9 e0be 968f 86bd 1d3d b93d c5f3 5bbd
00000240: f82b 733d 376d 313e bd46 813e bca6 cb3d
00000250: bd6d 173d d090 01be 49b2 99be bfe2 5bbe
00000260: 02e1 0dbe 2fdb bebd a5a2 bcbd f50c 4e3d
00000270: f838 4abc a0a9 c6bd 657d 9b3d a159 7abe
00000280: a301 08be b62f 713d 6734 093d ae80 32bd
00000290: 768f 30bf 86c2 9fbc fcee a53c e22d 72bc
000002a0: 6d51 973c fd32 b5bd 28c5 4dbe 416c ba3b
000002b0: c332 0d3e 8b34 9b3d 3a4a e53d d7e6 593d
000002c0: 5380 a83d ec7a 1c3d 4b4b d1bc cdfe 21be
000002d0: 0624 cd3d ce59 53bd 37dc a03d 162e 743e
000002e0: f1ac a73d 0c14 50bb 310f f33b de39 0dbc
000002f0: 8ebf a83d dfc7 dcbe 6b29 d6bd 7f21 2bbe
00000300: e54d 5d3c 15de 333e 32c2 2cbe abc2 fc3c
00000310: c708 b5bd 0fdf dcbc 966b 76bc 54bb 51bd
00000320: 8e57 adbd 7465 9b3d 2414 5dbd 43ef debd
00000330: 2fb7 973e 9ae7 b4bb a939 f2bd 53f1 2dbd
00000340: b003 9abe c052 093e 1d80 1a3e e983 a7bd
00000350: 62c5 71bd a9a5 fabc 273e b43d 0efd 15bc
00000360: da17 ba3d 367a 053e 7da9 d2bd 4a16 46bb
00000370: dd36 ccbb c816 50be 20c8 97bd 00fd 163e
00000380: 5b1f 483c 50d7 253c 5367 dfbd 5b13 36bd
00000390: 7756 c83c 5184 e03b b3dc 333d f14c e13d
000003a0: ba76 303d be77 6e3d 70a8 e03d 9bee 1b3c
000003b0: f238 aabd 7d44 64bd 1b2b 10be 156b adbd
000003c0: ffaf ee3d 8b11 e13c a5f6 1ebe 8e24 d43d
000003d0: 8576 b53d 8437 b03e 0e54 aa3e 7b0e 5c3e
000003e0: e138 10bd 7e14 953c 3ba3 2cbd ce73 db3c
000003f0: 218f 863d b4c7 50be d467 d23c 1ea7 773c
-0.044288952 -0.08600902 0.14068255 0.06884205 -0.12328686 -0.033107087 -0.06869043 0.11488465
-0.104327165 -0.0052448744 -0.0660704 -0.07878811 0.2588357 -0.033465587 -0.073325016 -0.15254302
-0.13633071 0.13658094 -0.0019117239 0.053662457 0.11871932 0.13013871 -0.2542308 -0.26631394
-0.07783698 -0.052577306 -0.20390406 -0.036603913 0.14925052 -0.24403936 -0.06680773 0.28768292
0.16394098 0.10709389 -0.10299702 -0.13383962 -0.20985878 -0.123031326 -0.035378 0.13525265
0.15849002 0.11439258 0.13798618 0.11105032 -0.038032297 -0.0022929322 0.00777876 -0.0887835
0.042369556 -0.036740325 -0.07679144 0.03591092 0.114742 0.6007582 0.16036992 0.14256144
0.05630922 0.05050537 0.070969075 0.014464451 -0.021885004 0.04281935 -0.23867272 0.028033799
-0.048041217 -0.065252826 -0.06938427 -0.01300186 0.107018605 0.07273105 0.040142175 -0.060983114
-0.098837875 0.034697365 -0.0740593 -0.04911345 0.12393136 -0.18861015 -0.16310638 0.2378731
0.13988706 0.29154092 0.050212074 -0.12037795 0.17130038 0.09582553 0.20571345 -0.044515878
-0.09555371 0.0575997 0.046502303 -0.11292832 -0.060783643 -0.05088697 -0.17794424 0.18136561
-0.09868167 -0.031226773 -0.069364354 -0.12875144 0.037908528 0.027275532 0.15786107 0.07725554
0.02318554 -0.01665638 0.0061714347 -0.029287027 0.022436973 -0.10991249 0.039446376 0.21826874
-0.030447617 -0.022402596 0.17571218 0.06895497 -0.022847708 0.098762415 0.017875394 -0.30640623
0.035283245 0.080527335 -0.0063058757 -0.10765742 0.0110116955 -0.04487059 0.2179544 0.11969099
-0.0026147107 -0.37973407 0.21453515 0.052693147 0.071808055 0.06996974 -0.042189058 0.06606817
0.311073 0.032823797 -0.06650862 0.045598295 -0.43915978 -0.065703556 0.090448596 -0.053699274
0.059368104 0.17326818 0.25249282 0.099439114 0.03696989 -0.12652898 -0.30018833 -0.21473216
-0.13855365 -0.0931915 -0.092107095 0.050305326 -0.012342684 -0.09700322 0.075922765 -0.24448253
-0.13281874 0.05888339 0.03349724 -0.04357975 -0.68968904 -0.019501936 0.020255558 -0.014781447
0.018471444 -0.08847616 -0.2009474 0.0056891744 0.13788895 0.07578381 0.11195798 0.05319866
0.08227601 0.038203165 -0.025548598 -0.15819855 0.100166366 -0.051599316 0.07854503 0.23845705
0.08187283 -0.003175023 0.0074175824 -0.008619754 0.08239661 -0.4312124 -0.104571186 -0.16711996
0.013507341 0.17565186 -0.16870955 0.030854544 -0.08839565 -0.026961831 -0.015040299 -0.05120404
-0.08463965 0.0758771 -0.053974286 -0.10885479 0.29631945 -0.005520773 -0.11827404 -0.042466473
-0.30080938 0.13410473 0.15087934 -0.08179457 -0.05902613 -0.030596571 0.08800917 -0.009154571
0.090865806 0.13034901 -0.102862336 -0.0030225688 -0.006232126 -0.2032119 -0.07411218 0.1474495
0.012214507 0.010122135 -0.109083794 -0.044452053 0.024455292 0.006851711 0.043911647 0.110010035
0.043081976 0.058219664 0.10969627 0.009517337 -0.08311643 -0.055729378 -0.14078943 -0.0846769
0.11654662 0.027474185 -0.15523775 0.10358535 0.088604964 0.34417355 0.33267254 0.21489899
-0.035210494 0.018198248 -0.042147856 0.026788618 0.065702684 -0.2038868 0.025684275 0.015115527

proj.bias f4 [64]
00000000: 345d b1bb bb3c 4a3c 7f2e 913d bd2a 10bd
00000010: 97ca cc3c 206d 5ebd 0b60 1ebe fc4a 8c3c
00000020: 8c79 63bd fd1c 2dbe b8d4 ccb9 0e48 6dbd
00000030: e471 a13d d4ed 173d 65e7 b03c d161 653c
00000040: 2144 b9bc 1c5e 653d ddf0 88be e1e5 04bd
00000050: 03cd a1bd faff 053d 8dcf 0d3d 97dc 73bc
00000060: fdcd 073d b427 113d 871d 793b 9d55 c2bd
00000070: 968c 2c3d 5edc 39bd ac94 8c3c 5b23 94bd
00000080: 0b62 acbd 181b ac3d c36f 94bb 257f fbbd
00000090: da4f bc3a 26e8 963b 2511 23bd a821 913d
000000a0: 4dcd e9bc 215c b83d 3a55 8f3d eca3 763b
000000b0: b546 aabc 2de4 743e 4a56 283d ab18 70bd
000000c0: 4263 b2bc d9b5 12bc 82d4 25be a9fc 993d
000000d0: 0872 873d 06d8 f3bd 5c8b f9bc 64b6 0c3e
000000e0: 5a71 153d 36e2 99bd 8b32 bebc c04d 5e3c
000000f0: 4339 453c 731b f4bc 017d 373d e95c 3f3d
-0.005412722 0.012343581 0.070889466 -0.03519701 0.024998946 -0.05430329 -0.15466325 0.0171256
-0.055535838 -0.1690559 -0.000390684 -0.057930045 0.07883051 0.037092045 0.021594713 0.014000372
-0.022615494 0.055997953 -0.26746264 -0.032445792 -0.07900431 0.03271482 0.034621764 -0.014884136
0.03315543 0.035438254 0.0038011984 -0.09488986 0.04212626 -0.045376174 0.017160736 -0.07233306
-0.08417138 0.08403605 -0.0045299246 -0.1228011 0.0014367059 0.004605311 -0.039811272 0.070864975
-0.028540278 0.09001947 0.069986776 0.0037634326 -0.020785669 0.23915167 0.041097917 -0.058617275
-0.021775845 -0.008954489 -0.16194347 0.07518894 0.066135466 -0.119064376 -0.03046196 0.13741452
0.036485054 -0.075138494 -0.02321746 0.013568342 0.012037578 -0.029798245 0.044796947 0.046719465

scorer.bilin.weight f4 [1, 64, 64]
00000000: bd6e ad3d 097f 863d 7e5c ffbe b907 febd
00000010: 848f abbe c381 99bd ad5e 0dbe e989 243d
00000020: 2633 263e feb9 f33d 03ca 1abe 3aba 07be
00000030: bc99 e73d eb81 a63e 75a0 7e3d 3b37 793c
00000040: 01f7 96be d9ff 383d 1472 1e3e 5c77 14be
00000050: fb8c 86be 2e53 81be e94a 7a3c 260e 95bd
00000060: 5344 d6bc e744 bb3d 0214 e0bd b6f7 1fbe
00000070: 7a18 673e dbb8 74ba 0c9c 0c3c 4870 8fbd
00000080: 98ae 64be 2237 3dbe a7b3 143e 3fdb 0ebd
00000090: dbda 6d3e 4273 043e 303e 9cbc 1adc 3bbe
000000a0: 43b4 a43e 2da1 19bd 75cc c7be da37 64bd
000000b0: f9ee e9bd f5be 7dbd bc4e 33be 8137 393e
000000c0: cd0c b63e bb76 57be 0a2b 03bb 7b43 eebb
000000d0: 548e dc3d 8523 583e db93 6bbd d1ac 103e
000000e0: 60f0 e53c 7995 e6bb 0d6e 0abf 00b1 393e
000000f0: 93b6 f4bd 8c23 15be f01d d33c 6d69 f83d
00000100: 8c45 1fbe 23d8 5bbb 6c75 a2bd aac5 f7bd
00000110: 9f2f ea3d 0a19 86be c086 253d 7907 ddbc
00000120: 4e44 4cbd ba7d 4b3e d6e5 a6be b423 b83d
00000130: 1afd 873d adf1 30bd 541e f4bc 5578 0dbe
00000140: 0a44 1e3e 4e3b 2fbe 2cae df3d 09c3 05be
00000150: 01dd fdbd d671 6dbe 99c3 5a3d 746e ccbd
00000160: fdeb 983d 3546 0c3e 4296 2d3d 79a2 053d
00000170: edd8 26bd bb31 043e 21b4 463a 1b70 fc3d
00000180: 6708 303d 14f7 74be 7806 0f3e 190f b03d
00000190: 768f 2abd f75d a8bc 2700 303d 9bbc 94bb
000001a0: db51 72bd eb35 3a3d eca0 40be f030 d3bd
000001b0: dd63 8f3d eece c23d 62fe 743d 7d82 9d3d
000001c0: a1ec aabc f39d 68be 9a54 ecbd f679 d4bd
000001d0: 4a46 a13d 4190 013e ab5e 4d3d 31ec 8dbd
000001e0: c4dc 3b3e 92f3 b33d 48eb 57be baea 88be
000001f0: 28ff 84bd 6900 883d edba 3bbd 3fbe d43d
00000200: 83cc 9c3e 0045 84bc 52b3 1b3e 5926 463e
00000210: 46e1 efbd 1ada 983d 13d9 983c 7980 a0be
00000220: 7a91 15be 3e68 b0bd ca0d d43d deae 37be
00000230: 6c92 76bd 4175 c63d 93b7 94be 82f2 1b3d
00000240: a492 aebe 677c 95bc c3ed 883d dc73 4dbc
00000250: b5e8 713d c797 fe3d 4d8e 473e 8cd3 e23c
00000260: 826c 7dbd 4743 a43d 7e0b ad3c 1aac 373e
00000270: 2ba1 2abe 3e84 173d 9426 b5bd afc8 923d
00000280: 3311 07bc 6083 483e 7e19 133e a884 6abd
00000290: f36c d13c 58a6 893d 07a3 30be b8c3 0cbe
000002a0: 6e1d 85bd b4a6 dfbc 894d 123d a09c 8ebe
000002b0: d2de 37bd a132 57bc 4bc0 163e df44 14bd
000002c0: 7d87 15be cdc0 d1bd 2657 08bc 5f49 283e
000002d0: ae5a 1d3e 47fa f53d 607d 31be c40e c83d
000002e0: e104 1cbe a945 7d3a 8c72 043e 9eaa 093e
000002f0: 5ad0 17be 7992 b9be 3b6f 563d 653b 323d
00000300: 52f6 18be 9413 c6bb af59 e0bd 3525 d03c
00000310: 945b 11be 2e80 8dbe eaf2 32bd 95b5 7b3a
00000320: 84fb aebc ef8e 09be dc21 7dbc dc08 463e
00000330: 8c4e b7bc aa3c 16bd 248c d13d 1eec d23c
00000340: 5647 4ebe 4ee3 7d3c 1bd9 8c3d e6a6 a7bc
00000350: e72a febd 601d cdbd 67aa e9bd f2f4 2dbe
00000360: 05bf d33d 62ef 06bd 6f48 18be 0085 73be
00000370: c1a1 903d 011c ab3d 169e 513d f08d cebd
00000380: 448c 26bd 7019 ffbd 5e29 303d c9c4 2fbd
00000390: 4959 efbc 9786 adbd ef92 ce3c b622 c23d
000003a0: 3538 5dbd f6d3 38bc cd6f 64be dca0 cfbd
000003b0: 896c 073d 1282 bdbd 541a 20be dd2b 32bd
000003c0: 53df 913d e509 0ebe c957 13be d713 47bd
000003d0: 9be0 af3d 9995 a93b 1ebc b83d ded7 be3d
000003e0: cbae 583e dc3b d6bd 566e 9abe 0a45 adbc
000003f0: e146 043d d8a6 773d 3597 a53d 3163 173e
0.08468387 0.06567199 -0.49875253 -0.12403817 -0.3350793 -0.07495453 -0.13805647 0.040170584
0.16230449 0.119007096 -0.15116124 -0.13254634 0.113086194 0.32520995 0.062164742 0.015210922
-0.29485324 0.04516587 0.15473205 -0.14498657 -0.26279435 -0.25258774 0.015276649 -0.07278089
-0.026155626 0.091440015 -0.10941316 -0.15621838 0.22567931 -0.0009335407 0.008582126 -0.07003838
-0.22332227 -0.18478063 0.14521657 -0.034877058 0.23228018 0.12934592 -0.019072622 -0.18345681
0.3216878 -0.037507225 -0.39023176 -0.055717327 -0.114225335 -0.06194969 -0.17510504 0.1808758
0.3555664 -0.21041386 -0.0020014667 -0.007271228 0.107693344 0.211073 -0.057514053 0.14128424
0.028068721 -0.0070368615 -0.54074174 0.18133926 -0.11948886 -0.14564341 0.025771111 0.12129483
-0.15553874 -0.0033545576 -0.07932553 -0.12098248 0.11434864 -0.26190978 0.04041171 -0.026981102
-0.049869828 0.1987218 -0.32597226 0.08991185 0.06640072 -0.04319923 -0.029799618 -0.13815434
0.15455642 -0.17112467 0.109218925 -0.13062681 -0.12395669 -0.23187956 0.053409193 -0.09982005
0.07466886 0.13698657 0.042379625 0.03262565 -0.04073422 0.12909596 0.0007579942 0.1232607
0.042976763 -0.23922378 0.13967311 0.0859663 -0.04164072 -0.020552618 0.042968895 -0.004539085
-0.059160095 0.045461576 -0.18811387 -0.103120685 0.07001469 0.09512125 0.05981291 0.07690904
-0.020864787 -0.22716503 -0.11539574 -0.10374825 0.07874735 0.12652685 0.05013911 -0.069298156
0.18345934 0.08786692 -0.21085846 -0.26741582 -0.0649398 0.06640703 -0.045832563 0.10387849
0.3062478 -0.016146183 0.15205124 0.19350566 -0.117128894 0.074634746 0.018658197 -0.31348017
-0.14606276 -0.086136326 0.103541926 -0.179378 -0.060198233 0.09690333 -0.29046306 0.03807307
-0.34096253 -0.018247796 0.066859744 -0.01253983 0.059059817 0.12431293 0.19487877 0.027688764
-0.06187106 0.08020645 0.021123644 0.17936745 -0.16663043 0.03699135 -0.08845249 0.071671836
-0.008243847 0.19581366 0.14365193 -0.057255417 0.025564646 0.06721181 -0.1724969 -0.13746536
-0.06499754 -0.02730117 0.035718475 -0.2785387 -0.044890232 -0.013134629 0.14721791 -0.036198493
-0.14602466 -0.10241852 -0.008321559 0.16434239 0.15366623 0.12010627 -0.17332983 0.09768441
-0.15236236 0.0009661564 0.12934321 0.13443992 -0.14825574 -0.36244562 0.05235217 0.043513674
-0.14937714 -0.0060448144 -0.10954606 0.025408367 -0.1419509 -0.27636856 -0.043688692 0.0009601948
-0.021360166 -0.13433431 -0.015449967 0.19339317 -0.022376321 -0.036678948 0.10231808 0.025747355
-0.201444 0.015496088 0.06877347 -0.020465326 -0.12410527 -0.100153685 -0.11409455 -0.1698797
0.103391685 -0.032943137 -0.14871381 -0.23781204 0.07062102 0.08354951 0.051176153 -0.10085666
-0.04066111 -0.12456024 0.0430082 -0.04291228 -0.02921738 -0.084729366 0.025216548 0.09479277
-0.05400868 -0.011281004 -0.22308274 -0.10138103 0.03306249 -0.092533246 -0.15635043 -0.043498863
0.07122674 -0.13870962 -0.14388956 -0.048602905 0.08587762 0.005175304 0.090202555 0.09318517
0.21160428 -0.10460636 -0.30162305 -0.021151084 0.032294158 0.06046185 0.08085481 0.14783932
