checkpoints/curve70_sage_v2.pt (torch, 71976 bytes, 9 tensors)

convs.0.lin_l.weight f4 [64, 2]
00000000: d9ca 21bf a400 cabe 0d53 003f 6d9d a53e
00000010: 2032 cbbe 271e 17bf 9226 26bf e9b8 4bbf
00000020: 7c50 41bf 1e47 6abe eaab 993e 58c9 90bd
00000030: 61ec 61bf cdd1 10bf 37f2 9b3e 466e 05bf
00000040: 0999 2abe a28c a23d d34e cfbe 0df5 69be
00000050: c6ea f0be 8702 75be 56cf a3be d17a 17bf
00000060: 0854 12bf 9bdb c1be f8da 093f 2217 b6be
00000070: ed35 6fbe 377f dc3d 8377 8e3d 9187 8d3e
00000080: 472e 713e a01c d3bd 9703 3dbf fe00 843d
00000090: 0c9d 6c3e bc1e 0fbe 3cc3 11bf 69e9 153f
000000a0: 134d 9abe 8349 efbe 56ea 26bf 28fa c1bd
000000b0: 20d6 a73c 2504 92be 0e43 4b3e c5fd 0abf
000000c0: ff28 8cbf bdc1 8abe 452b c13e 6bc3 813e
000000d0: 94ca d2be a0fb bbbd c971 05bf eba7 aebe
000000e0: 7535 7e3e 52bd 033f 052b 053f dfc6 36bf
000000f0: f93f f33e 9e29 e8be 9f55 043d f80c 803e
00000100: f02e aabd 441b cd3e e03c 1abf b448 8abe
00000110: 6224 9b3e e813 2abe 7b18 22be 14fc 9cbd
00000120: 631d 823e 01b8 163e d807 683e dc73 cbbe
00000130: 6ed5 25bf 0897 88bd 90f9 ae3d 9bb6 babe
00000140: 6ed0 96be 2049 213e ba99 a8bd 9ffc 55be
00000150: 2032 32be e3ed 23bf 54b1 e4be 26df a3be
00000160: 767c cfbe 7bdc 8e3e 64c9 52be 35a3 8dbe
00000170: 66f6 f53e 1966 62bd 031d 183f 6408 88be
00000180: 42ce b8be b908 09be 7855 febe 208b ddbe
00000190: b8ad e738 9d52 2c3c 2fde f3be c709 1f3e
000001a0: a6e5 a73e bacb 3dbe a7d2 b9bd 1cce 0fbf
000001b0: 6baa 96be aa99 363d 35dc bf3e 90a2 adbd
000001c0: 506a afbe 4d57 4a3e fc0c 26bf 57ef 933d
000001d0: a741 10bd 9e2a 843e d416 0fbe a092 af3d
000001e0: 8af8 ddbe 1fc0 533e 79fa 81be 34c1 e23e
000001f0: 105e 193f 1722 edbe ab71 5cbf f61b c03e
-0.63200146 -0.39453614 0.50126725 0.3234667 -0.3968668 -0.59030384 -0.64902604 -0.79579026
-0.75513434 -0.22878692 0.30013973 -0.07069653 -0.8825131 -0.5657013 0.30458233 -0.5212139
-0.16659941 0.0793698 -0.40489826 -0.22847386 -0.47054118 -0.23926745 -0.31994122 -0.5917178
-0.5715947 -0.37862858 0.53849745 -0.35564524 -0.23360415 0.10766452 0.06956389 0.2764249
0.2355281 -0.10308194 -0.738336 0.06445502 0.23106784 -0.13976568 -0.5693853 0.5855928
-0.30136928 -0.46735772 -0.6520132 -0.09471542 0.020487845 -0.28518787 0.19849798 -0.5429347
-1.0950011 -0.27100936 0.37728325 0.25344405 -0.4117018 -0.09178853 -0.5212675 -0.34112486
0.2482508 0.51460755 0.5201877 -0.71397203 0.47509745 -0.4534425 0.032308217 0.25009894
-0.08309734 0.40059865 -0.6024914 -0.27008593 0.30301195 -0.16609156 -0.15829651 -0.076652676
0.25413045 0.1471863 0.22659242 -0.3973683 -0.6477879 -0.06669432 0.08543694 -0.36467442
-0.29455894 0.15750551 -0.08232446 -0.20897149 -0.17401934 -0.6403486 -0.4466654 -0.32006186
-0.40524644 0.27902588 -0.20584637 -0.2766358 0.4803955 -0.05527315 0.5941927 -0.26568902
-0.36094862 -0.13382234 -0.49674582 -0.43270206 0.00011047296 0.010517743 -0.4763045 0.15531074
0.32792395 -0.18534747 -0.09073382 -0.5617387 -0.29426894 0.04458014 0.37472692 -0.08478272
-0.34260798 0.19759865 -0.6486356 0.07223385 -0.03521886 0.25813764 -0.13973552 0.085728884
-0.43353683 0.20678757 -0.25386408 0.44288027 0.59909153 -0.4631507 -0.86110944 0.37521333

convs.0.lin_l.bias f4 [64]
00000000: ee17 a63e 8531 1bbf 7c5a e3bd 1cd3 32bf
00000010: 46dd 05bf a300 76be b229 b13e d8fb 333e
00000020: 9bf4 41be 1a7c 0b3e 9909 94bd cbf7 a8be
00000030: bc43 14bd 5381 6dbd 4ba9 8c3d a609 34bf
00000040: 3ca3 e03c dc9e fbbe a20f 1fbf 7ad0 c5be
00000050: eefd 883e a5e3 1c3f 5036 bcba 6b39 b63b
00000060: 65df 013c 05f1 a5bd 2a34 c7be 8e9f 813e
00000070: b58f aebe cfed 0abf 27e5 b7be f4b6 f6bd
00000080: 1746 9bbd 7c9e 8cbe f27c e9be 6e8f 93be
00000090: 7bd6 1abf 9cb5 ebbe 9d81 43ba 3f42 aabe
000000a0: 7c20 423e 11b9 203f 1478 8f3e 64ad 4d3e
000000b0: e164 9ebc a9da eaba a153 87bd 49f4 cd3d
000000c0: 88bf 34be ec70 2a3f f4c3 6dbe e509 dfbe
000000d0: 3b2f 97be b6f7 40bf c3a0 0dbd 7ef3 093f
000000e0: 4148 b83e 7871 09be 4344 18bf d14e c2be
000000f0: 1917 04bf de36 9fbe 0432 4bbc 336d 49bf
0.32440132 -0.60622436 -0.11101243 -0.6985338 -0.5229076 -0.2402368 0.34602123 0.1757654
-0.18940966 0.1362156 -0.07228393 -0.3300155 -0.03619741 -0.05798466 0.068682276 -0.7032722
0.027421586 -0.49144638 -0.6213323 -0.38635617 0.26756233 0.6128486 -0.0014359448 0.005561044
0.007926797 -0.081026115 -0.38906986 0.25317043 -0.34094015 -0.5426912 -0.35917017 -0.12046614
-0.07581728 -0.27464664 -0.45603138 -0.28820366 -0.6048352 -0.46036994 -0.00074579736 -0.33253667
0.18957704 0.6278239 0.280213 0.20085675 -0.019335212 -0.0017917949 -0.06607748 0.10056359
-0.17651188 0.66578555 -0.23219281 -0.43562236 -0.2952822 -0.75377977 -0.034577142 0.53887165
0.35992625 -0.13422191 -0.5947916 -0.37950757 -0.51597744 -0.31096548 -0.012402061 -0.7868225

convs.0.lin_r.weight f4 [64, 2]
00000000: 8654 1aba b007 efbe 973f f9be c9ec 32bf
00000010: 00bd 153f 0784 27bf 97bf eb3e fb0c 84be
00000020: abe8 81be c337 df3e 6089 c2be 91bd cb3c
00000030: 256d a73e 3512 4abf 1004 ad3e 2466 80bd
00000040: ba1d 4f3d 5d17 7f3e 28f3 e0bc 58b6 e8be
00000050: b175 b2bd 6ec0 c03e f6ae 053f 1669 003e
00000060: 1841 2abf 476c 5b37 06db d9be a254 bc3e
00000070: 8623 08bf 072c a8be d7bb 12be 93d4 4b3e
00000080: cef9 483e 6754 2dbe e660 c83e 889e cf3e
00000090: 4ccf 113f a30b 4bbe a593 4bbe 2e02 883e
000000a0: e17f 85be da4b 61be 4bb5 a7be c2cc cabe
000000b0: 0a7c b3bd 20f6 77be 4601 6f3e 7615 653e
000000c0: 6ce6 4a3e 20cf 233e 81f9 57bd e2b2 13bf
000000d0: e0fa fdbe 90e3 e0be e385 1fbf 9278 b5be
000000e0: 36c2 12bf 1776 25bf f9dd f9be 34f7 56bf
000000f0: 97e8 e4be 9548 773e 24c3 2f3e 5f3d 22bf
00000100: cff7 eabe f721 2e3c 8d9e b2be 052f abbe
00000110: bd33 fe3e e6d7 35bf ee91 323e 2b5a 323e
00000120: ede1 6c3d 3457 04bc 1ed9 d2be 40d6 1fbc
00000130: a36d a3bd 8342 eebd 2e11 133e cd6a a43e
00000140: 9fcf 52bf 380b bebe 4008 0dbf 13a6 fabe
00000150: 00ee 67bd 0357 1fbf d99b f53e 58b8 8dbd
00000160: 41c7 82be 9826 423e 5e52 2bbf 4909 8cbe
00000170: a1eb 6bbe dfec fdbe 8fc7 cfbe f760 dabd
00000180: 118f 753e ee4d 6f3e f298 af3e 05f5 b8be
00000190: 0c86 d0be bd27 fe3e 093c 573e 1237 953c
000001a0: 7338 87bc d7f7 28bf 8577 20be b167 4d3e
000001b0: a765 abbe 4ac6 d9bd 3f10 0fbf 6f23 9fbe
000001c0: 2b1a 4fbe f610 5fbf e970 b0be 3889 d6bd
000001d0: 8fe5 ecbe f953 9d3e 0762 efbe 80b1 b0be
000001e0: e956 d63c ff8d 8f3e d5f6 88be 9f70 dcbd
000001f0: 0bba 41bf f567 8bbe 668f 43bf baec f6be
-0.0005887229 -0.46685553 -0.48681328 -0.69892555 0.58491516 -0.6543583 0.4604461 -0.25791153
-0.25372824 0.4359723 -0.37995434 0.024870666 0.32700458 -0.7893403 0.33792162 -0.06269482
0.05056546 0.24911256 -0.027459696 -0.45451617 -0.08713854 0.37646812 0.52220094 0.12540087
-0.66505575 1.30786275e-05 -0.42549914 0.3678332 -0.53179204 -0.3284609 -0.14329468 0.1990531
0.19626543 -0.16926728 0.39136428 0.40550637 0.56956935 -0.19828658 -0.1988054 0.26564163
-0.26074126 -0.22001591 -0.32755503 -0.39609343 -0.08763893 -0.24214983 0.2334033 0.22371468
0.19814461 0.1599698 -0.05272818 -0.5769483 -0.49605465 -0.43923616 -0.6231367 -0.3544355
-0.5732759 -0.64633316 -0.48802164 -0.8397095 -0.44708702 0.24148782 0.17164284 -0.63374895
-0.45892188 0.010628215 -0.3488659 -0.3343431 0.49648848 -0.7103256 0.1743848 0.17417209
0.057832647 -0.0080774315 -0.41181272 -0.009755671 -0.07979896 -0.1163378 0.14362022 0.32112733
-0.82348055 -0.37117934 -0.55090714 -0.4895483 -0.05662346 -0.62242144 0.47970465 -0.069199264
-0.25542644 0.18960035 -0.6692256 -0.27350834 -0.23039104 -0.4959478 -0.4058194 -0.10663026
0.23980357 0.23369572 0.34296376 -0.36124435 -0.4072727 0.49639693 0.21018995 0.018214736
-0.01650641 -0.66003174 -0.15670593 0.20059086 -0.33475992 -0.10633524 -0.55884165 -0.3108172
-0.20224826 -0.87135255 -0.34461144 -0.10475391 -0.4626889 0.3072813 -0.46754476 -0.34510422
0.026164489 0.28038022 -0.26750818 -0.10763668 -0.75674504 -0.2722775 -0.76390684 -0.48227483

convs.1.lin_l.weight f4 [64, 64]
00000000: 215c a9bd d99e 39bd 945c cbbd d9bd d73d
00000010: 1e56 1d3d 2c07 e5bd 4c96 c6bd 33cc 2bbe
00000020: 3ef6 2cbe 10dd b3bc ee32 1c3d 112a 31bd
00000030: 461a aa3d af90 9dbd 1ed1 ebbd b7d3 4cbe
00000040: 7273 00be 1bb1 a33d c29e ee3c 507d 2c3d
00000050: 5003 34bc f6ab ffbc 36c8 92bd ade5 623d
00000060: fc7f 0dbe 75ad a1bd 5475 f5bd b03f 4a3c
00000070: 6c88 31be d68a b3bd e6a2 173d d062 a83d
00000080: be04 d23b 44e3 af3d 5fd0 a1bc 9fb1 f0bc
00000090: 1534 3cbe 8e16 ac3d e0a7 303d 0ab0 033d
000000a0: 3142 37be 2b96 b3bd 58df a4bd af2e bcbd
000000b0: d8dd 18be 50c1 213d 8acf f43c e9e9 483d
000000c0: 643b 95bd a594 8abb c0c3 c93d e155 47bd
000000d0: 6a64 90bd 5664 06be 40a5 0e3d b0c6 9bbd
000000e0: 6ff4 3abe 39fd 01bc b880 013d d0a6 4ebd
000000f0: 89e1 43be b4fb ecbc 7ae0 2bbd 22ca bfbc
00000100: b3d0 4bbb 6e8c ed3d ab44 973e 9565 703d
00000110: ca86 343c e9dc f1bd 9657 fd3d 6acd 92bd
00000120: d672 c83b 0f69 a23c 9030 77be c351 703e
00000130: 9542 9dbd 790a a8be dbf0 c43c 6f11 2dbe
00000140: 433f 5fbc c38e 8fbe 837d 62be e86f f6bd
00000150: 4f44 ab3d 1587 bc3c 77cb 0f3d 95bb 69be
00000160: 4b05 59be 2775 183e 3c3e ad3d d8eb c5bd
00000170: ea37 17bc caeb 81bd 9667 28be 0559 a43d
00000180: 9bf8 233e 6059 8e3d ec0c 943e ecb6 66be
00000190: 099b c03d b010 1dbc 9f2f c6bd a157 56be
000001a0: 4b40 53bd b4b9 b83c 00ea 163b 8459 943d
000001b0: 56a3 f43c e4c0 333d 74e5 07bd bbc3 d5bd
000001c0: b25c 2abe 84d4 46bd c9d1 a3be 61c4 b33d
000001d0: b6f5 bbbc b45b cbbd 96da c8bd cb7f 783c
000001e0: 444d 813d ff54 e1bc 0004 afbd 0466 d73d
000001f0: fd03 00be 6ca8 173d 9f9b 463d 1843 ae3d
00000200: bbe3 a3be 513f 5c3d c7da 06be 266c f8ba
00000210: 3636 573e 6905 33be 1d35 9bbd 4ee9 31be
00000220: 0e84 7cbe 3312 1d3d 61dc 84bd 27ec 803d
00000230: cd90 c5bd 2c6c 1dbe ac9b 573c a335 7cbe
00000240: ca65 97be dea3 13be 3780 bebb 4ba0 4bbe
00000250: 8764 58be 7311 2abd 92c6 7c3d bc06 a6be
00000260: cfbd 61be a1cc e2bd a425 fe3d c0e0 a63c
00000270: e58a 4e3d 7d14 d9bc aec1 1c3e 5986 3ebd
00000280: 5679 2cbe 52b8 a33d e38d f7bd 5d31 82be
00000290: 06f0 0fbe 88c5 f5bc d469 063e 3eda 18be
000002a0: 699c 13be 0aa6 2bbe f01d 6cbc 0f18 96bd
000002b0: 9cd4 8fbe a8bf d8bd 9eec 643d 3600 ffbc
000002c0: f37f 75be 88aa 84be bfd9 96be 78f4 17bd
000002d0: bc55 503d b251 d93c cf56 8b3c aaaa a7be
000002e0: a5b4 c93d ad40 463d 9c89 21be 10b0 f8bd
000002f0: 4d92 3ebd 7d60 babe a8fc e2bd c356 a53d
00000300: 2420 a63b 0ba1 fbbd 7106 583d bc83 ad3d
00000310: 9bd3 13bb 5bcd 1dbe 8520 35bd b278 3cbe
00000320: 3ee6 ecbd b063 e3bd da2b e9bd 76db f6bd
00000330: 4f8c 893d a9a4 89be 8611 85bd 022d e5bd
00000340: 0a9a 7bbd 5e0a 30bc 2ae5 943d 6d9d ef3c
00000350: ed09 57bd b7b2 093b 68b9 1b3d 2385 babc
00000360: a94a 48bd 735b ff3d 029e ae3d b81c d53d
00000370: ed6e a6bd 0636 b33d b6ea a3bd f1ec 863c
00000380: 9a7e e2bd 104d 19bd e431 e53c c7d6 8abe
00000390: ff18 0ebe e0fb 3fbc 1e60 1b3d ed75 1bbd
000003a0: 4274 12be a8ce 553b 2048 6c3d c873 0fbe
000003b0: 1e1f bcbc ec2d 86bd 100b 7cbb 2763 92bd
000003c0: 4aa2 bbbd f726 0ebd 5f43 903c 1aa4 dd3c
000003d0: 24c8 06be 9f70 013c f7f0 9d3d fced 16be
000003e0: e556 0dbd e2a1 a0bd bfed d4bd e07e 3ebd
000003f0: 1547 b9bd 7eb9 c6bd ce65 0ebe 1632 98bd
-0.08269525 -0.045317505 -0.09929767 0.105342574 0.038412206 -0.111830086 -0.096966356 -0.16777115
-0.16890809 -0.021955997 0.038134508 -0.04325301 0.083057925 -0.07693612 -0.11514495 -0.20002638
-0.12544039 0.079927646 0.029128436 0.042111695 -0.010987118 -0.031209927 -0.071670935 0.055394817
-0.13818353 -0.078944124 -0.11985269 0.012344286 -0.17337197 -0.08766715 0.037020586 0.08221972
0.0064092567 0.08588269 -0.01975268 -0.029381571 -0.18379243 0.084027395 0.043128848 0.032150306
-0.17896344 -0.08768877 -0.08050412 -0.09188592 -0.14928377 0.039490998 0.029884119 0.0490512
-0.072867185 -0.0042291456 0.098517895 -0.048665885 -0.070504025 -0.13124213 0.034825563 -0.07606256
-0.18257307 -0.007933908 0.031616896 -0.050452054 -0.19129004 -0.028928615 -0.041962124 -0.023411814
-0.0031099736 0.115990505 0.29544577 0.058690626 0.011018464 -0.118097134 0.12370221 -0.07168086
0.006117205 0.019825486 -0.24139619 0.2346869 -0.07678715 -0.3282049 0.02404063 -0.16901182
-0.013625923 -0.28038606 -0.22118191 -0.12033063 0.08362638 0.02301363 0.03510615 -0.22825463
-0.21193425 0.1488844 0.08459136 -0.09664124 -0.00922964 -0.06343801 -0.16445765 0.08024792
0.16012804 0.06950641 0.2891611 -0.22530717 0.094045706 -0.009586498 -0.09677052 -0.20931865
-0.051574986 0.022549488 0.0023027658 0.07243636 0.02986304 0.043885127 -0.033177808 -0.10437723
-0.16636923 -0.048542514 -0.3199599 0.08777691 -0.022944313 -0.099296 -0.09807317 0.015167187
0.063135654 -0.02750635 -0.08545685 0.10517505 -0.12501521 0.037025854 0.048488256 0.08508891
-0.32009682 0.05377132 -0.13169394 -0.0018953129 0.21016774 -0.17482533 -0.0757849 -0.17374155
-0.2465975 0.038347434 -0.064873464 0.062950425 -0.09646759 -0.15373296 0.013159674 -0.24629836
-0.29569846 -0.14417979 -0.0058136242 -0.19885366 -0.21132098 -0.041520547 0.06171281 -0.32427013
-0.22045062 -0.11074186 0.12409523 0.020370841 0.05042543 -0.026499027 0.15308258 -0.046514843
-0.16843161 0.07994141 -0.120876096 -0.25428286 -0.14056405 -0.030001417 0.13126308 -0.14927003
-0.14415134 -0.16762558 -0.0144114345 -0.073288076 -0.28091896 -0.105834305 0.05588972 -0.03112803
-0.2397459 -0.25911355 -0.29463002 -0.037098378 0.050863013 0.026528213 0.017009167 -0.32747394
0.09848908 0.048401523 -0.1577515 -0.12142956 -0.046526242 -0.3640174 -0.110833466 0.08073189
0.0050697494 -0.12286576 0.052740518 0.08472392 -0.0022556547 -0.15410368 -0.044220466 -0.18405417
-0.11567353 -0.11102998 -0.11385317 -0.120535776 0.06716215 -0.26883438 -0.06497483 -0.11190225
-0.0614262 -0.010744659 0.07270272 0.029249871 -0.0524997 0.0021011063 0.038018614 -0.022768563
-0.048899326 0.124686144 0.08526231 0.10405868 -0.08126626 0.087505385 -0.08003752 0.016470404
-0.110593036 -0.03742701 0.027977891 -0.27116987 -0.13876723 -0.0117177665 0.03793346 -0.03795426
-0.14302161 0.0032624397 0.05768597 -0.14009011 -0.022964057 -0.06551728 -0.0038458742 -0.07147818
-0.091618136 -0.03470513 0.01761025 0.027055789 -0.13162285 0.007900386 0.07711976 -0.14739221
-0.034506697 -0.07843377 -0.10396909 -0.046507716 -0.09046761 -0.097033486 -0.13906023 -0.07431428

convs.1.lin_l.bias f4 [64]
00000000: cde2 28be b5af efbd 04b2 d23d de35 29be
00000010: 3f54 b63d 8418 0abe 1c90 b23d 3a05 f93d
00000020: 9e91 90bd 6ace 173e 1979 b2bd 0e4a 7e3d
00000030: f447 5dbd 085d 0fbe f4e2 233e fd59 30be
00000040: 8edd 8c3e 4475 f0bd 1477 293e 4e71 033e
00000050: 075a c9bd cf32 9e3d c9b9 e4bd 1203 a7bd
00000060: 45da 6c3d d004 053e ebdb 1a3d d05d c5bd
00000070: bbd3 d7bd 2251 82bb 064b 18be 06a8 193e
00000080: 76f1 913c 22dc aabd aa89 c4bd 60d7 2cbe
00000090: dcf2 3dbe c007 06bd 79a2 233e ef3c 003e
000000a0: c8cc 173e 3db2 0fbe be53 2fbe 51bc 173e
000000b0: 30c9 63be acaa c3bd 65d3 d13d a53b 91bd
000000c0: 99aa d23d f25a 2b3e 3506 cabc a5d6 2a3e
000000d0: 4312 9fba 7d93 453e 7c22 163e 01d8 bebc
000000e0: 6d62 3bbe ab6f f9bd 76cc 923e 5f82 573e
000000f0: 537e 19be 0a3d 963d 6fa5 a73e c970 bf3d
-0.16492768 -0.11703435 0.1028786 -0.16524455 0.089027874 -0.13485914 0.08718893 0.121592
-0.07059024 0.14824834 -0.08714504 0.062082343 -0.054023698 -0.14000332 0.16004544 -0.17221828
0.27512783 -0.11741117 0.16549331 0.12836191 -0.098316245 0.07724535 -0.11168248 -0.081548825
0.057825346 0.12990117 0.037807386 -0.09637034 -0.10538431 -0.003976957 -0.14872369 0.15005502
0.017815333 -0.08342768 -0.0959657 -0.16879034 -0.18549675 -0.032722235 0.15979947 0.12523244
0.14824212 -0.14032836 -0.17121789 0.14817931 -0.22244716 -0.095540375 0.102453984 -0.070914544
0.10286445 0.16733912 -0.024661163 0.16683443 -0.001213618 0.19294544 0.14661592 -0.023296358
-0.18299265 -0.12179502 0.28671616 0.21045826 -0.14989595 0.07335861 0.32743403 0.09347684

convs.1.lin_r.weight f4 [64, 64]
00000000: 8200 e5bc 3c13 59be 82bf 2b3c f890 2c3d
00000010: 3813 833d 0f6f 26bd 2e0d e43c a056 b6bc
00000020: 8806 2abe 91ee 0fbd face 81bd 1bd0 f4ba
00000030: 68c4 86bd e7df 603d 18b9 1bbe 9bbe 28be
00000040: 65b8 02be 2097 923c 094e 83bd 90d1 cabc
00000050: ffa1 2a3d d18e 063e 3dac b1bd 779c 423c
00000060: 276f 03be d4c5 50bd 2063 dbbd 3357 0fbd
00000070: 3da5 7fbd 8833 c4bd 9cab 113c a195 773c
00000080: f652 17bd 20ff 433d 3c47 5bbe adcc c8bd
00000090: e6ae 25be 80be f2bd f2ff b53b 33fb 9e3b
000000a0: cb17 293d e841 f5bd 6bbb 23bd 3679 0cbe
000000b0: 1f9b 7dbc 93cc 38bd d223 25bd b823 b038
000000c0: 0ed0 503c cc85 6fbd 0748 f6bd 830e f2bd
000000d0: 4ea8 ff3c a7b6 fc3b 63cd debc e5fe a4bd
000000e0: ceac 893c af3a 7dbb 3517 123d 9884 b8bc
000000f0: 4ffe 12be 753d 9dbd 136e c6bc 5c1d 273d
00000100: 226e 29bc d967 91bc 5ed2 cf3d 6930 a4bc
00000110: 7043 f3bd a6ed 76bd 43fe 14bd e9a8 83bd
00000120: 4724 a0bd 9374 8dbd c145 5ebd 0e0e 473d
00000130: bd4c 2fbd c550 bf3d 2b00 22be c9cd a0bc
00000140: c64c e33d 3ec1 e6bd a167 c2bd 13d4 58be
00000150: 4fbf 6f3c c208 4e3d ff18 85bd af4b 903d
00000160: b271 3bbe a882 4cbe 1807 d13c ec77 f6bd
00000170: a28a b33b df4f fa3c cc02 9e3e d3bb 36be
00000180: 3aa9 02be 2436 0dbd 5c6c 89bd dfe1 98bd
00000190: 2984 c83d 0e04 e63d a995 86bd 3f42 8f3d
000001a0: a4a6 88bc 40f7 a1bd db96 cfbd 59e9 59bd
000001b0: fc60 8dbe 4135 7b3d 17f0 c0bd 987f 863d
000001c0: 497e 54be b84d 05be 2c91 e1bc 9aa5 8abd
000001d0: 21f4 bebd a3f5 73be 0f98 063d 96b6 b4bd
000001e0: 3465 a63d 84a9 293c 4dd9 f4bd 109d 99bd
000001f0: ab23 4abe e044 17be 9a4d efbd 8c08 8f3d
00000200: 0f44 063d 7029 153e eae3 8c3d 3a56 06be
00000210: fe4a c03d 522d 8c3d 8392 e2bd 7872 83bb
00000220: fe8f 37be 4734 f4bc 631b d63d d07c 2fbe
00000230: 7285 883d e881 be3d 6cb0 163e ca92 89be
00000240: 303b 48be 2a7c 373d 4425 38be 99a8 7b3d
00000250: e1c1 b43d ff6d 1d3e a620 853d be6d 16bd
00000260: 9983 173e c304 40bd 9261 c63d d499 25bd
00000270: 34bc 023e c084 ee3c a485 a43d 6a45 02be
00000280: f3f6 e43a 6a88 a6bd 27bd a83c 4906 07be
00000290: 7d4d b1bd ccae 95bd b6d2 153d 8ba8 313e
000002a0: 40d7 b93d f1a2 343d 026b 37bd 2570 293d
000002b0: 7c88 c33c 3f0c af3d 51a8 cabc c6c2 343d
000002c0: 26e3 0abd dd9d 6abd c8f7 56bc 307d 81be
000002d0: 8a15 d13d f1d8 15be d290 bb3c f814 1bbd
000002e0: 020a 1c3d 3af0 173c 4a7d a1be 8aa7 c13d
000002f0: 1a11 35be 6acc 4abd d180 913b 4a16 cdbd
00000300: 3037 123d 7947 0fbe 4634 e63d 8e30 a6bd
00000310: a0f9 7abb fd1d 30be d9b5 5abc 19b3 94bd
00000320: 05d7 92bd 4819 5abd c430 efbd 74d4 afbd
00000330: b926 11bd 189c a6bd 4291 2638 5314 8cbc
00000340: 1500 43bd 685a d3bd 40cc f4bd f897 17bd
00000350: 9991 7f3d a73a 923d cb46 66bd 564a bf3d
00000360: 5929 19be 37f7 8cbe 2883 08bd d04e b23c
00000370: 3b46 3a3d eea1 93bd 6f2d 09bd 3448 cbbd
00000380: e7c4 6bbd e47d e9bd 5b83 17be 857a 03be
00000390: aba7 15bd 500c 3f3c 6cb9 edbd aa27 36be
000003a0: a1a1 abba 6c69 d5bc 6a4f b3bd 3f6a a4bd
000003b0: 7a6d 2fbe 50da 69bc 3b43 d2bd c05c f53c
000003c0: 3cf3 12bd f0a9 22bc 379c 933d b145 9fbd
000003d0: 2856 21bd 2255 343d ace7 80bd 1f70 f1bd
000003e0: 3edf 06be e9ef 843c 3ca7 693d 0244 9b3d
000003f0: 1676 10be 7b48 623c 9c0e 6b3e 8714 e5bc
-0.027954344 -0.21198744 0.010482671 0.04213044 0.0640015 -0.040633257 0.027838316 -0.022258103
-0.16604054 -0.035139624 -0.06338306 -0.0018677743 -0.0658043 0.05490103 -0.15207326 -0.1647896
-0.12765653 0.017894328 -0.064113684 -0.02475813 0.041658398 0.13140418 -0.0867543 0.011878124
-0.1283537 -0.050969914 -0.10712266 -0.03499527 -0.062413443 -0.09580141 0.0088910125 0.015111358
-0.036944352 0.047850728 -0.21413893 -0.09804664 -0.1618 -0.11852741 0.0055541927 0.0048517226
0.041282456 -0.11975461 -0.039973658 -0.13718113 -0.015478878 -0.045116972 -0.040317364 8.398987e-05
0.012744917 -0.058477208 -0.12025457 -0.11819174 0.031208184 0.0077122035 -0.027197545 -0.0805643
0.016806033 -0.0038639714 0.035666663 -0.022524163 -0.14354824 -0.076777376 -0.02422241 0.040799484
-0.010341199 -0.017749714 0.10147546 -0.020042615 -0.11878097 -0.060285233 -0.036375295 -0.064287014
-0.07819419 -0.069070004 -0.05426574 0.048597388 -0.042797793 0.093415774 -0.15820377 -0.019629376
0.11098628 -0.11267327 -0.09492422 -0.2117465 0.014633014 0.05030132 -0.06498908 0.070456855
-0.1830509 -0.19971716 0.025516078 -0.12034592 0.005479173 0.030555664 0.3086151 -0.17845087
-0.12759867 -0.03447546 -0.06710121 -0.074649565 0.097908325 0.11231242 -0.06571514 0.06995057
-0.016681023 -0.07908487 -0.10136195 -0.053201053 -0.27613056 0.061330084 -0.094207935 0.06567305
-0.20751299 -0.13017929 -0.027535044 -0.06769867 -0.09323908 -0.23824172 0.032859858 -0.08823888
0.08124772 0.010355357 -0.11955509 -0.075006604 -0.19740169 -0.14772367 -0.11684723 0.06984052
0.03277975 0.14566588 0.06879409 -0.1311883 0.093893036 0.06844582 -0.11063101 -0.0040114485
-0.17926022 -0.029810084 0.10454442 -0.17137456 0.06666078 0.093021214 0.14715737 -0.26869804
-0.19553828 0.044796146 -0.17982966 0.061440084 0.08826042 0.15373991 0.06500368 -0.036725752
0.14796294 -0.04687954 0.09686579 -0.040429905 0.12767106 0.029116035 0.080333024 -0.12721792
0.0017468616 -0.08131488 0.020598007 -0.13185991 -0.08657358 -0.073087305 0.036577903 0.1734945
0.09074259 0.044100706 -0.044779785 0.041366715 0.023868792 0.08547258 -0.024738463 0.044131063
-0.033908032 -0.057279456 -0.013120599 -0.25290823 0.102091864 -0.14633538 0.022896204 -0.037861794
0.03809548 0.009273583 -0.315409 0.09455784 -0.17682305 -0.04951135 0.004440405 -0.10014017
0.035697162 -0.13992108 0.11240439 -0.0811473 -0.003829576 -0.1719894 -0.01334902 -0.07260723
-0.07169918 -0.053246766 -0.11679223 -0.08585444 -0.03543732 -0.08135241 3.9712766e-05 -0.017099535
-0.0476075 -0.10319978 -0.1195302 -0.037010163 0.062394712 0.07140093 -0.056219857 0.0934035
-0.14957179 -0.2753236 -0.033328205 0.021766096 0.045477133 -0.0720862 -0.033490594 -0.09925881
-0.057560828 -0.11400965 -0.14796202 -0.12839706 -0.036536854 0.01166065 -0.11607632 -0.17788568
-0.0013094434 -0.026051246 -0.087553814 -0.08028077 -0.17131606 -0.014273241 -0.102667294 0.029951453
-0.035876498 -0.009928212 0.0720753 -0.077769645 -0.039388806 0.0440265 -0.06294188 -0.117889635
-0.13171098 0.01622768 0.057044253 0.07581331 -0.14107546 0.013811226 0.22954792 -0.02796389

proj.weight f4 [64, 64]
00000000: 0a5b 43bd 202e f9bd c2c6 7abc 2f8c 243d
00000010: 7548 32be 166f a9bd abc5 623e b609 39be
00000020: 6352 d9bd ca51 31bd 067a 643c 7ae2 8cbe
00000030: f076 673d 5c81 43be 4957 393e c5e1 013e
00000040: 243f a23d e929 393e f880 9abd 3936 093d
00000050: e525 fd3c bac8 6dbd 1d13 8f3c cf36 3fbe
00000060: 351b 913d 17a2 9abd d936 e93d 9803 51bd
00000070: bc8b b03d 75c6 a73e fb6e 74bd c60e 6d3e
00000080: 3ae0 b1be d8a7 063e 8b0c 69bd b43e 2e3e
00000090: e0e6 80bd 61ab ccbd ab53 e53e 6b66 3a3c
000000a0: 4ce8 da3d d4fc 143e f475 0bbe f5e5 2e3e
000000b0: beb6 37be f590 d9bd a95d 2f3e 391b c2bd
000000c0: 2b32 a0bd 1400 56be 116f a03e fbab 133e
000000d0: 7a3d d1bc 3be5 df3c edd9 ddbc bd49 a0be
000000e0: 7767 b5bb f70b 093e 7a31 403d cfdb 8a3d
000000f0: d724 6a3d c251 abbd e886 6c3e 1b14 833e
00000100: aa6d f53c 5dd3 84bd ce2c a4ba a662 233d
00000110: ca9a bfbd 190d 2ebd b234 6bbd a3ef d13c
00000120: 5f7f 3bbd 8256 5cbe a1ee 75bd 6df1 31be
00000130: d786 54bc 0778 353e 1297 b3bc 0fe2 f5bd
00000140: 908f 3b3d 5178 4fbd f819 37be 31ca 813e
00000150: 990f 603d 66e0 3abd 88d7 73bd 92a3 0bbe
00000160: 926d 7c3d db33 56be eb43 68be 4e00 06be
00000170: e6d6 08bb 438c 2fbe 435c cbbd e967 bebd
00000180: 42cc 8cbe 3330 5ebd 5aac 50bd 212c 873d
00000190: fe71 2d3d 1aea bdbd b20d ec3d 76ed a9bd
000001a0: 40c4 c13d a976 6dbd 58b0 e33d 52db 203e
000001b0: 3fe2 1e3d 93ad 833b e375 7dbd 5f7b cebd
000001c0: 49b0 303d fe75 c63d 169b 053c b8a7 be3d
000001d0: ebf3 14be 9918 c23d 663b f4bd 0099 673d
000001e0: 7f59 553d 1778 993c afd2 0f3e bc34 9abd
000001f0: 0eb4 38be a3fd aebd 4da2 96bd e834 573d
00000200: a3af 153d f213 443d a80b 043e 3dd3 0cbe
00000210: 8a12 d73d 8af5 033e a5c8 023c 4cff 513e
00000220: e6fe bbbd 932a 30be e823 a93d 5cba 7d3d
00000230: 679e 7a3d af97 28bd 95ea 3dbd 2aeb fdbb
00000240: f9fa 413e ff1b 19bc ab62 053e 30a3 9e3c
00000250: f7c2 13bd 6bc3 993c 44f9 ea3b 095c 333d
00000260: c006 b9bd d116 4f3e 3b35 103d 6efd 453d
00000270: fd1f eebd dbf8 2f3e 714e 813d d4a6 763d
00000280: 8b61 973c d448 0b3c 231b b5bd 86a8 d2bd
00000290: 18a6 273d 0c08 c5bd 06fc 8c3e e539 1a3e
000002a0: 0cff 5abe cfee acbd 42fd 913c c58e 063e
000002b0: bd50 66bd e21f 59be 5510 423c abce 09bd
000002c0: b245 b03d 9016 5fbc ee78 3ebe 4dc3 13be
000002d0: ce37 ce3d f15b 3e3e 83a8 083d 74dc 6abc
000002e0: 702f 4e3d 7213 483c 960f f6bd 5c32 aabd
000002f0: f7a0 c03b f498 a83d 6c14 963e 1ec9 b53b
00000300: 96ca 9139 b134 dfbd b37a abbc 7513 dabb
00000310: 8fc7 aabd d6a9 313d c796 1cbc 1748 233d
00000320: 7a00 993d db60 0dbd a910 dd3d b494 63bc
00000330: 739b 77bc 66c7 5bbd 1e1b 1d3d d9f8 f1bd
00000340: 2d4a 11be 755b 2d3d b29a a3bc a6d2 2b3e
00000350: 8d0b d3bd 1ede a3bd 5434 0fbe b5bd 88bd
00000360: ea18 093d f6d7 c03c 8ce2 b93c 7fcc 403d
00000370: 9650 e93c a086 12be f36e 853b c01b cdbd
00000380: 97d1 113d 0434 89bd 2185 febd b604 c2bd
00000390: 6cee 823d 8797 f3bb 586a bd3d 58dc d03c
000003a0: f7f0 4c3d 7010 03be 9c69 90bd d8fa 14be
000003b0: 2105 1e3e cc73 5d3d c9a6 41bd 62b4 ac3c
000003c0: 462d a9bd b58d 34bc 7399 d63c dc6c 68bd
000003d0: 18f0 4fbd 4f23 6fbd 28e7 bfbc 766b f03d
000003e0: c5c2 5b3d 63e2 9e3a f997 a6bd 22e1 713d
000003f0: 5527 123d 71e2 6b3d 65cf 073d 7da0 35bd
-0.047694243 -0.12167001 -0.015306177 0.040172752 -0.17410453 -0.08273141 0.22145717 -0.1807011
-0.10611417 -0.04329089 0.013945108 -0.27516538 0.056509912 -0.19092315 0.18099703 0.1268378
0.07922199 0.18082394 -0.0754413 0.033498976 0.030901859 -0.058052756 0.017465169 -0.18673252
0.070852675 -0.075504474 0.113874145 -0.051028818 0.08620402 0.32768598 -0.05967615 0.23150167
-0.34741384 0.13149965 -0.056896728 0.17016107 -0.06294036 -0.099936254 0.44790396 0.011376957
0.10688838 0.14549571 -0.13619214 0.17079909 -0.17940804 -0.106233515 0.17125572 -0.094778486
-0.07822069 -0.20898467 0.31334737 0.14421074 -0.02554201 0.027330985 -0.027081454 -0.31306258
-0.0055360156 0.1338347 0.046922185 0.067802064 0.05716404 -0.083652034 0.23098338 0.25601277
0.029959518 -0.06485627 -0.001252556 0.039889 -0.093556955 -0.04249296 -0.0574233 0.025626963
-0.045775767 -0.21517375 -0.060042027 -0.17377253 -0.012971601 0.17721568 -0.021922622 -0.12006008
0.04579121 -0.050651852 -0.17881 0.25349572 0.054702375 -0.04562416 -0.05953172 -0.13636616
0.061627932 -0.20918219 -0.22682159 -0.13086054 -0.0020880043 -0.1714335 -0.09929707 -0.09297163
-0.27499586 -0.054245185 -0.050945617 0.06600214 0.04234504 -0.09273167 0.1152605 -0.08297245
0.0946126 -0.05797449 0.11117619 0.15708664 0.038789984 0.0040184944 -0.061880004 -0.10082125
0.04313687 0.09690474 0.008154651 0.093093336 -0.14546172 0.09477348 -0.11925392 0.056542397
0.052087303 0.018734021 0.14045213 -0.075295895 -0.18037435 -0.08544471 -0.07355175 0.05254069
0.036544453 0.047870584 0.12895072 -0.13752456 0.10501583 0.12886634 0.007982408 0.20507544
-0.091794774 -0.17203741 0.08258802 0.061945304 0.06118622 -0.04116028 -0.046366293 -0.007748981
0.18943395 -0.009345054 0.1302592 0.019364923 -0.036074605 0.01876994 0.007170828 0.043788943
-0.090344906 0.20223548 0.035207015 0.048337393 -0.11627195 0.17184775 0.0631379 0.060217693
0.01847913 0.00850125 -0.088430665 -0.102860495 0.040929884 -0.096206754 0.2753603 0.15061148
-0.21386355 -0.084439866 0.017820958 0.131404 -0.05622934 -0.21203569 0.011844714 -0.03364436
0.08607043 -0.013616219 -0.18600819 -0.1442997 0.10069238 0.1858976 0.03336383 -0.014334787
0.05033821 0.012211667 -0.120146915 -0.083103865 0.0058785635 0.082322985 0.29312456 0.0055476567
0.00027807493 -0.10898722 -0.020932531 -0.0066551515 -0.08338844 0.04337486 -0.0095574325 0.039863672
0.07470794 -0.034516197 0.10794193 -0.013890434 -0.015112746 -0.053656958 0.03835594 -0.11815042
-0.14188452 0.04232355 -0.019971225 0.16779575 -0.103049375 -0.0800135 -0.13984805 -0.06676809
0.033471026 0.023540478 0.022691034 0.047070023 0.02848081 -0.14309168 0.004072064 -0.100150585
0.03560027 -0.06699374 -0.12427736 -0.09473555 0.063931316 -0.007433835 0.09248799 0.025495693
0.05003449 -0.12799239 -0.070513934 -0.14548814 0.15431644 0.05406551 -0.0472782 0.021082107
-0.08260588 -0.011020114 0.026196217 -0.05674444 -0.05076608 -0.058383282 -0.023425654 0.117392465
0.053652544 0.0012121912 -0.08134455 0.059052594 0.03568204 0.057589 0.03315677 -0.044342507

proj.bias f4 [64]
00000000: 307e 59bd cfd3 143d 6c95 8abd afd8 f33c
00000010: 85f1 ba3d 1e8e 4a3d a739 4fbd 8587 c33b
00000020: f2d4 d3bd fd5e a4bc d74a 4abd ee92 f9bd
00000030: a027 22be 4e5b dabd b0a5 11be 37f1 b53d
00000040: 7ffe 9abd 97ac 573d 6c7c 0fbd 0e3f 6b3d
00000050: 4cd7 53bd 56fd 953e cbd7 7ebd dcf7 023d
00000060: 43b7 11bd 18d1 2ab9 810b 69bd 08c1 9f3d
00000070: 07bd 36bd 97a6 b83c cb36 bb3d 80df 513e
00000080: 91ec 03be fd5f c7bd 3600 df3c 679c 47bd
00000090: f597 d5bc 737a 263e 25a7 123d 8cc6 09be
000000a0: 7797 af3d 0923 9c3b 52b8 b23b d266 bcbd
000000b0: 8e16 f2bb ace4 85bd 30dd b8bd 3096 66bd
000000c0: 33ca 7abd e64a 203e a651 c53d 9f76 a83c
000000d0: 31ec b43d fa9b 863d 9085 f73d 1ea4 903d
000000e0: c4e2 6bbd 318e 30be b60e 6f3d 3d74 0bbe
000000f0: 75c9 d43d 39df be3c d3ba a1bd 59bc 54bb
-0.053098857 0.03633481 -0.06766781 0.029766409 0.091280974 0.04945194 -0.05059209 0.005967083
-0.103433505 -0.020064825 -0.04938778 -0.12186228 -0.15835428 -0.10661946 -0.14223361 0.08883899
-0.075680725 0.05265483 -0.035030767 0.05743318 -0.051718995 0.29294842 -0.062217515 0.03197466
-0.035575163 -0.00016290357 -0.056895737 0.0780049 -0.044613864 0.022540374 0.0914131 0.20495415
-0.12883212 -0.09735105 0.02722178 -0.04873314 -0.026073435 0.16257648 0.035803933 -0.13454646
0.085738115 0.0047649187 0.0054541016 -0.09199299 -0.0073879426 -0.06537756 -0.09026563 -0.056295574
-0.06122799 0.15653571 0.09634714 0.020564375 0.088341124 0.06572719 0.12086022 0.07062553
-0.057589307 -0.17241742 0.05836364 -0.1361856 0.103899874 0.0232998 -0.07896962 -0.0032460897

scorer.bilin.weight f4 [1, 64, 64]
00000000: ce2f 483e 54b9 483e 2c07 673e d14c f93c
00000010: 0a25 50be 10d3 cdbd 8852 453d 03fa d1bc
00000020: d888 55be fadf f73e 8a9e c1bd cbcf e8bd
00000030: b700 fbbd 4d98 03be 26cf 733d a910 053e
00000040: a30e c23e ae19 c7bc 20f9 5f3c cf4a a23e
00000050: e4b1 603d ae6a 23be 784b 3d38 cb2b 13be
00000060: dca7 8c3d 2c0e 503d 992c 32be 4ddb 6bbe
00000070: 836f c03e 6bd2 3a3e ee90 21be 82b4 5ebe
00000080: c1d9 58be 9b5f 523e 790c 1abe 4270 edbd
00000090: 5f69 7cbd aad5 f13d 0d91 c2bc 2f74 043d
000000a0: c0af 87bd 2ef0 2e3c d7c3 15be eefe 103d
000000b0: 7041 7fbd 8d1f 2bbd 5a65 89be 28b8 81be
000000c0: d38d 9e3d 41fd 39bd f3cc 97ba 8df1 debb
000000d0: 01d7 163e a31f 353e 0da7 923c b300 f73c
000000e0: ae6f d7bd 8fd1 1abe fb94 2a3e ca7a 20be
000000f0: db1f b83d bd96 fdbd 49fb 85bd b2e1 123e
00000100: 5b00 7d3d 14b0 7b3e e68b 3fbc 84ef 22bc
00000110: 98d5 debd 7ca7 5b3d d7b0 6bbd 0dd4 903d
00000120: 6877 133e 791a 093e 4212 a9bd b177 a53b
00000130: 4110 ea3d 2e89 b93d 3171 90bd 735f d9bd
00000140: 71e2 d9bb 7618 c6bd a195 56bb 1787 ebbc
00000150: bf93 9cbd 94b4 63bc 9a8f c03d f9fe 54bc
00000160: f2b8 22bc 8576 0c3e 05a9 323d 28bd 6cbd
00000170: 7022 19bd f66d 58bd 797d d5bd 1ccb c83c
00000180: 66a0 753d f869 663e 4298 173d 2022 b6bc
00000190: 0267 2d3c 186a c0bd e1a1 0ebc 9872 893d
000001a0: 1baf d33c b1c4 71bd 62a7 c43c 3834 c13d
000001b0: fbfb 25be 49fa a7bd c4f4 813d b6df 0f3e
000001c0: 657f 8f3d 278f 093e c91a 6ebc 88e7 e3bd
000001d0: 34a8 823e cb84 8ebd bcec fcbc 26d5 cfbd
000001e0: b9a0 c43d 7351 c03c 7e24 98bd 029c 5abd
000001f0: 6ccc 273d ff9e 943c 21b7 80bd 8622 09bb
00000200: 2cdf f93c 66bb 5a3e 35dd aabe 814d 8abd
00000210: e710 2a3e 69a9 8dbd 7d61 bd3c 8327 20be
00000220: 5648 563d 6e36 213e 34e3 5bbe df97 1cbe
00000230: 70fb 3cbd 6999 ddbd 82d0 1abe 4101 433e
00000240: f7fa 00be 6af4 283d f1db 6c3c 634d a33d
00000250: 2bd1 e4bd 8109 9a3b 32e4 813d a001 4b3e
00000260: 258f c33d 5d2b c7bd e1d0 79bd e193 c0bd
00000270: 9af4 bbbd dbcd 8f3c 4623 893d fc33 543d
00000280: c558 673e c431 44bc 6448 9cbd 9583 b0be
00000290: e99e b6bc 7625 903d ea16 0e3e aa3a 693e
000002a0: 8673 8b3d 28e5 6d3d 3f58 e53d fd96 c8bd
000002b0: 853c 1e3d 37da bcbc fdea cf3c ff18 edbd
000002c0: c350 76bd 5b9a 38be 7237 dfbd 5f3d 1cbd
000002d0: bb4c 903e 05a1 9c3d 2fe7 5a3e fdfb 123d
000002e0: b829 f3bd f91d 223e 86a0 2d3b 8912 063d
000002f0: c800 ecbc ec89 6c3e c63a 94bd 0863 af3c
00000300: 135e ec3d 2d47 b53a a57c 973d cee4 003e
00000310: 6f37 f3bd e034 68bd 7c78 88bd e9e3 023d
00000320: 02d5 7e3d 59c1 a13d 18b9 debd 4811 703a
00000330: e8e2 d23d e8b7 f13d 7755 2c3d 9bf1 c7bd
00000340: b5ad c6bd be16 ccbd 1b85 253d a01b 10bd
00000350: c4ff a5bd 8178 4dbc 39c3 b2bd ae0e e3bc
00000360: e87b 2cbd 77be d03a 80fe 07bd 7700 91bd
00000370: 4082 3ebd 8f06 e23c feb9 f63b 5e4e d53d
00000380: 959b 123d b513 ab3d 2efd 493d af91 e43d
00000390: b47c d43d 65dd 853d b3d5 c63d dc92 973d
000003a0: 36e8 1ebe 2749 ddbc 842d 133e 181a 37bd
000003b0: 73f7 803d bd9d 983c 3830 8b3b a49e 25bd
000003c0: 4ce8 2abe d054 1a3d 4518 913c 8ceb e7bd
000003d0: 4fb6 a23c c4c7 a1bc a034 2c3d bade 053d
000003e0: dfe0 49bd c2d9 cf3d 44d3 423c 73c3 7fbd
000003f0: c25a 7d3d 7bc9 bebd 380a dc3d c3e0 99bc
0.19549486 0.19601947 0.2256133 0.030432137 -0.2032663 -0.100500226 0.04817441 -0.02563191
-0.20852983 0.48413068 -0.09454067 -0.11367758 -0.12255996 -0.12851067 0.059523724 0.12994637
0.37901792 -0.024304237 0.013670236 0.316977 0.05485715 -0.15958664 4.5131397e-05 -0.14372174
0.06867954 0.050794765 -0.17399825 -0.23032875 0.37585077 0.1824433 -0.15777943 -0.21748546
-0.21176817 0.20544283 -0.1504382 -0.11593677 -0.061623927 0.11808331 -0.023750806 0.032337364
-0.066253185 0.0106773805 -0.14625488 0.03539937 -0.062318265 -0.041778136 -0.26835138 -0.25335813
0.077418946 -0.045407537 -0.0011581465 -0.0068036974 0.14730455 0.1768785 0.017901922 0.0301517
-0.10519348 -0.15119003 0.16658394 -0.1567184 0.08990451 -0.12382267 -0.065420695 0.14343908
0.061767917 0.24578887 -0.011691069 -0.0099448 -0.108805835 0.053626522 -0.057541694 0.070716955
0.14401019 0.13389005 -0.082554355 0.0050496687 0.114288814 0.09059368 -0.070528395 -0.106139086
-0.0066493084 -0.09672634 -0.0032742994 -0.02875094 -0.07645368 -0.013898034 0.0940239 -0.013000243
-0.00993179 0.13717087 0.04361822 -0.05779758 -0.037386358 -0.052839242 -0.10424323 0.024510913
0.05996742 0.22501361 0.03701044 -0.022233069 0.010583641 -0.09395236 -0.008705587 0.0671131
0.025840333 -0.05902547 0.024005596 0.09433788 -0.16209404 -0.08202035 0.063455135 0.14050183
0.070067205 0.13433515 -0.014532753 -0.111281455 0.25518954 -0.06958922 -0.030874602 -0.10148077
0.09600968 0.023476338 -0.07428835 -0.053371437 0.040966436 0.018142221 -0.06284929 -0.0020925119
0.030501924 0.2136055 -0.33371893 -0.06753064 0.1660801 -0.06917078 0.023117775 -0.15640073
0.05231508 0.1574342 -0.2147339 -0.15292309 -0.046138227 -0.10820276 -0.15118602 0.19043447
-0.12595735 0.041248716 0.014456735 0.07973745 -0.11172708 0.00470084 0.06342353 0.19824839
0.09548787 -0.09725068 -0.060990218 -0.09403206 -0.091775134 0.017554214 0.06696181 0.05180739
0.22592457 -0.011974756 -0.07630995 -0.3447539 -0.022292571 0.07038395 0.13875929 0.22776285
0.06809144 0.05807987 0.11198472 -0.09794424 0.038631935 -0.023053272 0.025380606 -0.11577033
-0.060135614 -0.18027632 -0.10899247 -0.038144466 0.2818354 0.076478995 0.21377252 0.035884846
-0.118731916 0.15831746 0.0026493385 0.03273252 -0.028808966 0.23099488 -0.07237773 0.021409526
0.11541381 0.0013830416 0.07396821 0.12587282 -0.118758075 -0.05669105 -0.066636056 0.031955633
0.06221486 0.07898206 -0.108751476 0.00091578485 0.10297185 0.118026555 0.042073693 -0.097628795
-0.09701101 -0.09965275 0.040410142 -0.035182595 -0.08105424 -0.012540937 -0.08728642 -0.02771696
-0.042110354 0.0015925904 -0.033201694 -0.07080167 -0.046510935 0.027591018 0.007529496 0.10415338
0.035792906 0.08353368 0.049313717 0.111605994 0.10375348 0.06536368 0.09708729 0.07401058
-0.15518269 -0.02701242 0.14372832 -0.04470262 0.06297197 0.018629903 0.0042476915 -0.040434495
-0.16690177 0.03767854 0.017711768 -0.11324224 0.019862322 -0.019748576 0.042042375 0.03268311
-0.04928672 0.10148956 0.01189119 -0.062442254 0.06185413 -0.09315773 0.107441366 -0.018783933
