checkpoints/curve30.pt (torch, 53888 bytes, 7 tensors)

convs.0.bias f4 [64]
0	0xbd9ed285	-0.07754997
1	0xbda87376	-0.082251474
2	0xbc2bc490	-0.010483876
3	0x00000000	0.0
4	0x00000000	0.0
5	0xbd3b6dff	-0.045759197
6	0x3dd2f9f3	0.1030158
7	0xbc1051de	-0.008808581
8	0xbcef90fc	-0.029243939
9	0xbe244f2d	-0.16045828
10	0xbdad0417	-0.08448046
11	0xbd1c5b7e	-0.03817319
12	0x00000000	0.0
13	0x3e621f77	0.22082315
14	0xbe4debfe	-0.20109555
15	0x3e4b1d46	0.19835386
16	0xbda6e478	-0.08149046
17	0x00000000	0.0
18	0x3d88ca26	0.06679182
19	0xbe467869	-0.1938187
20	0x3e1c17aa	0.15243402
21	0x00000000	0.0
22	0xbb811cfa	-0.003940222
23	0x00000000	0.0
24	0x3d735edf	0.059416648
25	0x3d539575	0.051656205
26	0xbdedde92	-0.116147175
27	0xbca62584	-0.02028156
28	0xbe1a31ae	-0.15058014
29	0x3e15df06	0.14635858
30	0x3d210df5	0.03931995
31	0x00000000	0.0
32	0xbe5dedc0	-0.21672726
33	0x00000000	0.0
34	0xbc01842c	-0.007905047
35	0xbdf020ef	-0.117250316
36	0x00000000	0.0
37	0xbd51d17a	-0.051225163
38	0x00000000	0.0
39	0x00000000	0.0
40	0x3dafc636	0.085827276
41	0xbe1bc6c7	-0.15212546
42	0x00000000	0.0
43	0xbdee6442	-0.116402164
44	0x3da06d01	0.07833291
45	0x3e274955	0.16336568
46	0xbc6b2538	-0.014352135
47	0x00000000	0.0
48	0x3c4b2506	0.012398964
49	0xbcd65ad3	-0.026166355
50	0x00000000	0.0
51	0xbdbf6f8d	-0.093474485
52	0xbe5cbdb8	-0.21556747
53	0xbd42daea	-0.047572054
54	0x00000000	0.0
55	0x00000000	0.0
56	0x3d7c015f	0.061524745
57	0x00000000	0.0
58	0x00000000	0.0
59	0xba01e2b0	-0.00049547385
60	0xbe0872b6	-0.13325009
61	0x00000000	0.0
62	0x00000000	0.0
63	0x00000000	0.0

convs.0.lin.weight f4 [64, 2]
0	0x3e935215	0.2877356
1	0xbdc667c0	-0.096877575
2	0x3e9a92a7	0.30190012
3	0x3d1c686b	0.03818552
4	0xbf59e8f2	-0.8512107
5	0x3e16ed9c	0.14739078
6	0xbda9e68e	-0.08295928
7	0xbdecb3b8	-0.11557716
8	0xbe802422	-0.25027567
9	0xbe9978ed	-0.29975072
10	0x3d328f23	0.043593537
11	0xbddd774b	-0.10813769
12	0x3da8a958	0.08235425
13	0xbe6ead9e	-0.23308417
14	0x3e90c7bd	0.28277388
15	0xbe99ae75	-0.30015913
16	0xbdaa5090	-0.08316147
17	0x3bb77a97	0.0055993306
18	0x3e09d62c	0.13460606
19	0x3e0ad5ea	0.13558164
20	0x3ecda624	0.40165818
21	0xbe6d1d14	-0.23155624
22	0x3d1b138b	0.037860435
23	0xbe26e153	-0.16296892
24	0xbd075610	-0.03304106
25	0xbe671834	-0.22567827
26	0x3e989b75	0.29806104
27	0xbe87941a	-0.2648018
28	0x3e22e2d1	0.15906836
29	0x3e394871	0.1809404
30	0x3e51ed46	0.20500669
31	0xbe655f51	-0.22399642
32	0x3ec64e21	0.38731483
33	0x3d2f509d	0.04280149
34	0x3d1ede88	0.03878644
35	0xbe880aec	-0.26570833
36	0x3e13d870	0.14438033
37	0xbe399b6c	-0.18125695
38	0xbd97ef54	-0.07418695
39	0x3e827849	0.25482395
40	0x3e1a1e26	0.15050563
41	0xbe2dba29	-0.16965546
42	0xbe1c44e9	-0.15260662
43	0xbc6be960	-0.014398903
44	0x3e53a74d	0.20669289
45	0xbe5f0a53	-0.21781282
46	0xbe3029e4	-0.1720348
47	0xbdd374f4	-0.103250414
48	0xbedaa7a8	-0.42706037
49	0x3d1d572d	0.038413215
50	0x3e973e0e	0.2953953
51	0xbe9b65be	-0.3035106
52	0x3ca096c9	0.01960315
53	0x3dce3075	0.10067836
54	0x3d1cbdaa	0.038266815
55	0xbe010f8c	-0.12603587
56	0x3ec331c2	0.381239
57	0x3dc9d3ea	0.098548725
58	0x3e5c0da4	0.21489578
59	0xbe3ca4ea	-0.18422285
60	0xbe82762d	-0.25480786
61	0xbd2b89cb	-0.041879456
62	0xbd5a2a88	-0.053263217
63	0xbdb803a4	-0.089850694
64	0x3ca401aa	0.020020325
65	0x3d2a2b00	0.041544914
66	0xbcf48580	-0.029848814
67	0xbd8a4158	-0.067507446
68	0xbb65ba93	-0.0035053834
69	0xbcd43bab	-0.025907358
70	0x3e2586cb	0.161647
71	0x3d1e646b	0.038669985
72	0xbe8c3608	-0.27384973
73	0xbde3e10a	-0.11126907
74	0x3eddf18b	0.43348345
75	0xbcda9fb4	-0.02668748
76	0xbc75b3a0	-0.014996439
77	0xbe3a254e	-0.18178293
78	0xbe3ce4b4	-0.18446618
79	0xbe8a486f	-0.27008387
80	0xbec204e8	-0.37894368
81	0xbd219026	-0.03944411
82	0x3e916ff0	0.28405714
83	0x3dc10c17	0.09426134
84	0xbe887533	-0.26651916
85	0xbe39ab52	-0.1813176
86	0xbec2ea56	-0.3806941
87	0x3dd9db9d	0.10637591
88	0xbd7b6de5	-0.0613841
89	0xbe4139f7	-0.18869768
90	0x3e5e56da	0.21712819
91	0xbe471d39	-0.19444741
92	0xbf159b4b	-0.58440083
93	0x3e12e0d3	0.14343576
94	0xbe0c635a	-0.13709775
95	0xbd779314	-0.060443
96	0xbf04c448	-0.51862
97	0x3ddf6962	0.10908772
98	0x3e11b43b	0.14228909
99	0xbda7c0d6	-0.081910774
100	0xbe574821	-0.21023609
101	0xbe985b90	-0.29757357
102	0xbed9d8f8	-0.42548347
103	0x3c9811ef	0.018563239
104	0x3e41d85e	0.18930194
105	0x3e2e5e10	0.1702807
106	0x3e6b60b1	0.22986104
107	0x3cef5978	0.029217467
108	0xbb418080	-0.0029526055
109	0xbe6acdef	-0.2293012
110	0xbe844360	-0.25832653
111	0xbe9064b1	-0.2820182
112	0xbc2e57bb	-0.010641034
113	0xbe8cb5a2	-0.27482325
114	0xbd788b88	-0.060679942
115	0xbe31af96	-0.17352137
116	0xbd610b5c	-0.054942474
117	0xbe594eae	-0.2122142
118	0xbec71fd6	-0.38891476
119	0xbce6fdfe	-0.028197285
120	0xbea1042a	-0.3144849
121	0x3d25f3cc	0.040515706
122	0xbdc61910	-0.09672749
123	0xbe627cb5	-0.22117884
124	0xbd59e680	-0.053198338
125	0xbe15aa24	-0.14615685
126	0xbdbceae0	-0.09224486
127	0xbe92f694	-0.2870375

convs.1.bias f4 [64]
0	0xbbf1e04e	-0.0073814755
1	0xbcd3cc6c	-0.025854312
2	0x3e103098	0.14081037
3	0xbe1fa4b5	-0.15590174
4	0xbca80f8b	-0.020515224
5	0xbdd0be42	-0.10192539
6	0xbddfd64d	-0.109295465
7	0xbdde32f4	-0.10849562
8	0x3ded029d	0.11572764
9	0xbd999d72	-0.075007334
10	0x39b038c9	0.00033611644
11	0xbd51bd6f	-0.05120605
12	0x3e19f291	0.15033938
13	0x3d8df1bb	0.06930872
14	0x3e16e28a	0.14734855
15	0xbd6970bc	-0.056992278
16	0xbc8ceb93	-0.017202174
17	0x3d515ce5	0.05111398
18	0xbd903bcd	-0.07042656
19	0x3dc6853a	0.0969338
20	0x3c6baf8b	0.014385114
21	0xbd8891ae	-0.06668411
22	0xbdd52c95	-0.10408894
23	0x3e4a8121	0.19775821
24	0xbdf34705	-0.1187878
25	0xbd490d04	-0.04908468
26	0x3d11abc7	0.03556421
27	0x3d938cbc	0.07204577
28	0xbd9a95a7	-0.07548075
29	0xbc8a8450	-0.016908795
30	0xbd89e6ae	-0.06733452
31	0x3e13fb7e	0.14451405
32	0x3e1e4ae6	0.15458259
33	0xbddacff8	-0.10684198
34	0xbdb47eaf	-0.088132255
35	0x3e06ac36	0.13151631
36	0xbde873a0	-0.11350179
37	0xbda0a213	-0.07843413
38	0x3e1221a3	0.14270644
39	0x3dd5030b	0.10400971
40	0xbd0f97e0	-0.03505695
41	0xbd39c08d	-0.045349646
42	0xbd3a4924	-0.04547991
43	0xbc9d6d1b	-0.019217065
44	0x3d19b418	0.037525266
45	0x3e14638f	0.14491104
46	0xbd8dd30c	-0.069250196
47	0xbccc0f73	-0.02490971
48	0x3c00a5fd	0.007852075
49	0x3d841b4a	0.064505175
50	0xbd53e638	-0.051733226
51	0x3d709e76	0.05874487
52	0xbdd647e4	-0.10462931
53	0xbd048fb9	-0.032363627
54	0xbd432c7c	-0.047649845
55	0x3e5ff7d6	0.21871886
56	0xbdb869cb	-0.090045534
57	0x3d91fe33	0.07128563
58	0x3d643270	0.055712163
59	0xbdd99cea	-0.10625632
60	0x3b95f923	0.0045768186
61	0x3d1bbf61	0.03802431
62	0xbdb2e947	-0.087359
63	0xbdc94b2f	-0.09828793

convs.1.lin.weight f4 [64, 64]
0	0xbd816eda	-0.063199714
1	0xbdbafd11	-0.091303
2	0xbe1953d3	-0.14973383
3	0xbe20d266	-0.1570526
4	0x3db39e86	0.0877047
5	0x3dd646ba	0.10462709
6	0x3c2e72f7	0.010647527
7	0xbe25add7	-0.16179596
8	0xbe12ed61	-0.14348365
9	0xbe6696db	-0.22518484
10	0xbd13b761	-0.036063556
11	0x3c849d48	0.016188279
12	0xbac82780	-0.0015270561
13	0xbc2c2da0	-0.010508925
14	0x3ddc9771	0.10771073
15	0x3dd87531	0.105692275
16	0xbe8b6c0f	-0.2723088
17	0xbd6ab1bc	-0.057298407
18	0xbc71810a	-0.014740238
19	0xbeaa76aa	-0.33293658
20	0xbdf2af8c	-0.11849889
21	0x3d1af3dc	0.03783022
22	0xbe09a345	-0.13441189
23	0x3dab7e66	0.08373718
24	0x3db88b06	0.090108916
25	0xbd0d18fa	-0.034447648
26	0xbe2ff1c0	-0.17182064
27	0xbe2f2cde	-0.17106959
28	0xbd87eabb	-0.06636568
29	0x3d1216bf	0.035666224
30	0xbddcabd3	-0.1077496
31	0x3e05ed1d	0.13078733
32	0x3cf3b404	0.029748924
33	0xbe485116	-0.19562182
34	0xbc40f3b0	-0.01177685
35	0xbe2180ae	-0.15771744
36	0xbd19c39c	-0.037540063
37	0x3a8fd589	0.0010973673
38	0xbcbec568	-0.02328749
39	0xbe19f9b5	-0.15036662
40	0x3d9c7a01	0.07640458
41	0xbe89f37b	-0.26943573
42	0xbd9847a8	-0.07435542
43	0xbd5d0093	-0.053955626
44	0x3ea72136	0.32642525
45	0x3e5da677	0.21645533
46	0xbe461258	-0.19342935
47	0x3d93f676	0.07224743
48	0xbe76c620	-0.24099016
49	0xbde9d3b1	-0.1141733
50	0xbd89ec8c	-0.06734571
51	0xbcd546ca	-0.026034731
52	0xbe6953a2	-0.2278581
53	0xbd9431e3	-0.07236078
54	0x3de5141a	0.11185475
55	0x3e2cc883	0.16873364
56	0x3c2daeaf	0.01060073
57	0x3e4a8c7d	0.19780155
58	0xbe517742	-0.2045565
59	0xbd652085	-0.055939216
60	0x3e0aa3bb	0.1353902
61	0x3d6366cc	0.055517957
62	0x3dd0d0ea	0.10196097
63	0xbe131dc4	-0.14366823
64	0x3de8a976	0.11360447
65	0xbe7524e6	-0.23939857
66	0xbe33add5	-0.1754678
67	0xbc713dd0	-0.01472421
68	0xbe5762b1	-0.21033742
69	0xbe487b21	-0.1957822
70	0xbe010ea0	-0.12603235
71	0x3e40cda2	0.18828443
72	0xbce5eef6	-0.028068047
73	0xbdc05743	-0.09391644
74	0xbce05333	-0.027383422
75	0xbe413d72	-0.18871096
76	0xbe516316	-0.20447955
77	0xbe088ddd	-0.13335367
78	0xbe8ff614	-0.2811743
79	0x3dc1b8db	0.094590865
80	0xbda91547	-0.082560115
81	0xbd6f63a4	-0.058444634
82	0xbe4a7b5f	-0.19773625
83	0xbd49684e	-0.04917174
84	0xbd7df72e	-0.062003307
85	0xbe16eead	-0.14739485
86	0x3e185bfb	0.14878838
87	0x3e3ae00d	0.18249531
88	0xbe304d3a	-0.1721696
89	0x3dffbeb3	0.12487545
90	0xbdfaecdd	-0.12252209
91	0x3ad2f8e8	0.0016095908
92	0x3d5c5c84	0.053799167
93	0xbdb7d5ba	-0.08976312
94	0x3e28d717	0.164883
95	0x3e0867ef	0.13320898
96	0xbe5a8e71	-0.213434
97	0xbe06eb7a	-0.13175765
98	0xbe5ba9b0	-0.2145145
99	0x3d178719	0.036994074
100	0xbe26c2fe	-0.16285321
101	0xbe6f4a8c	-0.23368281
102	0xbe0e1aa0	-0.13877344
103	0xbe5b30e6	-0.21405372
104	0xbe51800a	-0.20459
105	0x3e218bc4	0.15775973
106	0x3df7adf6	0.12093727
107	0x3e306cb1	0.17228962
108	0xbdc80234	-0.09766045
109	0xbe05201e	-0.13000533
110	0xbdf08fe6	-0.117461964
111	0x3b8a8f20	0.0042284876
112	0xbe567b6f	-0.20945524
113	0xbaf8f64a	-0.0018994298
114	0xbe0e16c0	-0.13875866
115	0x3c239733	0.009984779
116	0x3e2391b3	0.15973549
117	0x3c48efaa	0.012264172
118	0x3e21b837	0.15792929
119	0xbe1de607	-0.1541978
120	0xbcb4c828	-0.022068098
121	0xbe08e582	-0.133688
122	0xbcc4c710	-0.024020702
123	0xbdbdbf3f	-0.09264993
124	0xbe200f4f	-0.1563084
125	0xbe5626c5	-0.20913227
126	0xbda46952	-0.08027901
127	0x3ced8538	0.028994188
128	0xbe1220fd	-0.14270397
129	0xbeee7a61	-0.46577743
130	0x3da96fab	0.08273252
131	0x3e2463b7	0.16053663
132	0xbe05aa2a	-0.13053194
133	0x3c99f279	0.018792378
134	0xbd1d6ba1	-0.03843272
135	0xbe529dc3	-0.20567994
136	0xbe2e0523	-0.16994147
137	0x3d9c144e	0.0762106
138	0xbc81cba9	-0.015844183
139	0x3d9f1f24	0.077696115
140	0xbdb86464	-0.09003523
141	0xbe7f7e19	-0.24950446
142	0xbcb58d87	-0.022162212
143	0xbe6ad65a	-0.22933331
144	0xbf08ed22	-0.53486836
145	0xbe531a4b	-0.20615499
146	0xbe58a877	-0.21158014
147	0x3e2d6bc2	0.16935638
148	0xbe7b87b7	-0.2456349
149	0xbc890198	-0.016724393
150	0x3e084511	0.13307597
151	0xbd7d1bcc	-0.061794087
152	0xbdf4f0d7	-0.11959999
153	0xbe6591ec	-0.22418946
154	0xbd4dfcb9	-0.050289843
155	0x3ccd3f04	0.025054462
156	0xbea613b7	-0.32436916
157	0xbe508d4d	-0.20366402
158	0xbd854c5d	-0.06508706
159	0xbce1d090	-0.02756527
160	0xbd8d9ef9	-0.06915087
161	0x3df7b38a	0.12094791
162	0xbe01bb40	-0.12669086
163	0xbe9ed8ac	-0.31024683
164	0xbe205e4b	-0.1566097
165	0xbef40812	-0.47662407
166	0xbdd7e143	-0.10541012
167	0x3e2f1aa5	0.17100008
168	0xbe42aaec	-0.19010514
169	0xbeb742ce	-0.35793155
170	0xbe34bb92	-0.17649677
171	0xbd86c201	-0.06579972
172	0xbe247b36	-0.16062626
173	0xbea37eb3	-0.319326
174	0xbcb906a5	-0.022586176
175	0x3d95d802	0.07316591
176	0xbd67a066	-0.056549452
177	0xbe4773c3	-0.19477753
178	0x3d4b7e84	0.0496812
179	0x3e2aa6f7	0.16665255
180	0xbd8e5a59	-0.06950826
181	0x3d4e9ce8	0.050442606
182	0x3e25f155	0.16205342
183	0x3dd3f81a	0.10350056
184	0xbcff26e5	-0.031146476
185	0xbe14797d	-0.14499469
186	0xbe147bfa	-0.14500418
187	0x3d89d12a	0.06729348
188	0x3e2186a0	0.15774012
189	0x3e48127f	0.19538306
190	0xbce6ed38	-0.028189287
191	0xbd230578	-0.039800137
192	0x3da73871	0.08165062
193	0xbb4e8169	-0.003151024
194	0x3e0c8587	0.13722812
195	0xbde22b47	-0.11043411
196	0xbd917b68	-0.07103616
197	0x3c005919	0.007833743
198	0x3e0f68a2	0.14004758
199	0xbe748ba3	-0.23881392
200	0xbd591e07	-0.053007152
201	0x3df428d8	0.11921853
202	0x3d169d73	0.03677125
203	0x3e22154e	0.1582844
204	0xbd96325e	-0.073338255
205	0xbe31ad2f	-0.1735122
206	0xbe063a89	-0.13108267
207	0xbe46cd58	-0.1941427
208	0xbe8191f0	-0.25306654
209	0x3ddbbcea	0.10729392
210	0x3d868b5c	0.065695494
211	0xbdde44a1	-0.10852934
212	0x3e1b97d7	0.15194641
213	0x3d7c7954	0.061639145
214	0x3d5f8856	0.05457338
215	0xbdbad480	-0.091225624
216	0x3d3f8126	0.046754025
217	0xbe08ea80	-0.13370705
218	0x3dd81cb4	0.1055235
219	0xbdf0f3d6	-0.11765258
220	0x3dc059da	0.09392138
221	0xbe1cf240	-0.15326786
222	0x3c9e426b	0.01931878
223	0xbe39ef7d	-0.18157764
224	0xbd07ce91	-0.03315598
225	0xbd6f5d4c	-0.058438584
226	0xbe049268	-0.12946475
227	0xbe5034f5	-0.20332702
228	0xbd78d7e8	-0.06075278
229	0x3c870a71	0.016484471
230	0x3e1d5da3	0.15367751
231	0xbd11ba20	-0.035577893
232	0x3e0d1214	0.13776428
233	0xbde706a9	-0.11280567
234	0xbde44580	-0.111460686
235	0x3bd8b28c	0.0066130813
236	0xbdff4db0	-0.124659896
237	0xbbcbf2ab	-0.0062239966
238	0x3e3ca500	0.18422318
239	0x3d97d146	0.074129626
240	0xbeb21a46	-0.3478567
241	0xbe107f38	-0.1411103
242	0xbd302d78	-0.043012112
243	0xbe32b940	-0.1745348
244	0x3ce03584	0.027369268
245	0x3e044638	0.12917411
246	0x3ddc37fe	0.10752867
247	0xbb8c7b00	-0.0042871237
248	0xbbed023c	-0.0072329324
249	0xbdcfa4cd	-0.10138855
250	0xbcc509a8	-0.024052456
251	0x3daf0106	0.08545117
252	0xbe0a2158	-0.13489282
253	0x3d0de07c	0.034637913
254	0xbe22aafb	-0.15885536
255	0xbd728230	-0.059206188

proj.weight f4 [64, 64]
0	0x3d025820	0.031822324
1	0x3da79647	0.0818296
2	0x3d967a67	0.07347565
3	0x3dc37b28	0.095449746
4	0xbcbe9309	-0.023263471
5	0xbdd61796	-0.104537174
6	0xbd41939e	-0.04725992
7	0xbd44a8ac	-0.04801242
8	0xbd788c3f	-0.060680624
9	0xbde76810	-0.11299145
10	0x3d9375d0	0.07200205
11	0xbd87cb3d	-0.066305615
12	0xbdcfe9b1	-0.10151995
13	0xbdb3c779	-0.08778281
14	0x3d679927	0.05654254
15	0xbc0547be	-0.00813478
16	0x3e1f93f3	0.15583782
17	0xbe88364c	-0.26603925
18	0xbd952697	-0.07282751
19	0xbd174ed6	-0.03694042
20	0x3d9242cf	0.07141649
21	0xbd2fbd08	-0.042904884
22	0x3e0140c6	0.12622365
23	0x3b9988da	0.0046855034
24	0x37eddf66	2.835663e-05
25	0x3d95a625	0.0730708
26	0xbcc132b9	-0.023583757
27	0x3d6ac735	0.057318885
28	0x3db0a96f	0.08626067
29	0xbd0ec226	-0.034853123
30	0x3d6b8f83	0.05750991
31	0xbcda68b3	-0.026661253
32	0x3d978408	0.0739823
33	0x3d9ac82a	0.075577095
34	0xbd1cc9e7	-0.038278487
35	0xbe379744	-0.17928797
36	0x3c8dd8f1	0.01731536
37	0xbd977805	-0.07395939
38	0xbddcfaa6	-0.10789995
39	0x3d6e4e06	0.058179878
40	0xbc2d2c5b	-0.010569657
41	0x3db38ba9	0.087668724
42	0xbd8306f5	-0.06397811
43	0x3e46529f	0.19367455
44	0x3d27436b	0.04083578
45	0xbe0a27b7	-0.13491713
46	0x3e0caa0b	0.13736741
47	0xbb54dbf0	-0.0032479726
48	0x3ae01051	0.0017094706
49	0xbdde32bd	-0.10849521
50	0xbd7d9a89	-0.061914954
51	0xbe024583	-0.12721829
52	0x3d62e147	0.055390622
53	0x3e4e4006	0.2014161
54	0xbbcbed7b	-0.0062233782
55	0x3c8afe63	0.016967004
56	0x3d860deb	0.065456234
57	0x3cea9983	0.028637653
58	0xbcd83b17	-0.026395364
59	0xbcda993d	-0.026684398
60	0x3aa03fca	0.0012226042
61	0x3c88ac51	0.01668373
62	0x3d84266c	0.06452641
63	0x3d9426b2	0.07233943
64	0x3d7e9dff	0.062162396
65	0xbd02c5c5	-0.03192689
66	0x3cec9459	0.028879331
67	0xbbccfc1f	-0.006255641
68	0x3dbf63e6	0.09345226
69	0x3dcda026	0.100403115
70	0x3d762330	0.06009215
71	0xbcbcbdb4	-0.023039676
72	0x3da38d62	0.07985951
73	0x3d41d2f5	0.047320325
74	0xbe02bb28	-0.12766707
75	0xbcd45edc	-0.025924139
76	0xbd5ef50d	-0.054432917
77	0xbe1fe461	-0.15614463
78	0xbe0e25d1	-0.13881613
79	0xbd135e87	-0.03597882
80	0x3e3d2813	0.18472318
81	0x3df5b65b	0.11997672
82	0xbd46b102	-0.04850865
83	0x3da3ede9	0.08004362
84	0x3e8304b7	0.25589535
85	0x3cd4803a	0.02594005
86	0x3d3ab938	0.045586795
87	0x3e138e9c	0.1440987
88	0x3d395dab	0.045255344
89	0xbcdedec8	-0.02720584
90	0x3e365252	0.1780484
91	0xbe010db6	-0.12602887
92	0xbd99811e	-0.0749533
93	0x3bcbfbda	0.0062250914
94	0xbd93a61f	-0.072094195
95	0x3d5a1ace	0.05324822
96	0x3d1d60d3	0.038422417
97	0xbd4ef7aa	-0.05052916
98	0xbd85eb9c	-0.065390795
99	0xbd8e317a	-0.06943031
100	0xbe0290d9	-0.12750567
101	0x3cde502f	0.027137844
102	0x3e2541f5	0.16138442
103	0xbd8dd917	-0.06926172
104	0x3d74dea7	0.05978265
105	0xbd13d9ec	-0.0360965
106	0x3d1e81a3	0.03869785
107	0xbd85299d	-0.06502078
108	0x3e1054bd	0.14094825
109	0xbc58acb7	-0.013224772
110	0xbd64bbe7	-0.05584326
111	0x3e3ebab8	0.18625915
112	0x3c2e82ca	0.0106513
113	0x3cb4cc44	0.022070058
114	0x3dfefa0b	0.12450036
115	0x3dbc96cc	0.0920845
116	0x3c4e0760	0.0125750005
117	0x3db529ed	0.08845887
118	0x3df80fec	0.12112412
119	0x3d1593bd	0.036517847
120	0x3c60ad99	0.013713264
121	0x3d84fad2	0.06493153
122	0xbd86d7dd	-0.065841414
123	0xbdc115f1	-0.09428013
124	0x3cef08b1	0.02917895
125	0xbdce2f0a	-0.10067566
126	0x3dbd1c69	0.092339344
127	0x3db1ba3c	0.086780995
128	0xbd4e7045	-0.050400037
129	0xbd88cd9b	-0.06679841
130	0x3b853545	0.004065188
131	0x3d1d682e	0.03842943
132	0xbda544ca	-0.08069761
133	0x3d569b18	0.052394003
134	0xbcdecdf0	-0.027197808
135	0x3cceb628	0.025233343
136	0x3e25cdf8	0.16191852
137	0x3d17841d	0.036991227
138	0xbde80355	-0.113287605
139	0x3de26468	0.11054307
140	0xbce71aed	-0.028211081
141	0xbdd69664	-0.104779035
142	0xbcc5d575	-0.024149636
143	0x3dfe2da1	0.12411047
144	0x3dc19f16	0.09454171
145	0x3cb18494	0.021669663
146	0x3c55441d	0.013016728
147	0x3ce71726	0.02820928
148	0x3e207c6c	0.15672463
149	0xbe11db9e	-0.14243934
150	0xbcc8bd7b	-0.024504414
151	0xbd1ede49	-0.038786206
152	0x3d95114a	0.07278688
153	0xbd5b26a5	-0.05350365
154	0xbcb1dd8a	-0.021712083
155	0xbd9b3c16	-0.0757982
156	0x3b88505e	0.004159971
157	0x3de97e1b	0.11401006
158	0xbe191234	-0.1494835
159	0xbd04dad9	-0.032435272
160	0xbe04ec66	-0.12980804
161	0xbcdc4ae4	-0.02689118
162	0x3cc18403	0.023622518
163	0x3d0f1ee1	0.034941558
164	0xbe36def5	-0.17858489
165	0x3d7b3da0	0.061338067
166	0x3d516e9a	0.05113087
167	0xbd636b0d	-0.055522013
168	0xbdbc1def	-0.09185397
169	0xbd90eafb	-0.07076069
170	0x3d9f2651	0.0777098
171	0x3db91b03	0.09038355
172	0x3d9f4b6b	0.07778057
173	0x3dce65d5	0.10078017
174	0x3d9b9b43	0.07597973
175	0x3d947cdb	0.07250377
176	0x3e46085b	0.19339125
177	0xbe070c80	-0.13188362
178	0xbe1387d4	-0.14407283
179	0x3e56a431	0.20961072
180	0x3ceb1ddf	0.028700767
181	0xbc9797eb	-0.018505057
182	0xbdfbbb0a	-0.12291534
183	0x3e02140d	0.12702961
184	0x3df4d33f	0.119543545
185	0xbddccc21	-0.10781122
186	0xbe4b4a8b	-0.19852655
187	0xbde1d38b	-0.11026677
188	0x3e58156b	0.2110192
189	0xbd8cdbe6	-0.0687788
190	0xbdf7aa62	-0.12093045
191	0xbe067cd5	-0.13133557
192	0x3da8b33f	0.082373135
193	0x3e0666f9	0.13125218
194	0x3ca9d0e1	0.020729484
195	0x3de1987b	0.110154115
196	0xbdb5aadc	-0.088704795
197	0xbdc2e9a7	-0.09517222
198	0xbd5c5413	-0.053791117
199	0xbda5e90c	-0.08101091
200	0xbce2cc45	-0.027685294
201	0xbdba1d6e	-0.090876445
202	0xbd964815	-0.07337967
203	0xbda0052b	-0.07813486
204	0x3d4eba1e	0.050470464
205	0xbd287983	-0.041131508
206	0xbce0556d	-0.027384484
207	0x3dc324ed	0.095285274
208	0xbcd94deb	-0.026526412
209	0x3bcdcba1	0.006280378
210	0x3c5a9c78	0.013342969
211	0x3d31a1d9	0.04336724
212	0x3e27f9df	0.16403912
213	0xbdbe06d2	-0.092786446
214	0x3d9c793c	0.07640311
215	0x3e8014c2	0.25015837
216	0x3dc2cb61	0.09511448
217	0xbc7a542b	-0.015278856
218	0x3e0b70dd	0.13617273
219	0xbd7d4216	-0.061830603
220	0x3d178e22	0.037000783
221	0x3cf92ef6	0.0304179
222	0x3d9598fa	0.073045686
223	0x3d285818	0.041099638
224	0xbd3d9e49	-0.04629353
225	0x3c6190a9	0.0137674
226	0xbe063e90	-0.13109803
227	0xba890e6f	-0.0010456572
228	0xbdde0992	-0.10841669
229	0x3d3065d9	0.04306588
230	0xbcfc9bb1	-0.030835958
231	0xbc521b3f	-0.012823879
232	0xbd1f82dc	-0.038943157
233	0x3dcaa7a5	0.09895257
234	0xbbf79508	-0.0075556077
235	0xbafe7980	-0.0019414872
236	0xbca75274	-0.020425059
237	0x3d3ca32c	0.04605405
238	0x3b118a2b	0.0022207599
239	0xbdaaf60e	-0.083477125
240	0xbd26b96f	-0.040704187
241	0xbc50f51e	-0.012753753
242	0xbcf9f88e	-0.030514028
243	0x3d93ce94	0.07217136
244	0x3db36e0e	0.08761226
245	0x3d1a9357	0.03773817
246	0x3e086273	0.13318805
247	0x3e780c2a	0.2422339
248	0x3cb66fdc	0.022270136
249	0x3c17e908	0.009271868
250	0xbb47da47	-0.0030495094
251	0xbcce3641	-0.025172355
252	0x3dca0c43	0.0986562
253	0xbe38341a	-0.17988625
254	0xbd577c84	-0.05260898
255	0x3d536280	0.05160761

proj.bias f4 [64]
0	0x3cb72e39	0.022360908
1	0x3dce2542	0.100657
2	0xbc121581	-0.00891626
3	0x3dc57126	0.09640722
4	0x3b44f651	0.0030054043
5	0xbe22795f	-0.15866612
6	0xbe0884a8	-0.13331854
7	0xbd1f9248	-0.038957864
8	0xbd2f986d	-0.042869974
9	0xbe177319	-0.1479
10	0xbc559005	-0.013034825
11	0x3c9c0f82	0.019050363
12	0x3d7cd208	0.06172374
13	0x3dfdec96	0.12398641
14	0x3e0b02f9	0.13575353
15	0xbd2f13ee	-0.042743616
16	0x3d3927da	0.04520402
17	0x3da0704f	0.07833921
18	0xbe768d05	-0.24077232
19	0xbd1299e1	-0.03579128
20	0xbe105d9b	-0.14098208
21	0x3d3723ab	0.04471175
22	0x3ad9766e	0.0016591081
23	0x3ca8f393	0.020623958
24	0xbd9dd413	-0.077064656
25	0x3dd2c997	0.102923565
26	0x3d1bef07	0.03806975
27	0xbdbcb572	-0.092142954
28	0xbd163316	-0.036669813
29	0xbd802791	-0.06257547
30	0x3d731cc3	0.0593536
31	0xbd71ed4f	-0.059064206
32	0xbd805cda	-0.0626771
33	0x3d893002	0.0669861
34	0x3e4d1361	0.20026924
35	0xbd40745b	-0.046985965
36	0xbc0494da	-0.00809213
37	0x3d0edc30	0.034877956
38	0xbcfb0497	-0.030641837
39	0x3ddca9ca	0.10774572
40	0xbbd2de10	-0.0064351633
41	0x3d5dc6e2	0.054144748
42	0x3dc47453	0.095924996
43	0xba6f1924	-0.0009120873
44	0xbdb54b65	-0.08852271
45	0x3c1ad532	0.009450244
46	0x3cc4b40b	0.024011632
47	0xbcc7b3a0	-0.024377644
48	0xbcbb37a1	-0.022853674
49	0xbd3cb0e2	-0.046067126
50	0xbdc6b11e	-0.09701751
51	0xbb83930c	-0.004015332
52	0x3da40d03	0.08010294
53	0xbd9e48fc	-0.077287644
54	0x3c0a7261	0.008450122
55	0x3d781199	0.060563657
56	0xbc1cee2b	-0.009578268
57	0xbd032e2f	-0.032026466
58	0xbd40995d	-0.04702126
59	0x3caac2ed	0.020844901
60	0xbde5a480	-0.112130165
61	0x3ace74d8	0.0015751375
62	0x3d5f836e	0.0545687
63	0x3de076f8	0.109601915

scorer.bilin.weight f4 [1, 64, 64]
0	0x3df3c9cb	0.11903723
1	0x3d5eefad	0.05442779
2	0xbdb4ad92	-0.088221684
3	0xbe22082b	-0.15823428
4	0xbe136edc	-0.14397758
5	0xbd3ef6ed	-0.046622206
6	0xbd8170b7	-0.06320327
7	0x3e48d1ee	0.19611332
8	0x397fb0fd	0.00024384628
9	0x3df7c429	0.120979615
10	0xbe524a7c	-0.20536226
11	0xbcb29095	-0.021797458
12	0x3d83a0a4	0.06427124
13	0x3c1d8bb2	0.0096158255
14	0xbdb1c8c4	-0.08680871
15	0x3dc3998b	0.0955077
16	0x3da1add8	0.07894486
17	0xbb82ecf5	-0.0039955326
18	0x3e0f9383	0.14021115
19	0xbdd1f6ac	-0.10252127
20	0xbd40238c	-0.0469089
21	0x3d4ddddc	0.05026041
22	0x3d911c7d	0.07085512
23	0xbcdda04c	-0.027053975
24	0xbdd0e8a5	-0.102006234
25	0x3dde0187	0.10840135
26	0x3d9de1fb	0.07709118
27	0xbd1a2070	-0.03762859
28	0x3dcd63f6	0.10028832
29	0x3b4adb35	0.0030953411
30	0x3d103441	0.035206083
31	0xbd913308	-0.070898116
32	0xbe11913e	-0.14215562
33	0xbc9cb539	-0.019129382
34	0xbc12c4cd	-0.008958054
35	0xbd36ff19	-0.044676874
36	0xbb1a7f65	-0.0023574468
37	0x3d997128	0.07492286
38	0xbde8aa8e	-0.11360656
39	0xbe0f0832	-0.1396797
40	0x3dd41b30	0.10356748
41	0xbdf3030a	-0.11865814
42	0xbcbda2c8	-0.02314891
43	0xbe5a0ab7	-0.2129315
44	0xbd6dc518	-0.05804929
45	0x3dd1c3fd	0.1024246
46	0x3dbb06e2	0.09132172
47	0x3d84649a	0.06464501
48	0xbd81021b	-0.0629923
49	0xbd91de5e	-0.07122491
50	0x3ddbf50f	0.107401006
51	0xbd29ce49	-0.041456494
52	0x3e113169	0.14179005
53	0x3e010af8	0.1260184
54	0xbd0e094a	-0.034676827
55	0x3dc1b42d	0.09458194
56	0xbd47ec14	-0.048809126
57	0x3df1c6d2	0.118055
58	0xbdcd36eb	-0.100202404
59	0x3d143705	0.036185283
60	0xbdf88917	-0.12135523
61	0x3c1923ec	0.009346943
62	0x3d62c176	0.05536028
63	0xbdd18190	-0.1022979
64	0xbe0563a0	-0.13026285
65	0xbde4d095	-0.11172596
66	0x3d92ebde	0.07173894
67	0xbe019871	-0.12655808
68	0x3e38b0ad	0.18036146
69	0x3dcc54cb	0.099771105
70	0x3d2cd144	0.04219176
71	0xbde0e881	-0.109818466
72	0xbdc27358	-0.09494656
73	0x3e6c8eab	0.23101299
74	0x3d1921a0	0.037385583
75	0xbd69ce81	-0.057081703
76	0xbc96c285	-0.018403301
77	0x3e276faf	0.16351198
78	0xbe0d9a63	-0.13828425
79	0xbd2e7d04	-0.042599693
80	0x3dc5f722	0.096662775
81	0xbdb12d3d	-0.08651207
82	0x3e568473	0.20948963
83	0xbd1675aa	-0.036733307
84	0xbe2d692d	-0.16934653
85	0xbe2b488c	-0.16726893
86	0x3d48de43	0.04904009
87	0xbcbf9a10	-0.023388892
88	0x3d12112c	0.035660908
89	0x3e1dcdf5	0.15410598
90	0x3dd6f9ff	0.10496902
91	0x3dd8e260	0.105900526
92	0x3d9bc5c9	0.07606084
93	0x3d9c907a	0.07644744
94	0xbce8b5c1	-0.02840698
95	0x3cbd36c8	0.02309741
96	0x3d00d45b	0.031452518
97	0xbe2c3cb6	-0.16820034
98	0xbd1a0e96	-0.037611566
99	0xbc066ad9	-0.008204185
100	0xbcd894bd	-0.026438111
101	0xbdc2ba6a	-0.09508212
102	0x3dc9e898	0.09858817
103	0x3cb9bb04	0.022672184
104	0xbd060655	-0.032720882
105	0x3c88ed61	0.016714754
106	0xbe300fc9	-0.17193522
107	0x3d06f12a	0.032944836
108	0x3e8077f2	0.2509151
109	0x3dd46569	0.10370905
110	0x3d68417c	0.056703076
111	0x3b4d4bbb	0.0031325656
112	0x3cb934a0	0.022608101
113	0xbd385dcd	-0.04501133
114	0xbdb90734	-0.09034577
115	0x3d97cfa2	0.0741265
116	0x3d4ec2fe	0.050478928
117	0x3dbd3f16	0.09240548
118	0xbcbc3954	-0.022976555
119	0xbdc4ab96	-0.0960304
120	0xbc9a90f2	-0.018867943
121	0x3d97b666	0.074078366
122	0xbd84302a	-0.06454499
123	0xbe0e8ed3	-0.1392167
124	0x3d770274	0.060305074
125	0x3dd49269	0.10379488
126	0xbb9598a1	-0.004565314
127	0x3da48429	0.0803302
128	0x3d9a1ab5	0.07524625
129	0xbc4abd82	-0.012374284
130	0x3e3f3b6b	0.1867501
131	0x3c92bd8c	0.017912649
132	0x3ebf1603	0.3732148
133	0x3d57da6d	0.05269854
134	0x3da83475	0.082131304
135	0xbe8a416e	-0.27003044
136	0xbdbb0f75	-0.091338076
137	0x3cbf9ac5	0.02338923
138	0x3dfac1f9	0.122440286
139	0x3c9dd02b	0.019264301
140	0xbd04b383	-0.03239776
141	0x3e39f6d1	0.18160559
142	0xbdb777eb	-0.089584194
143	0x3d7f8a55	0.062387783
144	0x3de6a891	0.1126262
145	0x3da24810	0.07923901
146	0x3e3b39af	0.18283723
147	0x3d426239	0.047456954
148	0xbd8213e8	-0.06351453
149	0xbd256199	-0.04037628
150	0x3d8c60fa	0.06854434
151	0x3b1f4b97	0.002430653
152	0x3d07aa3d	0.033121336
153	0x3d9e84dd	0.077401854
154	0x3e38b637	0.1803826
155	0x3d4ce27f	0.05002069
156	0xbe200479	-0.15626706
157	0xbdcf6339	-0.10126347
158	0xbcf024c5	-0.029314408
159	0x3ce1650e	0.027514007
160	0x3d01fafd	0.0317335
161	0xbd35d0b5	-0.04438849
162	0x3dc8bf2a	0.09802087
163	0xbe37e701	-0.17959215
164	0xbd191e1a	-0.037382223
165	0x3dc0f776	0.094221994
166	0xbd8e3eb2	-0.06945552
167	0xbd49731b	-0.04918204
168	0x3d200b28	0.03907314
169	0x3c0aa1d8	0.008461438
170	0x3cc370b7	0.023857458
171	0xbcefeed3	-0.029288685
172	0x3de4411a	0.1114523
173	0xbda09f46	-0.07842879
174	0x3e1a214d	0.15051766
175	0xbdfcdd77	-0.123469286
176	0xbd7797bf	-0.06044745
177	0xbd6321b0	-0.05545205
178	0xbddcb12e	-0.10775982
179	0x3e39a4f6	0.18129334
180	0xbc1bfc24	-0.009520564
181	0xbdc9d7ae	-0.09855591
182	0x3de2ea33	0.11079826
183	0x3d063b96	0.03277167
184	0x3b5c9c59	0.0033662526
185	0xbe18fe5c	-0.1494078
186	0x3d5024fe	0.05081653
187	0x3b8fdd50	0.004390396
188	0x3e083911	0.13303019
189	0xbe183c91	-0.14866854
190	0x3c03717d	0.008022663
191	0x3da1d5e6	0.07902126
192	0xbdd4507d	-0.103669144
193	0xbd0a3da9	-0.03375021
194	0x3dc254a4	0.094888
195	0x3d3999ba	0.04531262
196	0xbd684dc1	-0.056714777
197	0x3d0097c9	0.031394754
198	0x3df5ea17	0.1200754
199	0x3ceabd11	0.028654607
200	0xbdf4cfcd	-0.11953697
201	0x380cca3c	3.3566947e-05
202	0x3dd60d8a	0.10451801
203	0x3e0e0348	0.13868439
204	0xbdfd7115	-0.12375084
205	0x3c607d05	0.013701682
206	0xbc7d83fe	-0.015473364
207	0x3dca913b	0.09890982
208	0xbdf75174	-0.12076083
209	0x3c35ca38	0.011095576
210	0x3e6a2a81	0.22867776
211	0x3cb2f0db	0.021843364
212	0xbdf3edeb	-0.119106136
213	0xbd994299	-0.074834056
214	0xbdbdab29	-0.09261162
215	0xbca79a37	-0.020459278
216	0xbd719c90	-0.0589872
217	0x3e0c9d46	0.1373187
218	0x3c475646	0.012166565
219	0xbdd4ebc1	-0.10396529
220	0x3db2dcdb	0.08733531
221	0x3d0cc4b0	0.034367263
222	0x3c9c5c28	0.019086912
223	0x3d8785d0	0.066173196
224	0x3d25814b	0.040406507
225	0xbdb0f68a	-0.086407736
226	0xbdf93a24	-0.121692926
227	0xbdbece1c	-0.09316656
228	0xbe26e828	-0.16299498
229	0xbe3337a8	-0.175017
230	0xbdb8450f	-0.08997547
231	0x3e07dcfc	0.13267893
232	0xbe0424b2	-0.12904623
233	0xbdaa33f7	-0.08310693
234	0xbe6371af	-0.22211336
235	0xbcd34717	-0.025790734
236	0x3e6f34f4	0.23360044
237	0x3cbe74b7	0.023249013
238	0xbd4bb37c	-0.049731717
239	0xbd859d3f	-0.06524133
240	0x3ac78866	0.0015223145
241	0xbb68c12c	-0.003551553
242	0xbdbde76e	-0.09272657
243	0x3d5bbc52	0.053646393
244	0x3dc5a294	0.0965015
245	0xbd377f6f	-0.044799265
246	0xbcf39d56	-0.02973811
247	0x3da864e6	0.0822237
248	0x3cc63ad9	0.024197983
249	0xbd928824	-0.07154873
250	0xbce8572c	-0.02836188
251	0xbd2aeaeb	-0.04172794
252	0x3e09be8d	0.13451596
253	0xbdce06ed	-0.10059915
254	0x3e7bc50f	0.2458689
255	0xbc16fbd9	-0.009215319
