checkpoints/curve70.pt (torch, 53760 bytes, 7 tensors)

convs.0.bias f4 [64]
0	0x3e4a1b02	0.19736865
1	0xbcdbca0e	-0.026829746
2	0x3dd7acd9	0.10531015
3	0x00000000	0.0
4	0x00000000	0.0
5	0xbd20442a	-0.039127506
6	0x3d684fed	0.05671685
7	0x3d9db256	0.077000305
8	0xbd9879b6	-0.074450895
9	0xbe98a0b0	-0.29810095
10	0x3c78e99d	0.0151924165
11	0xbd095977	-0.033532586
12	0x00000000	0.0
13	0x3e5d557d	0.21614642
14	0xbcf03b5b	-0.029325178
15	0x3e1aeea4	0.15130097
16	0xbd7db8b5	-0.06194373
17	0x00000000	0.0
18	0xbd1ba7f6	-0.038001977
19	0xbe8d705c	-0.27624786
20	0xbcd19101	-0.025581839
21	0x00000000	0.0
22	0xbc442993	-0.011972803
23	0x00000000	0.0
24	0xbb647736	-0.0034861094
25	0x3e50d8bb	0.20395176
26	0xbe01760b	-0.12642686
27	0x3e14ccab	0.145312
28	0xbe10af44	-0.14129359
29	0xbd6b053d	-0.057378042
30	0xbd0f9356	-0.03505262
31	0x00000000	0.0
32	0xbea09b70	-0.3136859
33	0x00000000	0.0
34	0xbc6f7c9f	-0.014617114
35	0xbe002ed7	-0.12517868
36	0x00000000	0.0
37	0xbd54875f	-0.051886912
38	0x00000000	0.0
39	0x00000000	0.0
40	0xbe068b2e	-0.1313903
41	0xbe35d7c0	-0.17758083
42	0x00000000	0.0
43	0xbe38282f	-0.17984079
44	0xbcf0141a	-0.02930646
45	0xbd88eff5	-0.06686393
46	0xbc83674b	-0.016040465
47	0x00000000	0.0
48	0xbb703631	-0.0036653394
49	0xbea019c8	-0.3126967
50	0x00000000	0.0
51	0xbda5978b	-0.08085545
52	0xbe96bc96	-0.29440755
53	0xbcfade8c	-0.030623697
54	0x00000000	0.0
55	0x00000000	0.0
56	0xb9ea199c	-0.00044651038
57	0x00000000	0.0
58	0x00000000	0.0
59	0x3e3094fd	0.17244335
60	0xbab8e583	-0.0014106486
61	0x00000000	0.0
62	0x00000000	0.0
63	0x00000000	0.0

convs.0.lin.weight f4 [64, 2]
0	0x3e83c263	0.25734243
1	0xbe8a477d	-0.27007666
2	0x3e8e1ca0	0.27756214
3	0xbd97af28	-0.07406455
4	0xbf8e4453	-1.1114601
5	0x3e6d57f2	0.2317808
6	0xbda9e68e	-0.08295928
7	0xbdecb3b8	-0.11557716
8	0xbe802422	-0.25027567
9	0xbe9978ed	-0.29975072
10	0x3d1c7375	0.038196046
11	0xbdc0c019	-0.0941164
12	0x3e9227df	0.28546044
13	0xbed9046f	-0.42386195
14	0x3ec5fe68	0.3867066
15	0xbefa0571	-0.48832276
16	0xbdff0377	-0.12451833
17	0x3c4ac10e	0.012375129
18	0x3e6e1723	0.23251013
19	0x3e33df72	0.17565706
20	0x3eea6289	0.457783
21	0xbeb47486	-0.3524515
22	0x3d34f902	0.044182785
23	0xbe274d1f	-0.16338013
24	0xbd075610	-0.03304106
25	0xbe671834	-0.22567827
26	0x3e993e99	0.2993057
27	0xbe926291	-0.28590825
28	0x3c78569e	0.01515737
29	0xbd2556d8	-0.040366024
30	0x3e51fd0c	0.20506686
31	0xbe75985a	-0.23983899
32	0x3eec1343	0.46108446
33	0xbbb69439	-0.0055718687
34	0x3d1ede88	0.03878644
35	0xbe880aec	-0.26570833
36	0x3d2dcde5	0.042432684
37	0xbdfb0734	-0.12257233
38	0xbd5963bf	-0.05307364
39	0x3eb12fe1	0.3460684
40	0x3d231725	0.039816994
41	0xbe4cb901	-0.19992448
42	0xbe1c44e9	-0.15260662
43	0xbc6be960	-0.014398903
44	0x3e94015e	0.28907293
45	0xbec850af	-0.39124057
46	0xbe3029e4	-0.1720348
47	0xbdd374f4	-0.103250414
48	0xbeeb78e2	-0.45990664
49	0xbda7d459	-0.08194799
50	0x3ec58f85	0.3858606
51	0xbeaa4e28	-0.33262753
52	0x3d0857c8	0.03328684
53	0xbcb50a2d	-0.022099579
54	0x3e43e645	0.1913081
55	0xbe64e757	-0.22353874
56	0x3d1d6dd5	0.038434822
57	0xbc7db051	-0.015483932
58	0x3e3435b8	0.17598617
59	0xbe502f00	-0.20330429
60	0xbd9a84b3	-0.075448416
61	0x39b7271c	0.0003493362
62	0xbd5a2a88	-0.053263217
63	0xbdb803a4	-0.089850694
64	0x3e7fe27d	0.24988742
65	0x3e93b9e3	0.28852758
66	0xbcf48580	-0.029848814
67	0xbd8a4158	-0.067507446
68	0xbc276b53	-0.010218459
69	0xbd05968a	-0.03261427
70	0x3db282a3	0.08716323
71	0xbde04150	-0.10949957
72	0xbe8c3608	-0.27384973
73	0xbde3e10a	-0.11126907
74	0x3ee59fd8	0.44848514
75	0x3b8c7e10	0.0042874888
76	0xbc75b3a0	-0.014996439
77	0xbe3a254e	-0.18178293
78	0xbe3ce4b4	-0.18446618
79	0xbe8a486f	-0.27008387
80	0xbf82abc2	-1.0208666
81	0x3e07b37c	0.13252062
82	0x3ed60943	0.4180394
83	0x3c9e6a74	0.01933787
84	0xbe887533	-0.26651916
85	0xbe39ab52	-0.1813176
86	0xbdb76ca3	-0.08956268
87	0x3cd25d41	0.025679233
88	0x3c38f38f	0.011288538
89	0xbdd65769	-0.10465891
90	0x3d839319	0.06424541
91	0xbe185700	-0.14876938
92	0xbf4de6d0	-0.80430317
93	0x3dfc079f	0.12306141
94	0xbe0c635a	-0.13709775
95	0xbd779314	-0.060443
96	0xbf952921	-1.1653177
97	0x3e1e9384	0.1548596
98	0x3eaebe5a	0.34129602
99	0x3c022a6a	0.007944683
100	0xbe574821	-0.21023609
101	0xbe985b90	-0.29757357
102	0xbf58885e	-0.8458308
103	0x3d77d603	0.06050683
104	0x3db744a2	0.089486375
105	0x3e80a440	0.25125313
106	0x3ebd8205	0.3701326
107	0xbda84fbc	-0.08218333
108	0xbb418080	-0.0029526055
109	0xbe6acdef	-0.2293012
110	0xbe844360	-0.25832653
111	0xbe9064b1	-0.2820182
112	0x3ccdc047	0.025116099
113	0xbe7a330d	-0.24433537
114	0xbd788b88	-0.060679942
115	0xbe31af96	-0.17352137
116	0xbd610b5c	-0.054942474
117	0xbe594eae	-0.2122142
118	0xbee55117	-0.4478843
119	0xbddcd1ce	-0.107822046
120	0xbea9c0d6	-0.33154935
121	0xbc158664	-0.0091262795
122	0xbdc61910	-0.09672749
123	0xbe627cb5	-0.22117884
124	0xbd59e680	-0.053198338
125	0xbe15aa24	-0.14615685
126	0xbdbceae0	-0.09224486
127	0xbe92f694	-0.2870375

convs.1.bias f4 [64]
0	0x3e12d272	0.14338091
1	0xbd88d52c	-0.06681284
2	0x3e02df9e	0.12780616
3	0xbe021ba5	-0.12705858
4	0x3a73587a	0.00092828984
5	0x3b8e5cf4	0.004344577
6	0xbe050e09	-0.12993635
7	0x3dab1ef8	0.08355516
8	0x3dc66a2d	0.0968822
9	0xbdfbf79b	-0.12303086
10	0xbd8e1966	-0.06938438
11	0xbd7d9ff2	-0.061920114
12	0xbdd1ce30	-0.10244405
13	0x3e896df3	0.26841697
14	0xbd77627d	-0.06039666
15	0xbdbc71af	-0.09201371
16	0xbc97dbcf	-0.01853743
17	0xbdb2b224	-0.08725384
18	0x3eb943d8	0.36184573
19	0xbdb787e2	-0.089614645
20	0x3cfd5199	0.030922698
21	0xbd008185	-0.03137352
22	0x3d31e575	0.043431718
23	0x3e72802b	0.23681705
24	0xbd8e845d	-0.0695884
25	0xbdc344ee	-0.09534632
26	0x3d667d47	0.056271818
27	0xbda28a2e	-0.07936512
28	0xbda9fd16	-0.083002254
29	0x3e3f7add	0.18699212
30	0xbdfc2cc2	-0.123132244
31	0x3dc513e9	0.09622938
32	0x3df65672	0.12028207
33	0x3bb5aeeb	0.0055445335
34	0xbd8df72d	-0.06931911
35	0x3de49dcc	0.1116291
36	0xbdaa5a32	-0.08317985
37	0xbddde428	-0.10834533
38	0x3e46068e	0.19338438
39	0xbd86d5e2	-0.06583764
40	0x3da308ad	0.07960639
41	0x3e47828d	0.19483395
42	0xbd0b90f7	-0.034073796
43	0xbd098d67	-0.033582117
44	0xbce8a540	-0.02839911
45	0xbde6acde	-0.112634405
46	0x3e32a4bb	0.17445652
47	0xbd77bc3d	-0.060482252
48	0x3d6ccae5	0.057810683
49	0x3e1d8d41	0.15385915
50	0xbd80c648	-0.06287819
51	0xbdfbfb64	-0.12303808
52	0xbdaa0755	-0.0830218
53	0xbd8263d9	-0.06366701
54	0xbdc7142f	-0.097206466
55	0xbd9ae99a	-0.07564087
56	0xbdd8c6e0	-0.105848074
57	0xbdc0ea8a	-0.09419735
58	0xbdebcd5c	-0.115137786
59	0xbcb3bdd4	-0.021941103
60	0xbd23c3cd	-0.039981652
61	0xbda55d80	-0.08074474
62	0xbd31158d	-0.043233443
63	0x3d69d75e	0.057090156

convs.1.lin.weight f4 [64, 64]
0	0xbeacc46f	-0.33743617
1	0xbebaaa4e	-0.36458057
2	0x3d65da3d	0.05611633
3	0xbe20d266	-0.1570526
4	0x3db39e86	0.0877047
5	0x3e08e652	0.1336911
6	0xbe24e4f3	-0.16102962
7	0xbe9be7b6	-0.3045022
8	0xbdfc5ab2	-0.12321986
9	0xbf467b24	-0.7753165
10	0xbc043401	-0.008069039
11	0x3c849d48	0.016188279
12	0xbac82780	-0.0015270561
13	0xbe889fe4	-0.26684487
14	0x3dd02ab1	0.10164393
15	0xbea50161	-0.32227615
16	0xbf35763e	-0.7088355
17	0xbd6ab1bc	-0.057298407
18	0xbe15f3cf	-0.14643787
19	0xbd672c6c	-0.05643885
20	0xbe768358	-0.24073541
21	0x3d1af3dc	0.03783022
22	0xbe59e534	-0.2127884
23	0x3dab7e66	0.08373718
24	0x3e62514a	0.22101322
25	0xbee9f613	-0.45695552
26	0xbee7256c	-0.45145738
27	0xbec3998f	-0.38203093
28	0xbe1cfe9b	-0.153315
29	0x3e60ef88	0.21966374
30	0xbde45af6	-0.11150162
31	0x3e05ed1d	0.13078733
32	0xbf59dec5	-0.85105544
33	0xbe485116	-0.19562182
34	0xbc40f3b0	-0.01177685
35	0xbe21dcb4	-0.15806848
36	0xbd19c39c	-0.037540063
37	0xbeedd257	-0.4644954
38	0xbcbec568	-0.02328749
39	0xbe19f9b5	-0.15036662
40	0x3dda4b44	0.10658887
41	0xbf85572e	-1.041723
42	0xbd9847a8	-0.07435542
43	0x3bea50a9	0.0071507287
44	0x3e43f5dd	0.19136758
45	0x3e497d10	0.19676614
46	0xbd9790d3	-0.0740067
47	0x3d93f676	0.07224743
48	0xbd404800	-0.046943665
49	0xbde9f9a5	-0.11424569
50	0xbd89ec8c	-0.06734571
51	0x3dabf26e	0.08395849
52	0xbf01d358	-0.5071311
53	0xbed73a0a	-0.42036468
54	0x3de5141a	0.11185475
55	0x3e2cc883	0.16873364
56	0x3d977a06	0.07396321
57	0x3e4a8c7d	0.19780155
58	0xbe517742	-0.2045565
59	0x3c0ef0e5	0.008724426
60	0x3dc0f626	0.09421949
61	0x3d6366cc	0.055517957
62	0x3dd0d0ea	0.10196097
63	0xbe131dc4	-0.14366823
64	0x3ea1889d	0.3154954
65	0xbed50fe5	-0.4161369
66	0x3da94307	0.082647376
67	0xbc713dd0	-0.01472421
68	0xbe5762b1	-0.21033742
69	0xbe77ae29	-0.2418753
70	0xbdc52f4e	-0.09628163
71	0x3e9d3abf	0.30708882
72	0x3d03b946	0.032159112
73	0xbe7b7fae	-0.24560425
74	0x3e0fed41	0.14055349
75	0xbe413d72	-0.18871096
76	0xbe516316	-0.20447955
77	0xbe929414	-0.286286
78	0xbe89bc6e	-0.26901573
79	0x3e9f1546	0.31070918
80	0xbea51427	-0.32241938
81	0xbd6f63a4	-0.058444634
82	0xbe528228	-0.20557463
83	0xbbfe3c50	-0.0077586547
84	0xbd7cf819	-0.061760042
85	0xbe16eead	-0.14739485
86	0x3d97b3f3	0.074073695
87	0x3e3ae00d	0.18249531
88	0xbe907ef7	-0.28221866
89	0x3e028ac2	0.12748244
90	0xbd2882e9	-0.04114047
91	0x3d86b22c	0.06576952
92	0xbccf0837	-0.025272472
93	0xbc3f2fda	-0.011669124
94	0x3e3430ef	0.17596792
95	0x3e0867ef	0.13320898
96	0xbdd17640	-0.102276325
97	0xbe06eb7a	-0.13175765
98	0xbe5ba9b0	-0.2145145
99	0x3b0d2cb3	0.0021541535
100	0xbe26c2fe	-0.16285321
101	0xbec6d877	-0.38837025
102	0xbe0e1aa0	-0.13877344
103	0xbe5b30e6	-0.21405372
104	0xbdac7702	-0.084211364
105	0xbcc18022	-0.023620669
106	0x3df7adf6	0.12093727
107	0x3e117b5f	0.14207219
108	0xbdd7165e	-0.10502313
109	0xbd9ffe5e	-0.078121886
110	0xbdcba601	-0.09943772
111	0x3b8a8f20	0.0042284876
112	0xbe4f9468	-0.20271456
113	0xbddfa3bf	-0.10919904
114	0xbe0e16c0	-0.13875866
115	0x3d70a6c8	0.058752805
116	0x3e99ff4a	0.30077583
117	0xbe7228af	-0.23648332
118	0x3e21b837	0.15792929
119	0xbe1de607	-0.1541978
120	0x3cee18b1	0.029064508
121	0xbe08e582	-0.133688
122	0xbcc4c710	-0.024020702
123	0xbc93ce43	-0.01804269
124	0xbe261808	-0.16220105
125	0xbe5626c5	-0.20913227
126	0xbda46952	-0.08027901
127	0x3ced8538	0.028994188
128	0xbe8c04db	-0.27347454
129	0xbf52d295	-0.8235257
130	0x3dd7749d	0.10520289
131	0x3e2463b7	0.16053663
132	0xbe05aa2a	-0.13053194
133	0x3c9b7a31	0.018979164
134	0x3ea976fe	0.33098596
135	0xbc3dbbdf	-0.0115804365
136	0xbe64a520	-0.22328615
137	0x3d0f8aba	0.03504441
138	0x3aaa8a01	0.0013011099
139	0x3d7392cc	0.05946617
140	0xbdb86464	-0.09003523
141	0xbd02a350	-0.03189403
142	0x3d04c65a	0.032415725
143	0xbe83906f	-0.25696132
144	0xbf6b9237	-0.9201998
145	0xbe531a4b	-0.20615499
146	0xbdc39485	-0.09549812
147	0x3cbae2ea	0.02281328
148	0xbe3fe17e	-0.18738362
149	0xbc890198	-0.016724393
150	0x3d75ae53	0.0599807
151	0xbd7d1bcc	-0.061794087
152	0xbdee71e3	-0.11642816
153	0xbe339554	-0.17537433
154	0xbe23e5ce	-0.16005632
155	0xbd1fed03	-0.03904439
156	0xbdd84efe	-0.105619416
157	0x3dd400a0	0.10351682
158	0xbd356da3	-0.04429401
159	0xbce1d090	-0.02756527
160	0xbe0b08a7	-0.1357752
161	0x3df7b38a	0.12094791
162	0xbe09b6b8	-0.13448608
163	0xbedf1008	-0.43566918
164	0xbe205e4b	-0.1566097
165	0xbf519a3f	-0.81875986
166	0xbdd7e143	-0.10541012
167	0x3e2f1aa5	0.17100008
168	0xbd71ffa1	-0.059081677
169	0xbf437fae	-0.763667
170	0xbe34bb92	-0.17649677
171	0xbd4a67e9	-0.049415503
172	0xbc831c8e	-0.016004827
173	0xbe09e9e5	-0.1346813
174	0xbdad4110	-0.08459675
175	0x3d95d802	0.07316591
176	0xbd402c1b	-0.046917062
177	0xbe03f3f7	-0.12886034
178	0x3d4b7e84	0.0496812
179	0x3ceae82b	0.02867516
180	0xbddbaec7	-0.107266955
181	0xbece0049	-0.40234593
182	0x3e25f155	0.16205342
183	0x3dd3f81a	0.10350056
184	0x3e4a2e3d	0.19744201
185	0xbe14797d	-0.14499469
186	0xbe147bfa	-0.14500418
187	0xbc3d3150	-0.011547402
188	0x3cfbb1e2	0.03072447
189	0x3e48127f	0.19538306
190	0xbce6ed38	-0.028189287
191	0xbd230578	-0.039800137
192	0x3d728ab2	0.0592143
193	0xbd8333ae	-0.064063415
194	0x3cf0d612	0.029398952
195	0xbde22b47	-0.11043411
196	0xbd917b68	-0.07103616
197	0x3cdde2d6	0.027085703
198	0x3e4c8c30	0.19975352
199	0xbe9bd8ed	-0.3043894
200	0xbdfc11ec	-0.12308106
201	0x3e5190ae	0.20465347
202	0x3e060909	0.13089384
203	0x3e316732	0.17324522
204	0xbd96325e	-0.073338255
205	0xbe177909	-0.14792265
206	0xbe2a78b7	-0.16647612
207	0xbdf88ad3	-0.121358536
208	0xbe7a9670	-0.2447145
209	0x3ddbbcea	0.10729392
210	0x3d4e4f93	0.050368857
211	0xbe9653bc	-0.2936076
212	0x3e4926a7	0.19643651
213	0x3d7c7954	0.061639145
214	0xbda62199	-0.08111877
215	0xbdbad480	-0.091225624
216	0x3dcde6c7	0.10053783
217	0xbe380abe	-0.17972848
218	0x3e22857c	0.15871233
219	0xbd78588a	-0.060631312
220	0x3dc1c952	0.09462227
221	0x3d476643	0.04868151
222	0x3e0f4786	0.13992128
223	0xbe39ef7d	-0.18157764
224	0xbb8fad0b	-0.004384642
225	0xbd6f5d4c	-0.058438584
226	0xbe1103e4	-0.1416164
227	0xbe2b15c6	-0.16707525
228	0xbd78d7e8	-0.06075278
229	0x3cfc72aa	0.030816395
230	0x3e1d5da3	0.15367751
231	0xbd11ba20	-0.035577893
232	0x3dc4e001	0.09613038
233	0xbded6edd	-0.11593411
234	0xbde44580	-0.111460686
235	0xbd72cd48	-0.059277803
236	0xbd4aa6e2	-0.049475558
237	0x3db618a4	0.088914186
238	0x3cf499ee	0.029858556
239	0x3d97d146	0.074129626
240	0xbea9178f	-0.33025786
241	0xbde9f92f	-0.11424481
242	0xbd302d78	-0.043012112
243	0xbedf08ed	-0.43561497
244	0x3d35d2cd	0.04439049
245	0x3e66aa42	0.22525886
246	0x3ddc37fe	0.10752867
247	0xbb8c7b00	-0.0042871237
248	0x3d27959c	0.040914163
249	0xbdcfa4cd	-0.10138855
250	0xbcc509a8	-0.024052456
251	0x3e00b52e	0.12569115
252	0xbe329812	-0.17440823
253	0x3d0de07c	0.034637913
254	0xbe22aafb	-0.15885536
255	0xbd728230	-0.059206188

proj.weight f4 [64, 64]
0	0x3d30bdab	0.04314963
1	0xbd3083ff	-0.04309463
2	0x3db8666d	0.09003911
3	0x3e294d08	0.16533291
4	0xbeaab23a	-0.333391
5	0xbd80b046	-0.062836215
6	0xbd8c5472	-0.06852044
7	0xbd8b8be8	-0.068137944
8	0x3d879272	0.06619729
9	0xbd06d79c	-0.032920465
10	0x3c921b4d	0.017835284
11	0xbd94825e	-0.07251428
12	0x3bf18d13	0.0073715537
13	0xbcfc9738	-0.030833825
14	0x3cdab955	0.026699701
15	0xbd9889d0	-0.07448161
16	0x3d761539	0.060078833
17	0xbe746a89	-0.23868765
18	0xbf0773a9	-0.5291086
19	0xbd76bb17	-0.060237017
20	0x3e58573d	0.21127029
21	0x3dbc241a	0.09186573
22	0xbcb09d82	-0.02155948
23	0x3d164fce	0.0366972
24	0x3d2f2804	0.04276277
25	0x3d3dd2a6	0.046343468
26	0x3ecd8d80	0.40147018
27	0xbd808a46	-0.062763736
28	0x3e024585	0.12721832
29	0xbe0ebd0d	-0.13939305
30	0x3eb4ede2	0.3533774
31	0xbe09b6ec	-0.13448685
32	0xbd074157	-0.033021297
33	0x3df298b0	0.11845529
34	0xbd11e6b9	-0.035620425
35	0x3cd28e48	0.02570261
36	0x3cd0ba50	0.025479466
37	0xbe203a5b	-0.15647261
38	0xbdad6b7d	-0.084677674
39	0xbc820c28	-0.015874937
40	0xbe98df1a	-0.29857713
41	0x3eb54953	0.35407504
42	0xbe008682	-0.1255131
43	0xbddce17c	-0.10785195
44	0xbd6c3697	-0.05766925
45	0xbcfff0de	-0.031242784
46	0x3b3dcebe	0.002896234
47	0x3d0629e6	0.0327548
48	0x3c080703	0.008302453
49	0xbbb513a0	-0.005526021
50	0xbbb09166	-0.0053884266
51	0x3c980279	0.018555867
52	0x3e06b5a2	0.13155225
53	0x3dd76c5f	0.10518717
54	0x3e6e04db	0.2324404
55	0xbd041a67	-0.03225174
56	0x3e151978	0.14560497
57	0x3e2410ad	0.16021986
58	0xbdcc317c	-0.09970376
59	0x3e82bd85	0.25535217
60	0x3e278169	0.1635796
61	0x3cd82a59	0.02638738
62	0x3e908f55	0.28234354
63	0xbcbd5e13	-0.023116147
64	0xbe2befe3	-0.16790728
65	0x3da4dd72	0.0805005
66	0xbdb3c51d	-0.08777831
67	0x3d7b7071	0.06138653
68	0x3e091f27	0.1339079
69	0x3ece1c45	0.40255943
70	0xbc87d1f7	-0.016579611
71	0xbcc4132c	-0.023934923
72	0xbdc84717	-0.09779184
73	0x3d8caa91	0.068684705
74	0xbdb38087	-0.08764749
75	0xbd6508d0	-0.055916607
76	0xbd1d00ee	-0.038330965
77	0xbe923c7e	-0.28561777
78	0xbd1489e8	-0.03626433
79	0xbd01c32b	-0.031680267
80	0x3df4d8eb	0.11955436
81	0x3ddecbcb	0.10878714
82	0xbc0ef187	-0.008724577
83	0xbd828108	-0.06372267
84	0x3d95eb45	0.07320265
85	0x3dbeac82	0.09310247
86	0x3eedeb59	0.4646862
87	0x3e99642f	0.29959247
88	0xbcd9a025	-0.02656562
89	0xbd9ac3ee	-0.07556902
90	0x3cd3eb63	0.025869077
91	0xbdb9f65c	-0.090801924
92	0xbcb32671	-0.021868916
93	0x3cd97ad9	0.026547836
94	0x3cb13906	0.021633636
95	0xbd74da07	-0.05977824
96	0x3e0f8c67	0.14018403
97	0xbe10c153	-0.14136247
98	0xbd0e1051	-0.03468353
99	0xbe3004d1	-0.17189337
100	0xbdaaf515	-0.08347527
101	0x3ae03e51	0.0017108415
102	0x3e29b119	0.16571464
103	0xbd28a2d4	-0.04117091
104	0x3e6f7211	0.23383357
105	0xbdd3b8b9	-0.103379674
106	0xbcdd7073	-0.027031159
107	0x3cdab46c	0.02669736
108	0x3b38fa1b	0.0028225246
109	0x3db533bd	0.08847759
110	0x3d7e9891	0.062157217
111	0x3d69d5d3	0.057088684
112	0xbd1dfcb4	-0.038571075
113	0xbde39f42	-0.111143604
114	0x3da0e384	0.07855895
115	0xbbc9c14f	-0.0061570774
116	0x3db9f52e	0.090799674
117	0x3c7faa68	0.015604593
118	0x3e5b36ff	0.21407698
119	0xbe179255	-0.14801915
120	0xbc8dc956	-0.017307919
121	0x3e0d9d10	0.13829446
122	0xbb9146d8	-0.004433494
123	0xbd985d0a	-0.07439621
124	0x3d244696	0.04010638
125	0xbdc17954	-0.0944697
126	0x3d86c7c4	0.06581071
127	0x3e51e6d8	0.20498216
128	0x3eb8320c	0.35975683
129	0xbe3e0c66	-0.18559417
130	0x3d4c8b7a	0.049937703
131	0x3da3b859	0.07994146
132	0xbc951321	-0.018197598
133	0xbc3dcf01	-0.011584998
134	0xbdb66cfc	-0.08907506
135	0x3dc2d964	0.0951412
136	0x3ee7d683	0.45280847
137	0xbe0e23ab	-0.13880794
138	0xbd89cc28	-0.06728393
139	0x3da3856c	0.079844326
140	0xbd1f73e4	-0.03892888
141	0x3ccd2f7d	0.025047058
142	0x3d2b19b0	0.041772544
143	0xbc8983f2	-0.01678655
144	0x3d94bf7b	0.072630845
145	0xbd229662	-0.039694197
146	0x3e8f7abf	0.28023335
147	0x3dbd75ac	0.0925096
148	0xbd99571b	-0.07487317
149	0xbd3b58b4	-0.04573889
150	0x3dd56f31	0.10421599
151	0xbe12e1a8	-0.14343894
152	0x3dae3bf1	0.08507527
153	0xbda37e73	-0.07983103
154	0xbe2a10c0	-0.16607952
155	0x3dd65841	0.10466052
156	0xbd230045	-0.03979518
157	0xbed97e6c	-0.42479265
158	0xbf3249a7	-0.69643635
159	0xbda05569	-0.07828791
160	0xbdfe5508	-0.12418562
161	0x3c0b63d9	0.008507692
162	0xbd8dcfc9	-0.069243975
163	0x3e9ca433	0.30594024
164	0xbe068e62	-0.13140252
165	0xbd1b79f7	-0.03795811
166	0xbeaab586	-0.33341616
167	0xbe0a2e50	-0.1349423
168	0x3d594d95	0.053052504
169	0xbedcd5af	-0.43131778
170	0xbce040ec	-0.027374707
171	0x3c9f4e69	0.019446569
172	0x3df0e209	0.11761863
173	0x3e3ca5d5	0.18422635
174	0xbe56ebcd	-0.20988388
175	0x3ddb82a1	0.10718275
176	0xbd163592	-0.036672182
177	0x3e050187	0.12988864
178	0xbdddd1d1	-0.10831035
179	0x3ca3a0a9	0.01997407
180	0x3d597eba	0.05309937
181	0xbd047551	-0.032338444
182	0xbea9c3be	-0.33157152
183	0x3e74da4c	0.23911399
184	0x3e0ef5ca	0.13960949
185	0xbe866712	-0.2625051
186	0xbe332a43	-0.1749659
187	0xbe9bdd33	-0.304422
188	0xbd812301	-0.063055046
189	0xbd28e45f	-0.041233417
190	0xbea29dce	-0.3176102
191	0xbe2e1727	-0.1700102
192	0x3e37292c	0.178868
193	0x3d93657e	0.071970925
194	0xbe27d237	-0.16388784
195	0xbd08e2c8	-0.0334194
196	0xbc9b98ae	-0.018993702
197	0xbe5faf64	-0.2184425
198	0xbe45bcf5	-0.19310363
199	0xbd5231f1	-0.05131716
200	0x3ce918c7	0.028454198
201	0xbdffbd76	-0.12487309
202	0xbd250c8a	-0.04029516
203	0xbdd060c3	-0.10174706
204	0x3cab4518	0.02090697
205	0xbd2318c5	-0.039818544
206	0x3d489f71	0.04898018
207	0x3daefedc	0.08544704
208	0xbdb96e24	-0.09054211
209	0xbdd0e57f	-0.10200023
210	0x3db3929a	0.087681964
211	0xbe2a089e	-0.1660485
212	0x3deac425	0.11463193
213	0xbd37fbd6	-0.044917904
214	0xbdaad5ea	-0.08341582
215	0x3e1cdb78	0.15318096
216	0x3d028a37	0.031870093
217	0xbd8c66d6	-0.06855552
218	0x3e75ad16	0.23991808
219	0xbd51dc35	-0.051235396
220	0x3d5b7b84	0.05358459
221	0x3e32eafe	0.17472455
222	0x3e8c0e72	0.2735477
223	0xbe32dd8a	-0.17467323
224	0xbe84973a	-0.25896627
225	0xbdb9184e	-0.09037839
226	0xbe06a77c	-0.13149828
227	0x3d90bfda	0.07067843
228	0xbd8d0667	-0.06885987
229	0x3daba8f0	0.08381832
230	0x3e2cfcc8	0.16893303
231	0x3ce54649	0.027987616
232	0xbe017f44	-0.12646204
233	0x3e6e06d0	0.23244786
234	0xbdd610da	-0.10452433
235	0xbebad1c7	-0.36488172
236	0xbdd2c3f3	-0.102912806
237	0x3d9fd59d	0.078044154
238	0xbd8f1779	-0.06986899
239	0xbe293c4f	-0.16526912
240	0xba818cf2	-0.0009883924
241	0xbd10af8d	-0.03532367
242	0xbd847298	-0.064671695
243	0x3d81687f	0.06318759
244	0x3dc41a8a	0.095753744
245	0x3c2f3f07	0.010696179
246	0x3e168305	0.14698417
247	0x3d73efa9	0.05955473
248	0xbc8eadbe	-0.017416831
249	0x3e439421	0.19099475
250	0x3b8b1e93	0.004245588
251	0x3d9609de	0.07326101
252	0xbdc959ae	-0.09831558
253	0xbe0ba7a5	-0.1363817
254	0x3d8decf8	0.06929964
255	0xbe3540fa	-0.17700568

proj.bias f4 [64]
0	0x3c8da4c2	0.017290477
1	0x3dc4e9b7	0.0961489
2	0x3cffbc5f	0.031217752
3	0xba3689d4	-0.0006963287
4	0xbb6e4336	-0.0036355979
5	0xbcb2bd35	-0.021818737
6	0xbde23e6e	-0.11047064
7	0xbc5a4f52	-0.0133245755
8	0xbcf9dc83	-0.030500656
9	0xbd8ad5c2	-0.06779052
10	0xba30cd62	-0.00067444716
11	0xbd8a5280	-0.06754017
12	0x3e0dffe7	0.1386715
13	0x3e474210	0.19458795
14	0x3b2bf8d4	0.0026240842
15	0xbc8262d3	-0.015916264
16	0x3d09c2cd	0.033633042
17	0x3c62bf59	0.013839566
18	0xbeb2ccbc	-0.34921825
19	0xbca603f4	-0.020265557
20	0xbe5dea54	-0.2167142
21	0x3d1ae08e	0.03781181
22	0x3d44fc02	0.048091896
23	0x3cf4c8e7	0.029880954
24	0xbcc885f8	-0.024477944
25	0x3dcf5e93	0.101254605
26	0x3c90679e	0.017627534
27	0xbdab9191	-0.08377374
28	0xbcc40378	-0.023927435
29	0xbd3525f1	-0.044225637
30	0x3e5179cc	0.20456618
31	0xbd1e8ed8	-0.038710445
32	0xbcbf4d5d	-0.02335232
33	0x3d51893f	0.05115628
34	0x3aecb81a	0.0018060238
35	0xbd46e8bb	-0.048561793
36	0x3c361430	0.0111132115
37	0x3c48853f	0.0122388
38	0xbcd67681	-0.026179554
39	0x3da2d4d6	0.079507515
40	0x3d011b64	0.031520262
41	0x3bcfa8e0	0.00633727
42	0x3c0ebb27	0.008711613
43	0x3cb6bc89	0.022306697
44	0xbd0ca4cd	-0.034336854
45	0x3d585569	0.05281583
46	0xbc2991d0	-0.010349706
47	0xbda74489	-0.08167369
48	0xbbd11eda	-0.0063818516
49	0x3be9fa50	0.0071404353
50	0xbdc5a1dc	-0.09650013
51	0x3d9092cb	0.070592485
52	0x3d2ca8af	0.042153057
53	0xbd8cbb2f	-0.0687164
54	0x3d0aafb8	0.033858985
55	0x3cb05abd	0.021527642
56	0x3c918259	0.01776235
57	0xbd800cdc	-0.06252453
58	0x3c847270	0.01616785
59	0xbc716736	-0.01473408
60	0xbdeefd1f	-0.11669373
61	0xbc9d27cb	-0.019184014
62	0x3cc60f2c	0.024177156
63	0x3dc4415f	0.09582781

scorer.bilin.weight f4 [1, 64, 64]
0	0x3dd002dd	0.10156796
1	0x3ca73b58	0.02041404
2	0x3cb8d25d	0.022561247
3	0xbe4c5ccc	-0.19957274
4	0x3d5f8c5c	0.054577217
5	0xbe15ba52	-0.14621857
6	0xbdcac9fb	-0.09901806
7	0xbc20eadd	-0.009821621
8	0x3d8ccbdb	0.0687482
9	0x3dd5cd6f	0.10439574
10	0xbe80900f	-0.25109908
11	0xbdf32e4f	-0.11874067
12	0x3b94f331	0.0045455922
13	0xbdc26ede	-0.094938025
14	0xbd6f1e35	-0.058378417
15	0x3ce88d0c	0.028387569
16	0x3c66b20d	0.014080537
17	0xbe8b5a57	-0.2721736
18	0x3e045415	0.129227
19	0xbdd2b826	-0.1028903
20	0x3c883ea9	0.016631441
21	0x3c86d1bd	0.016457433
22	0x3e1d9a13	0.15390806
23	0xbe1cfa81	-0.15329935
24	0xbe1e8819	-0.15481605
25	0x3debb84a	0.1150976
26	0xbd35afc6	-0.044357084
27	0x3de35fd4	0.11102262
28	0x3d83d857	0.06437748
29	0xbb2dde7c	-0.0026530316
30	0xbd0331b9	-0.03202984
31	0xbe2a8960	-0.16653967
32	0xbd7116c7	-0.058859613
33	0xbe1998e9	-0.14999737
34	0x3e4b65cb	0.1986305
35	0xbd0b65bc	-0.03403257
36	0x3e65c61b	0.22438852
37	0x3e1d8dcb	0.15386121
38	0xbdb09779	-0.08622641
39	0xbe1d9e8e	-0.15392515
40	0x3e0d1f86	0.13781556
41	0xbd05672d	-0.0325691
42	0x3e2a6b04	0.16642386
43	0xbe046483	-0.12928967
44	0xbdbec759	-0.09315366
45	0x3e65cf48	0.22442353
46	0x3b7e405e	0.003879569
47	0xbdaa336c	-0.08310589
48	0xbc37716b	-0.011196475
49	0xbdf88cb2	-0.121362105
50	0x3c65add1	0.014018492
51	0x3e1703d1	0.1474755
52	0x3db84d9c	0.08999178
53	0xbe03679d	-0.12832494
54	0x3e1707fb	0.14749138
55	0x3de6bf90	0.112670064
56	0xbd19bc9f	-0.0375334
57	0xbd8457b1	-0.06462038
58	0x3c9be920	0.019032061
59	0x3e293c2e	0.16526863
60	0xbdc4369b	-0.09580728
61	0xbe08e6e1	-0.13369323
62	0x3d538517	0.051640596
63	0xbd8abfe3	-0.06774881
64	0xbe3b81f5	-0.18311293
65	0xbda123bf	-0.07868146
66	0x3c8be43d	0.017076606
67	0xbe0663f1	-0.13124062
68	0x3e01dc64	0.12681729
69	0x3d0319fa	0.032007195
70	0x3d7b51c8	0.06135729
71	0xbd12e0c9	-0.035858903
72	0xbb0692b4	-0.002053422
73	0x3e80b5f2	0.25138813
74	0xbda0241e	-0.07819389
75	0xbb5d7fd4	-0.0033798115
76	0x3d99ff44	0.07519391
77	0x3e9ce4dc	0.30643356
78	0xbe1881dd	-0.14893289
79	0xbe04a998	-0.1295532
80	0x3e27ac6b	0.16374366
81	0xbdaba173	-0.08380403
82	0x3ec903ab	0.3926061
83	0xbdc374ff	-0.095437996
84	0xbe78717b	-0.2426204
85	0xbdb0d30c	-0.08634004
86	0x3b1a4e23	0.0023545108
87	0x3bb2820e	0.0054476326
88	0x3d917efa	0.07104297
89	0x3dfe755c	0.12424728
90	0x3e24352b	0.16035907
91	0x3d3237b0	0.04351014
92	0x3d572eb3	0.05253477
93	0x3da0b6e6	0.07847385
94	0x3e1e4e44	0.15459543
95	0x3d584424	0.05279936
96	0x3d056484	0.032566562
97	0x3c6b94a4	0.0143787
98	0x3b80004a	0.0039062845
99	0xbc8a045e	-0.016847786
100	0xbce7dbac	-0.02830299
101	0xbcb6ba44	-0.022305615
102	0xbd4aa0ad	-0.04946964
103	0x3c3fe7b1	0.011712954
104	0xbe5914e9	-0.21199383
105	0xbd509d41	-0.05093122
106	0xbdd1d810	-0.10246289
107	0x3e7902fb	0.24317543
108	0x3d34eb5a	0.04416976
109	0x3d07de2a	0.033170857
110	0x3d5e4adb	0.054270606
111	0x3c6260cd	0.013817024
112	0x3d82a530	0.06379163
113	0x3ba8f210	0.005155809
114	0xbe109c31	-0.14122082
115	0x3e5e69fb	0.21720116
116	0x3d72e1aa	0.05929724
117	0x3dca9633	0.098919295
118	0xbe0a5e3a	-0.13512507
119	0xbdaad4d8	-0.08341378
120	0x3e3e8e6d	0.18609019
121	0x3dd4558f	0.103678815
122	0xbda6c2a2	-0.08142592
123	0xbe7e5f74	-0.248411
124	0x3e98f3d1	0.29873517
125	0x3da17b88	0.0788489
126	0x3d84f82d	0.06492648
127	0x3d67b266	0.05656662
128	0x3ebeddbb	0.37278542
129	0x3e023c00	0.127182
130	0x3d849b77	0.06474965
131	0x3d80de3d	0.062923886
132	0x3e5f97e7	0.2183529
133	0xbe041cc8	-0.12901604
134	0xbcde4dec	-0.027136765
135	0x3db1c300	0.086797714
136	0x3d982210	0.07428372
137	0xbddfe3e1	-0.10932136
138	0x3dbdfb18	0.09276408
139	0xbd16dc6e	-0.036831312
140	0x3dc261e5	0.09491328
141	0x3e80f9f2	0.25190693
142	0xbe6da7fd	-0.23208614
143	0x3dcbc1c2	0.09949066
144	0x3da44fdc	0.080230445
145	0x3e5119bc	0.20419973
146	0x3dd300db	0.103028975
147	0x3a93dfa0	0.0011281855
148	0xbaf7129a	-0.0018850148
149	0x3df7824d	0.120854
150	0x3e7a5fe2	0.24450639
151	0x3e3d90d3	0.18512277
152	0x3e0b625f	0.13611744
153	0x3d309253	0.043108296
154	0xbea3d2e9	-0.3199685
155	0x3e5edb4f	0.21763347
156	0xbc45f8b5	-0.012083222
157	0x3cf6bffe	0.030120846
158	0x3e32b620	0.17452288
159	0xbe739f13	-0.23791151
160	0x3e0c57a0	0.13705301
161	0xbeca273e	-0.39483064
162	0x3cfbdbd6	0.030744474
163	0xbdb723ee	-0.089424
164	0xbdfdfea3	-0.12402084
165	0xbd4514d6	-0.048115574
166	0xbe0e55a3	-0.13899855
167	0xbe87787b	-0.26459107
168	0x3e129791	0.1431563
169	0x3e08ce9d	0.13360067
170	0xbb656d7c	-0.0035007885
171	0x3d59841a	0.053104497
172	0xbd81b3f8	-0.063331544
173	0xbd41105d	-0.047134746
174	0xbd893f26	-0.06701498
175	0xbd96ad80	-0.07357311
176	0xbe1fe5a6	-0.15614948
177	0xbcf76979	-0.03020166
178	0xbe751e94	-0.23937446
179	0x3e6b5710	0.2298243
180	0xbd2f04aa	-0.042729057
181	0x3d3f3d49	0.046689305
182	0x3d5742d3	0.052553963
183	0xbdbed468	-0.09317857
184	0x3dedbf82	0.11608793
185	0xbdc2efd8	-0.09518403
186	0x3d4adc95	0.04952677
187	0x3e971f1e	0.29515928
188	0x3dbb514c	0.091463655
189	0x3d0dfe4c	0.034666345
190	0x3df60125	0.12011937
191	0x3e98ffaa	0.29882556
192	0x3daa3f8d	0.083129026
193	0xbca7d290	-0.020486146
194	0x3de411b6	0.111361906
195	0x3cd04d1e	0.025427397
196	0xbdb1b2bb	-0.08676668
197	0xbe11f52d	-0.14253683
198	0x3c57ec46	0.013178891
199	0x3d3828ab	0.04496066
200	0xbdcdc882	-0.100480095
201	0xbe05b0a2	-0.13055661
202	0xbe35a6fa	-0.17739478
203	0x3d85dad3	0.06535878
204	0xbe40d4c4	-0.18831164
205	0xbe5bafd7	-0.21453796
206	0x3e609661	0.21932365
207	0x3e27b6d3	0.16378336
208	0xbe08fd1d	-0.13377805
209	0x3d83c624	0.06434277
210	0x3d95a046	0.0730596
211	0x3d2d1fe3	0.042266738
212	0x3e2ed4eb	0.1707341
213	0xbe853c1e	-0.26022428
214	0xbe487a65	-0.1957794
215	0xbe0637de	-0.13107249
216	0xbe22b233	-0.1588829
217	0x3d0127e2	0.031532176
218	0xbdc8dda6	-0.09807901
219	0xbe3a4093	-0.18188696
220	0x3da7568f	0.081708066
221	0x3ba75403	0.0051064505
222	0xbc0a8862	-0.008455368
223	0x3e0e39b8	0.13889205
224	0xbe0dc951	-0.13846327
225	0x3dd3a839	0.1033482
226	0x3dc4791e	0.09593414
227	0xbd62d275	-0.05537649
228	0xbd43129c	-0.04762517
229	0x3e4cb3d1	0.1999047
230	0xbcbbae16	-0.02291016
231	0x3e469742	0.19393638
232	0xbcfa2e4f	-0.03053966
233	0xbdd6ab25	-0.10481862
234	0xbea61ade	-0.32442373
235	0xbdf53338	-0.1197266
236	0x3dc80f5c	0.097685546
237	0x3d385165	0.0449995
238	0xbd80de53	-0.06292405
239	0xbc233bb7	-0.009962968
240	0x3d0a3e13	0.033750605
241	0xbce6f957	-0.028195066
242	0xba3cd124	-0.0007202795
243	0x3cb30c3a	0.021856416
244	0x3de076cb	0.10960158
245	0xbe0febee	-0.14054844
246	0x3d227404	0.039661422
247	0x3e1a2b95	0.15055688
248	0xbe97eced	-0.29672948
249	0xbbf1a309	-0.0073741716
250	0xbe55f440	-0.20893955
251	0x3dd82921	0.1055472
252	0x3cf55fab	0.029952845
253	0xbd9ec97c	-0.07753274
254	0x3e4d3b67	0.20042191
255	0xbcffda5a	-0.031232048
