checkpoints/curve70_gat_v2.pt (torch, 109922 bytes, 11 tensors)

convs.0.att_src f4 [1, 4, 64]
-0.16778581 0.23204686 -0.111631416 -0.64786154 0.43982875 0.35280582 -0.24790065 -0.61545557
-0.11335543 -0.7208972 0.25323772 0.75405717 0.57561386 0.26601335 0.23630987 -0.5512098
-0.7707066 -0.1300271 -0.41041782 0.52607113 -0.3893847 -0.04766989 -0.44028372 0.5583776
-0.47646958 0.24647823 0.6471225 0.35332018 -0.63906693 0.21036008 0.7262897 -0.46456555
0.3690457 0.34473097 -0.032916512 -0.6908767 0.39327952 0.48308733 0.07262939 -0.28499836
0.14794642 -0.41930416 0.3250391 -0.30745965 0.6394957 0.15985794 -0.056022536 -0.38548464
-0.24334978 -0.3203994 0.32723826 -0.39977565 0.22641645 -0.56092376 0.121796414 -0.30752784
-0.3956366 -0.7569351 0.18199438 -0.49659684 0.537931 -0.34979397 0.7150797 0.012649078
0.053352766 -0.38027242 0.19107568 0.12855105 -0.0053069987 0.25080442 0.19542272 -0.011440146
0.009272834 -0.1321357 0.105397925 0.2267735 0.08504428 0.43267912 -0.04845205 -0.17792362
-0.2719927 -0.053383872 -0.13358936 0.04533014 0.04623443 0.20302007 -0.398637 -0.03373629
-0.12636952 -0.0062915166 -0.08446081 -0.07119559 -0.36512068 0.20792452 0.34810534 0.18193397
0.0009713416 -0.07354133 -0.21473135 -0.20672047 0.46517134 -0.33329725 0.30151498 0.30220756
-0.075987704 -0.16788533 -0.20861657 0.32775956 0.048924945 -0.10726914 0.30211258 -0.41177118
0.072569795 0.029356007 -0.092725255 -0.47865802 0.18846488 0.11437459 0.12030923 -0.29085058
0.042472307 -0.12999575 -0.061103236 -0.31194142 0.25478214 0.1168872 -0.18340106 0.4287775
0.20536897 1.221395 -0.9967001 -0.07627709 -0.026751326 -0.049864814 -0.46062535 0.2953228
-0.43409133 0.3632973 0.3040301 0.018954305 -0.67960346 -0.11517964 -1.2259874 0.17400745
-0.003929652 -0.053245895 -0.3263524 0.008444068 -0.1864301 -1.0638822 0.7051771 -0.017598992
1.0964426 0.00093127234 0.31705788 -0.20332037 0.058835655 -0.025008274 -0.6407657 -0.14513499
-0.20248808 -0.21424113 -0.76470494 -0.379211 -0.21746631 -0.16845325 -0.5917443 0.28064984
0.8817435 -0.22209035 -0.36236438 -0.22993834 -0.09231123 0.5780391 -0.5156225 0.084027976
-0.2058593 0.01651245 -0.8465139 0.7006707 -0.28207016 -0.8416311 0.022906367 0.19607553
0.42963198 0.7012887 0.6031649 -0.3136793 0.008186493 0.3568202 -0.3647257 0.8035743
0.29831898 0.039356027 0.64676994 0.36935586 -0.30941066 -0.04057946 0.3247281 -0.25307244
0.61613786 -0.014595787 0.0105924755 0.17074758 -0.081246726 -0.37857795 0.7157515 -0.10732872
-0.29539728 0.24804235 0.3244822 -0.13588284 -0.22927307 0.51273376 -0.1048644 0.15731621
-0.24156956 -0.08668761 -0.08408614 -0.19063842 0.2670667 0.38776773 -0.38878217 0.4779904
-0.2469141 -0.13372715 -0.37831524 0.015936982 0.4156746 0.1335062 0.23165178 0.643327
-0.47511783 0.18709598 0.25630876 -0.45939195 -0.081455536 0.49864322 -0.22789784 -0.8384793
0.67575824 0.7224467 -0.07966357 0.33119452 0.25764775 -0.49325442 -0.10042706 0.35995296
-0.25230795 0.7011866 -0.408655 0.06513164 0.08777189 0.29778236 -0.09848914 0.3106026
00000000: 0bd0 2bbe b19d 6d3e 039f e4bd 41da 25bf
00000010: 3c31 e13e f7a2 b43e abd9 7dbe 7f8e 1dbf
00000020: e426 e8bd b88c 38bf 60a8 813e e409 413f
00000030: 6e5b 133f e732 883e 37fb 713e 161c 0dbf
00000040: 074d 45bf d325 05be 4922 d2be 99ac 063f
00000050: 6e5d c7be 8141 43bd de6c e1be d6f1 0e3f
00000060: d2f3 f3be ca64 7c3e d2a9 253f 62e6 b43e
00000070: e499 23bf a268 573e 1fee 393f 89db edbe
00000080: 8ff3 bc3e 9480 b03e 77d3 06bd 4cdd 30bf
00000090: ef5b c93e 3957 f73e b8be 943d 4eeb 91be
000000a0: 447f 173e 09af d6be 866b a63e 5a6b 9dbe
000000b0: fdb5 233f cdb1 233e e377 65bd 3e5e c5be
000000c0: af30 79be 640b a4be c68b a73e 65af ccbe
000000d0: b7d9 673e b398 0fbf 6670 f93d 4a74 9dbe
000000e0: e190 cabe 80c6 41bf bc5c 3a3e f141 febe
000000f0: d9b5 093f 3218 b3be 770f 373f 143e 4f3c
00000100: 6e88 5a3d 11b3 c2be 58a9 433e e3a2 033e
00000110: 55e6 adbb 7069 803e e51c 483e 736f 3bbc
00000120: 16ed 173c 954e 07be deda d73d 5037 683e
00000130: b22b ae3d 1e88 dd3e a875 46bd 9c31 36be
00000140: a142 8bbe 0ca9 5abd a6cb 08be 19ac 393d
00000150: 5060 3d3d 7ee4 4f3e 261a ccbe 102f 0abd
00000160: 0367 01be 1129 cebb caf9 acbd fece 91bd
00000170: 19f1 babe 2aea 543e dd3a b23e e64c 3a3e
00000180: a2a1 7e3a d69c 96bd 89e2 5bbe 88ae 53be
00000190: f02a ee3e f0a5 aabe 2c60 9a3e f3ba 9a3e
000001a0: 719f 9bbd 22ea 2bbe 959f 55be 1ad0 a73e
000001b0: 8665 483d ecaf dbbd 80ae 9a3e acd3 d2be
000001c0: 799f 943d 027c f03c bde6 bdbd aa12 f5be
000001d0: f0fc 403e 3a3d ea3d b064 f63d 5eea 94be
000001e0: 71f7 2d3d 9b1d 05be 6347 7abd c9b6 9fbe
000001f0: ce72 823e 8e62 ef3d 7dcd 3bbe b988 db3e
00000200: 3e4c 523e ac56 9c3f bd27 7fbf 2a37 9cbd
00000210: 9925 dbbc 0c3f 4cbd 16d7 ebbe 8d34 973e
00000220: 3841 debe 1b02 ba3e d5a9 9b3e 0f46 9b3c
00000230: 7efa 2dbf 4ee3 ebbd 28ed 9cbf 022f 323e
00000240: 4fc4 80bb 5e18 5abd a917 a7be fd58 0a3c
00000250: 88e7 3ebe 4b2d 88bf 7d86 343f c32b 90bc
00000260: 3b58 8c3f a120 743a 6955 a23e 3733 50be
00000270: a8fd 703d 27de ccbc 3909 24bf 449e 14be
00000280: 0959 4fbe 0762 5bbe b4c3 43bf f227 c2be
00000290: 7daf 5ebe 027f 2cbe 8e7c 17bf 56b1 8f3e
000002a0: f1b9 613f a76b 63be d387 b9be f574 6bbe
000002b0: ac0d bdbd 5ffa 133f d6ff 03bf dc16 ac3d
000002c0: c8cc 52be 1e45 873c 23b5 58bf 285f 333f
000002d0: 806b 90be 2375 57bf 22a6 bb3c 06c8 483e
000002e0: b9f8 db3e a887 333f 0469 1a3f 939a a0be
000002f0: a420 063c 23b1 b63e 54bd babe 0cb7 4d3f
00000300: 44bd 983e c933 213d b792 253f 361c bd3e
00000310: 136b 9ebe a636 26bd c342 a63e b692 81be
00000320: 36bb 1d3f 2b23 6fbc 108c 2d3c 74d8 2e3e
00000330: af64 a6bd f8d4 c1be 7e3b 373f 29cf dbbd
00000340: 503e 97be d0fe 7d3e 8822 a63e df24 0bbe
00000350: 8fc6 6abe 8542 033f 26c3 d6bd 8017 213e
00000360: 035e 77be 4689 b1bd 5b35 acbd b836 43be
00000370: f7bc 883e 7e89 c63e 750e c7be 28bb f43e
00000380: 0dd7 7cbe c5ef 08be 89b2 c1be 468e 823c
00000390: 4dd3 d43e d9b5 083e 2036 6d3e 14b1 243f
000003a0: a542 f3be 1796 3f3e e73a 833e 6c35 ebbe
000003b0: 29d2 a6bd 2a4e ff3e 0d5e 69be 94a6 56bf
000003c0: 7efe 2c3f 44f2 383f a726 a3bd 5492 a93e
000003d0: 68ea 833e d88b fcbe b4ac cdbd c14b b83e
000003e0: 822e 81be f780 333f 3a3b d1be bd63 853d
000003f0: c0c1 b33d ee76 983e adb4 c9bd 4e07 9f3e

convs.0.att_dst f4 [1, 4, 64]
-0.14752631 0.25798458 -0.0346855 -0.38551274 -0.039122544 0.44856742 0.30348352 -0.38055807
0.29967383 0.011071847 0.011001512 0.52954423 0.5345169 0.04593758 0.50127274 -0.06867619
-0.564265 -0.55013204 -0.16425665 0.41425472 -0.171804 0.356436 -0.30364722 0.15965164
-0.4659375 0.5582875 0.52059513 0.0881052 -0.13331719 0.34072578 0.33285984 0.18921158
0.2813823 0.22976354 0.7491153 -0.32982007 0.27118912 0.3039734 0.1588054 -0.13581307
-0.08911453 0.25471383 0.36067307 -0.2697887 -0.036644943 -0.40806788 0.49824676 -0.025917144
-0.5967556 0.14980106 -0.14636756 -0.26673433 0.6737855 -0.14351588 0.06778624 0.2713041
0.23952247 -0.3081551 0.56188935 -0.09688814 0.060374014 -0.1998849 0.3411945 -0.06936971
0.83907926 -0.7108984 -0.3803626 0.6294447 -0.5323502 0.6434345 0.45903206 -0.20954075
0.3053302 0.18811822 -0.30891025 -0.463186 -0.41564628 0.0072868736 0.95102686 -0.24547072
0.110145256 -0.59045756 -0.28454453 -0.009110069 0.9030707 -0.7246376 -0.7308546 -0.5531635
0.1556715 0.479637 -0.6928839 0.3283633 -0.0012032513 -0.8800972 0.7987989 1.0695233
0.20252821 -0.25369227 0.5968144 0.4281061 0.988211 -0.039590318 1.2250652 0.49812877
-0.49899277 0.13719484 -0.71072763 0.80120254 -0.3729574 0.5354484 -0.449017 0.16267608
0.25387588 0.24839424 0.14389604 -0.028970039 -0.22417782 0.92219436 -0.6444646 -0.98504114
-0.5409325 0.27686962 -0.5879062 -0.67226654 -0.54085845 0.68405294 -0.49070194 0.80796045
-0.23171824 0.029314555 -0.05292468 0.15270893 -0.049607016 -0.07823338 -0.09225208 0.031120764
-0.18619256 0.06755176 -0.048074417 0.041926514 0.1021865 0.28826326 -0.07408443 -0.27647644
0.13736065 -0.24217872 -0.07052235 -0.09618463 -0.010970649 -0.15537292 0.29572996 0.27057555
0.080263264 0.23526318 -0.25054446 0.009910312 0.15912601 0.2685959 -0.16485724 0.1561497
-0.2000368 -0.07829611 -0.09512791 -0.190376 -0.26701847 -0.20605107 0.1245984 0.20620395
-0.24987626 -0.039233226 -0.042377178 -0.32696655 0.21510771 0.2901008 0.05542318 -0.16042046
0.02837405 0.15617119 0.2346448 -0.16659184 -0.2620899 0.12696269 0.11341991 -0.020005869
-0.073104054 -0.1240452 0.26217502 0.059945412 0.14995365 0.27108356 -0.018997898 0.11699549
-0.1019139 0.12695628 -0.19925427 0.5924449 -0.42635438 -0.51266885 -0.056766313 -0.5519927
0.15027528 0.83360213 -0.16744342 -0.61359775 -0.60898125 -0.6455019 0.28270674 0.75391746
-0.53994036 0.76271856 0.5389945 -0.5535587 -0.95203996 -0.12601179 -0.4650956 -0.63089293
-0.5647244 -0.49823415 -0.55664396 -0.17110652 0.6151854 -0.06533533 -0.4131556 0.30312848
-0.582682 -0.8070194 -0.23031446 -0.23868075 0.093790114 0.62151873 -0.2303985 0.9826535
0.02810657 0.53283966 -0.42672077 0.3188661 -0.24479853 0.080570385 -0.28939983 -0.17918642
0.18940713 0.4576932 -0.15601236 0.058437627 -0.08279784 -0.5624962 -0.47508854 -0.15690166
-0.77287626 0.03529294 -0.2564778 0.5360684 -0.7199041 0.5172413 -0.5120236 -0.24538128
00000000: 2311 17be 8e16 843e 6212 0ebd ed61 c5be
00000010: f63e 20bd a1aa e53e 3162 9b3e 82d8 c2be
00000020: d96e 993e b166 353c b03f 343c 3690 073f
00000030: 19d6 083f 0b29 3c3d 6953 003f 1aa6 8cbd
00000040: ac73 10bf 74d5 0cbf e532 28be 3219 d43e
00000050: 63ed 2fbe c87e b63e a677 9bbe b87b 233e
00000060: 5c8f eebe eeeb 0e3f b945 053f 8070 b43d
00000070: 4d84 08be 9c73 ae3e 9b6c aa3e aec0 413e
00000080: 5711 903e 2247 6b3e 05c6 3f3f 2dde a8be
00000090: 4dd9 8a3e 67a2 9b3e e29d 223e 9512 0bbe
000000a0: ae81 b6bd da69 823e 24aa b83e bf21 8abe
000000b0: 0219 16bd 46ee d0be 331a ff3e 3150 d4bc
000000c0: fac4 18bf 7365 193e 61e1 15be 6791 88be
000000d0: 357d 2c3f d4f5 12be 83d3 8a3d 5fe8 8a3e
000000e0: 6145 753e 81c6 9dbe fbd7 0f3f 4a6d c6bd
000000f0: be4a 773d a1ae 4cbe 0cb1 ae3e b511 8ebd
00000100: e6cd 563f 70fd 35bf e3be c2be 4a23 213f
00000110: 1a48 08bf 20b8 243f 4006 eb3e da91 56be
00000120: 3d54 9c3e 10a2 403e 7c29 9ebe b726 edbe
00000130: 97cf d4be bac6 ee3b 7f76 733f ad5c 7bbe
00000140: d693 e13d 3a28 17bf d2af 91be 6642 15bc
00000150: a42f 673f da81 39bf 4919 3bbf 209c 0dbf
00000160: 5a68 1f3e fb92 f53e d760 31bf 3c1f a83e
00000170: 6ab6 9dba 0d4e 61bf 167e 4c3f 24e6 883f
00000180: 8e63 4f3e f4e3 81be d4c8 183f b930 db3e
00000190: 65fb 7c3f 7529 22bd f0ce 9c3f bc0a ff3e
000001a0: fb7b ffbe ce7c 0c3e 3ff2 35bf 9c1b 4d3f
000001b0: 46f4 bebe 2513 093f 8ee5 e5be 8f94 263e
000001c0: 05fc 813e 0f5b 7e3e 7c59 133e 9352 edbc
000001d0: df8e 65be ee14 6c3f a2fb 24bf a82b 7cbf
000001e0: 8d7a 0abf dbc1 8d3e 0581 16bf a919 2cbf
000001f0: b375 0abf 181e 2f3f 493d fbbe 7fd6 4e3f
00000200: 8c47 6dbe 1425 f03c 8dc7 58bd bb5f 1c3e
00000210: ba30 4bbd d338 a0bd a9ee bcbd f9f0 fe3c
00000220: 43a9 3ebe 9458 8a3d aee9 44bd 23bb 2b3d
00000230: 2847 d13d 3e97 933e 94b9 97bd 528e 8dbe
00000240: 45a8 0c3e b3fd 77be 066e 90bd 73fc c4bd
00000250: 3dbe 33bc 141a 1fbe eb69 973e e188 8a3e
00000260: 1161 a43d d5e8 703e 5d47 80be dc5e 223c
00000270: eef1 223e 6785 893e 56d0 28be b5e5 1f3e
00000280: 72d6 4cbe b659 a0bd 6cd2 c2bd edf1 42be
00000290: a5b6 88be 0dff 52be 722d ff3d 2127 533e
000002a0: 90df 7fbe 05b3 20bd b193 2dbd 2968 a7be
000002b0: 3245 5c3e 1888 943e 6b03 633d 4345 24be
000002c0: b270 e83c 57eb 1f3e ba46 703e 0d97 2abe
000002d0: a630 86be 8202 023e b348 e83d 59e3 a3bc
000002e0: 94b7 95bd 690b febd ce3b 863e 5289 753d
000002f0: 738d 193e 77cb 8a3e 7ba1 9bbc 559b ef3d
00000300: 3cb8 d0bd d400 023e 5009 4cbe 78aa 173f
00000310: 1f4b dabe 443e 03bf cb83 68bd 654f 0dbf
00000320: c3e1 193e f366 553f 4a76 2bbe be14 1dbf
00000330: 32e6 1bbf 9d3f 25bf f0be 903e bc00 413f
00000340: 8839 0abf 8641 433f 8bfb 093f 06b6 0dbf
00000350: e4b8 73bf 3c09 01be 0321 eebe 3382 21bf
00000360: c791 10bf 8c18 ffbe 3880 0ebf 8c36 2fbe
00000370: ca7c 1d3f 88ce 85bd 2189 d3be a833 9b3e
00000380: a62a 15bf d398 4ebf 8ed7 6bbe ba68 74be
00000390: 0815 c03d da1b 1f3f 96ed 6bbe 2e8f 7b3f
000003a0: c03f e63c 2e68 083f 257b dabe 6b42 a33e
000003b0: 77ac 7abe 1602 a53d 372c 94be a57c 37be
000003c0: f1f3 413e c356 ea3e b4c1 1fbe 4b5c 6f3d
000003d0: ea91 a9bd c0ff 0fbf ce3e f3be d4aa 20be
000003e0: 38db 45bf 548f 103d 0f51 83be c73b 093f
000003f0: a34b 38bf ed69 043f fb13 03bf 3b45 7bbe

convs.0.bias f4 [64]
0.032485563 -0.13949554 0.050179373 0.11409199 0.03677302 -0.15848933 0.06573124 -0.07498454
0.042569302 0.025068339 -0.22609693 -0.011004756 0.20096053 0.12778543 0.08693121 -0.07260347
-0.01247516 -0.13625632 -0.1263435 -0.14378414 -0.043159924 -0.0077667097 -0.0848354 -0.15393786
-0.087452754 -0.10646688 -0.26600203 -0.030079994 -0.123767115 0.006925481 -0.027841466 0.09255844
-0.08781554 0.1105571 0.028515816 -0.1399543 0.0986103 -0.014999575 0.021967707 0.09623881
-0.044876844 -0.060883068 0.1864898 -0.1369582 0.1072476 -0.012991713 0.05538803 -0.12936239
0.0033400857 0.12746795 -0.03872267 -0.2305212 0.01642904 0.10954554 0.20280522 -0.008717734
0.013136691 0.034035876 -0.049948785 -0.120071776 0.07350417 -0.30056182 0.17988092 -0.09509267
00000000: 950f 053d ebd7 0ebe e388 4d3d 10a9 e93d
00000010: 4e9f 163d 074b 22be 1a9e 863d 7f91 99bd
00000020: 265d 2e3d 1e5c cd3c f485 67be 4b4d 34bc
00000030: 99c8 4d3e 2fda 023e fd08 b23d 21b1 94bd
00000040: 9d64 4cbc c786 0bbe 3160 01be 263c 13be
00000050: 76c8 30bd e27f febb 2fbe adbd e3a1 1dbe
00000060: 6e1a b3bd 4f0b dabd 6b31 88be 526a f6bc
00000070: 9d79 fdbd 25ef e23b c913 e4bc 488f bd3d
00000080: a2d8 b3bd c36b e23d 009a e93c 2e50 0fbe
00000090: 32f4 c93d c7c0 75bc 9ff5 b33c da18 c53d
000000a0: c8d0 37bd 8660 79bd 2ff7 3e3e c53e 0cbe
000000b0: a1a4 db3d 32db 54bc 8fde 623d 9377 04be
000000c0: 57e5 5a3b f586 023e aa9b 1ebd c00d 6cbe
000000d0: 3296 863c 6959 e03d 2cac 4f3e d4d4 0ebc
000000e0: 473b 573c 3469 0b3d 1997 4cbd 31e8 f5bd
000000f0: 5b89 963d 3de3 99be b432 383e f2bf c2bd

convs.0.lin.weight f4 [256, 2]
0.41037354 -0.21303318 -0.17210793 0.040051937 0.3060527 0.019795893 0.67135733 -0.22538778
-0.63626105 -0.05478307 -0.45357573 0.08995517 0.47160447 -0.30573288 0.28643817 -0.4427814
0.010354422 -0.08570833 0.26720822 -0.09880777 -0.01654345 0.38540494 -0.56905353 0.007391097
-1.4112155 -0.04709223 -0.70944846 -0.010758964 -0.15335986 -0.16271196 0.1061492 -0.0362276
0.7783493 -0.21373951 0.49323782 0.2878783 0.5464285 -0.029688591 -0.660553 0.012894994
0.24989377 -0.31258088 -0.19594601 -0.27528182 0.2748749 0.01949969 -0.53756094 0.1986921
0.08676102 -0.0020066854 -0.48191535 0.027707534 -0.5791392 -0.026992636 -0.48594904 0.029229939
0.100301266 0.039078202 -0.5023184 0.047686715 -0.6733085 0.042192563 0.64926577 -0.31500936
-0.6428662 0.106351145 -1.1161029 -0.061183702 -0.06328896 -0.21046229 0.2945401 -0.34081852
-0.062313665 0.04541743 -0.35210884 0.10513926 0.050076038 -0.13488318 0.05574245 -0.1311689
-0.4239285 0.09884998 -0.113180146 -0.0990413 -1.180759 -0.0641758 0.70797575 0.04459663
-0.88884264 -0.0008006977 0.22256713 -0.016183933 -0.09040395 -0.29085848 0.03539274 0.08193199
0.3028567 0.19444779 0.2794585 -0.26565954 -0.3419053 0.13724028 0.14236936 -0.032310538
-0.57760483 -0.01337996 0.33462936 0.0073885215 -0.89957786 -0.17442638 0.22248757 -0.19450773
0.15619656 -0.18474294 0.45335025 -0.16222525 -0.50048316 -0.08091551 0.21462466 -0.25673658
-0.7895778 0.07928755 0.11471944 -0.072476916 -1.2394791 -0.16665205 0.15197413 -0.086493984
0.08316596 -0.9640225 -0.07054463 0.22888397 -0.13250363 -0.15932246 0.43907714 -0.3581754
-0.12323071 -0.25934812 0.05834701 -0.41109538 0.16477196 -0.1633624 -0.017676672 -0.047915578
-0.13302338 -0.27086627 0.19464107 -0.10221982 -0.038515504 0.119561195 -0.6001055 -0.12596373
-0.6919857 -0.108606845 -0.31575686 -0.10730846 0.01110602 -0.2343249 0.15225436 -0.11886878
0.28010148 0.095914595 -0.053583883 0.17113005 0.14131102 0.20945583 -0.1375996 -0.075595945
0.0839852 -0.42219558 -0.16423206 0.18406247 -0.14984013 0.29599547 -0.065095946 -0.077423334
0.06137218 -0.31130072 -0.09550622 -0.2466369 -0.07280631 -0.023112899 0.07500417 0.017171528
0.34136206 0.367674 -0.28412247 -0.10888368 0.004716889 -0.59717613 0.29513144 -0.35447183
0.008205202 -0.083986975 -0.5921852 0.049661517 0.22968262 -0.25881228 0.12026881 -0.08251938
0.105412684 -0.36768645 0.089894995 0.09053175 0.1754422 -0.23000547 0.20050363 -0.15726249
-0.2037074 0.15519156 0.021089122 0.10384189 -0.667776 0.08384936 0.4014654 -0.09265615
-0.4407543 -0.22093812 0.22292353 -0.6104772 -0.2469351 -0.041618932 0.07468853 0.13805103
-0.06696812 -0.5029252 0.2521074 -0.22940142 0.13091148 -0.15634671 0.03626306 0.33316106
-0.32051516 0.01585655 0.13888836 -0.6289638 -0.7746372 -0.06068295 -0.17767721 0.3604108
-0.36026034 -0.14250028 0.4230951 -0.3048979 -0.15193444 -0.0053650606 -0.11131451 0.056510746
-0.56605124 -0.011622801 0.32023513 -0.09585505 -0.6385619 -0.056753777 0.10954875 -0.8374958
00000000: 7b1c d23e 5f25 5abe 103d 30be 800d 243d
00000010: f1b2 9c3e ff2a a23c 13de 2b3f 0ecc 66be
00000020: 01e2 22bf 3664 60bd 143b e8be 6b3a b83d
00000030: 2476 f13e 0589 9cbe 06a8 923e 3eb4 e2be
00000040: 98a5 293c d987 afbd 84cf 883e ba5b cabd
00000050: 2186 87bc cc53 c53e 7ead 11bf 0431 f23b
00000060: b6a2 b4bf c8e3 40bd 6a9e 35bf 5e46 30bc
00000070: 5e0a 1dbe f79d 26be c064 d93d 6463 14bd
00000080: e641 473f 88de 5abe ab89 fc3e c964 933e
00000090: bde2 0b3f 7d35 f3bc 001a 29bf 8645 533c
000000a0: 27e4 7f3e 9a0a a0be 12a6 48be bdf1 8cbe
000000b0: 67bc 8c3e d0bd 9f3c 989d 09bf f175 4b3e
000000c0: c3af b13d 9882 03bb 9cbd f6be e9fa e23c
000000d0: 7742 14bf a91f ddbc 50ce f8be a073 ef3c
000000e0: c06a cd3d 7710 203d f097 00bf 2553 433d
000000f0: f25d 2cbf 1cd2 2c3d 4836 263f e848 a1be
00000100: e192 24bf a1ce d93d 76dc 8ebf c39b 7abd
00000110: a49d 81bd 6d83 57be f6cd 963e c47f aebe
00000120: 9d3c 7fbd a107 3a3d 9c47 b4be 4153 d73d
00000130: 881c 4d3d d11e 0abe 3252 643d 2451 06be
00000140: 280d d9be dc71 ca3d feca e7bd 2ad6 cabd
00000150: 1c23 97bf 9a6e 83bd e63d 353f f5aa 363d
00000160: 318b 63bf eae5 51ba a3e8 633e 2b94 84bc
00000170: b525 b9bd 67eb 94be faf7 103d f6cb a73d
00000180: 0910 9b3e 521d 473e 2f15 8f3e 8704 88be
00000190: 360e afbe b788 0c3e 46c9 113e 0e58 04bd
000001a0: e9dd 13bf 9f37 5bbc 8a54 ab3e 691b f23b
000001b0: bc4a 66bf d49c 32be c8d3 633e 092d 47be
000001c0: fef1 1f3e 412d 3dbe 861d e83e 601e 26be
000001d0: aa1f 00bf 08b7 a5bd 91c6 5b3e fa72 83be
000001e0: c521 4abf 8361 a23d 07f2 ea3d c76e 94bd
000001f0: 40a7 9ebf d6a6 2abe 1b9f 1b3e c223 b1bd
00000200: ea52 aa3d 2eca 76bf b479 90bd 8f60 6a3e
00000210: 08af 07be 6d25 23be b8ce e03e c462 b7be
00000220: 6260 fcbd 47c9 84be 46fd 6e3d 187b d2be
00000230: fbb9 283e 7948 27be abce 90bc 2043 44bd
00000240: 4837 08be fcae 8abe fd4f 473e a058 d1bd
00000250: 6fc2 1dbd 80dc f43d 84a0 19bf a3fc 00be
00000260: fa25 31bf 446d debd e2aa a1be 8ac4 dbbd
00000270: 06f6 353c def2 6fbe 91e8 1b3e 7a71 f3bd
00000280: 7669 8f3e df6e c43d c67a 5bbd b73c 2f3e
00000290: d6b3 103e 977b 563e e9e6 0cbe 0cd2 9abd
000002a0: 6f00 ac3d 052a d8be 732c 28be df7a 3c3e
000002b0: b16f 19be b88c 973e 0651 85bd 2090 9ebd
000002c0: 6561 7b3d cf62 9fbe c498 c3bd 628e 7cbe
000002d0: 7a1b 95bd 4357 bdbc c99b 993d 4eab 8c3c
000002e0: 02c7 ae3e c43f bc3e 8078 91be 68fe debd
000002f0: 2290 9a3b 89e0 18bf 781b 973e 557d b5be
00000300: 1d6f 063c 5d01 acbd 7399 17bf e069 4b3d
00000310: ec31 6b3e 0b83 84be 7e4f f63d ecff a8bd
00000320: 9be2 d73d 6641 bcbe de1a b83d b668 b93d
00000330: 1fa7 333e 8e86 6bbe d350 4d3e 6b09 21be
00000340: ac98 50be 89ea 1e3e 18c3 ac3c 0fab d43d
00000350: 5ef3 2abf 37b9 ab3d df8c cd3e 82c2 bdbd
00000360: 8caa e1be 9a3d 62be 1146 643e 3c48 1cbf
00000370: 8edc 7cbe 9d78 2abd 4df6 983d 405d 0d3e
00000380: 9526 89bd b5bf 00bf 3914 813e 35e8 6abe
00000390: a90d 063e 5a19 20be 9388 143d 1694 aa3e
000003a0: 901a a4be 98e5 813c c038 0e3e c603 21bf
000003b0: a04e 46bf af8e 78bd 04f1 35be c487 b83e
000003c0: 0b74 b8be 98eb 11be ec9f d83e 941b 9cbe
000003d0: b494 1bbe 64cd afbb ddf8 e3bd d077 673d
000003e0: bce8 10bf 906d 3ebc dcf5 a33e a74f c4bd
000003f0: cb78 23bf a676 68bd 185b e03d 2066 56bf

convs.1.att_src f4 [1, 4, 64]
0.07634721 0.28187492 -0.022088608 0.51225775 0.24091075 0.3732211 -0.19526137 -0.3384809
0.431326 -0.34846473 -0.08999819 0.083795615 -0.2778536 -0.16207904 -0.2181599 0.57394546
0.143644 -0.3257584 -0.1912338 -0.1660524 0.29856092 0.16731742 -0.1819423 0.23689699
0.29779506 -0.30461392 0.32606974 -0.5221442 0.021867597 0.5883239 0.54200333 -0.25967118
-0.18427843 0.14525582 -0.13975966 0.37124583 0.06926694 0.6348713 -0.40395296 0.14756417
0.16418968 -0.278862 -0.23425873 0.029997848 -0.2625508 0.01249197 -0.2797657 0.013073784
0.6048042 -0.025370974 -0.17914878 0.20411178 -0.3896274 0.3600081 -0.30824822 0.28838772
0.33099493 -0.030236455 0.26327372 -0.07851581 0.12379273 -0.10799584 0.021480544 -0.024067681
-0.06067508 -0.39757842 -0.2168318 -0.3872784 0.11017295 -0.27677003 0.3250592 0.05788918
-0.24831098 -0.17552009 -0.15224768 -0.4709215 -0.0010964465 0.3065584 -0.0019487253 -0.37212145
-0.19140598 0.6188273 -0.2651198 0.6718597 -0.3463863 -0.6489135 0.25440902 0.2278255
0.03372003 0.36709452 -0.36393607 0.045047224 -0.27532533 0.06668963 -0.4171594 0.3978739
-0.23831901 -0.38049367 -0.23379904 0.6651788 -0.79638124 -0.2951491 -0.039012242 -0.5327326
-0.58074486 -0.27244145 -0.24281487 0.29590154 0.08113909 -0.154454 0.52662826 -0.23530817
0.08690404 -0.6356439 -0.4934225 0.33487993 -0.19702674 -0.12916882 0.26503927 0.5364021
-0.24048413 -0.21017396 -0.28300318 -0.7628888 -0.19624124 -0.31176353 0.01435149 0.45111826
0.9726368 0.11274744 0.47586307 0.81383234 0.088273585 -0.3827578 0.75120157 0.478321
0.85265666 0.5291986 0.36548308 0.7771612 -0.77203196 0.54461586 0.4379381 0.8336498
0.8347985 0.044529065 0.65754133 0.7610416 0.41535133 -0.28615618 0.1188872 0.22233367
0.2589837 0.14323774 0.30712157 -0.5054765 0.24217825 0.088488065 0.4600958 0.51210386
0.3259805 0.83071864 0.5832441 0.82554966 -0.6248077 0.32086965 0.951492 -0.7232229
0.22971234 0.093571074 0.24180022 -0.12644434 0.5154168 0.40558794 -0.017381165 0.8822491
-0.34322017 0.46816218 0.121743165 0.033845372 0.06579894 0.7614295 0.41253823 0.06935302
0.694036 0.3633716 -0.24242342 0.49922755 0.6138684 0.6898401 0.6348468 0.5095145
0.14412853 0.31136882 -0.3672909 0.011517704 0.29059324 0.010956383 -0.2416496 0.26155576
-0.0006463643 0.2070932 0.18032634 0.033761896 0.25149733 0.018898638 -0.0020116863 -0.0009891768
0.18967028 0.4650447 -0.13662285 0.062284485 -0.04992348 0.39921987 0.03558756 -0.11239703
0.07168468 -0.012531392 -0.10655612 0.14416188 -0.040637832 -0.14775914 -0.26400274 -0.012571317
-0.19304068 0.09360802 -0.02680006 0.0118492395 0.3064854 0.40853268 -0.15427347 0.043963592
0.20446086 -0.065244414 0.007707177 -0.19316313 -0.14463021 -0.11018287 -0.038010657 0.2635994
0.3816376 0.06523782 -0.029446108 0.1341564 0.09329016 -0.039600477 0.123780884 0.078586765
-0.09435075 0.1697269 -0.35914445 0.2505358 0.29314184 -0.12866467 -0.0026835063 0.016923983
00000000: ed5b 9c3d e951 903e 2bf3 b4bc 5323 033f
00000010: 4fb1 763e d616 bf3e 99f2 47be 5e4d adbe
00000020: c3d6 dc3e f869 b2be f950 b8bd 099d ab3d
00000030: d442 8ebe 0cf8 25be 4f65 5fbe 17ee 123f
00000040: 6a17 133e cec9 a6be cbd2 43be a409 2abe
00000050: fadc 983e 4255 2b3e 154f 3abe 2095 723e
00000060: 9878 983e 5bf6 9bbe 9df2 a63e 3eab 05bf
00000070: ad23 b33c 659c 163f bbc0 0a3f 9ff3 84be
00000080: 7cb3 3cbe f1bd 143e 281d 0fbe ef13 be3e
00000090: d3db 8d3d ed86 223f ecd2 cebe 101b 173e
000000a0: 5721 283e 00c7 8ebe 85e1 6fbe 0cbe f53c
000000b0: 0f6d 86be 1fab 4c3c 733d 8fbe 6d33 563c
000000c0: 73d4 1a3f cad6 cfbc c772 37be ae02 513e
000000d0: 3e7d c7be fb52 b83e b6d2 9dbe 8ea7 933e
000000e0: 2b78 a93e 71b2 f7bc d0cb 863e e6cc a0bd
000000f0: 0b87 fd3d ec2c ddbd f7f7 af3c 9629 c5bc
00000100: 6f86 78bd 668f cbbe 2809 5ebe 5b49 c6be
00000110: 5ba2 e13d cdb4 8dbe 296e a63e 341d 6d3d
00000120: 3c45 7ebe 8abb 33be d1e6 1bbe 9f1c f1be
00000130: a4b6 8fba 39f5 9c3e 5f6c ffba b486 bebe
00000140: eeff 43be 776b 1e3f c8bd 87be fffe 2b3f
00000150: 8c59 b1be 321f 26bf e641 823e 164b 693e
00000160: 041e 0a3d d0f3 bb3e d455 babe 7083 383d
00000170: 71f7 8cbe 9394 883d eb95 d5be 21b6 cb3e
00000180: e609 74be 11d0 c2be 0469 6fbe 2849 2a3f
00000190: a4df 4bbf c81d 97be 4dcb 1fbd 2a61 08bf
000001a0: b2ab 14bf 727d 8bbe 76a4 78be 6880 973e
000001b0: 402c a63d 3029 1ebe 1cd1 063f a0f4 70be
000001c0: bffa b13d 8fb9 22bf e0a1 fcbe 6275 ab3e
000001d0: 61c1 49be d544 04be 3ab3 873e a651 093f
000001e0: 7941 76be d837 57be cbe5 90be ae4c 43bf
000001f0: 77f3 48be 789f 9fbe 8322 6b3c f9f8 e63e
00000200: bafe 783f 21e8 e63d 53a4 f33e 5157 503f
00000210: c8c8 b43d d5f8 c3be bf4e 403f 7de6 f43e
00000220: b547 5a3f 8f79 073f 9920 bb3e 09f4 463f
00000230: e3a3 45bf f26b 0b3f 6c39 e03e 136a 553f
00000240: 5bb5 553f 1c64 363d a154 283f 9fd3 423f
00000250: eea8 d43e 1083 92be 227b f33d 70ab 633e
00000260: 8399 843e eaac 123e 0a3f 9d3e e866 01bf
00000270: 93fd 773e 3b39 b53d ad91 eb3e 3d19 033f
00000280: ebe6 a63e faa9 543f 7c4f 153f 3957 533f
00000290: 66f3 1fbf 0749 a43e fb94 733f 2325 39bf
000002a0: b639 6b3e 31a2 bf3d 7a9a 773e a07a 01be
000002b0: 5bf2 033f 39a9 cf3e f262 8ebc 14db 613f
000002c0: 8eba afbe f4b2 ef3e 7b54 f93d 72a1 0a3d
000002d0: 98c1 863d 0bed 423f 3638 d33e f508 8e3d
000002e0: 58ac 313f d80b ba3e d83d 78be c19a ff3e
000002f0: 7b26 1d3f 5c99 303f 5285 223f 8b6f 023f
00000300: 6e96 133e bc6b 9f3e 8e0d bcbe c1b4 3c3c
00000310: a3c8 943e 6782 333c fe72 77be a3ea 853e
00000320: c670 29ba 3d10 543e 78a7 383e ea49 0a3d
00000330: 42c4 803e 51d1 9a3c 7fd6 03bb 44a7 81ba
00000340: ed38 423e 571a ee3e dce6 0bbe 041e 7f3d
00000350: 907c 4cbd 8c66 cc3e 43c4 113d 6a30 e6bd
00000360: 6bcf 923d 7850 4dbc 183a dabd 2c9f 133e
00000370: db73 26bd 2c4e 17be 5e2b 87be edf7 4dbc
00000380: 75ac 45be 90b5 bf3d cd8b dbbc 5023 423c
00000390: a8eb 9c3e 322b d13e ddf9 1dbe 2b13 343d
000003a0: 305e 513e dd9e 85bd 7d8c fc3b 8ecc 45be
000003b0: f119 14be 8ea7 e1bd 10b1 1bbd 80f6 863e
000003c0: 0166 c33e 689b 853d f738 f1bc 4c60 093e
000003d0: e90e bf3d 1c34 22bd d580 fd3d 19f2 a03d
000003e0: f73a c1bd e3cc 2d3e c8e1 b7be 3a46 803e
000003f0: b016 963e acc0 03be c4dd 2fbb 2aa4 8a3c

convs.1.att_dst f4 [1, 4, 64]
-0.25832975 0.33478886 0.21605386 -0.10807518 0.4293138 -0.2465829 -0.6445948 -1.0885321
0.5685822 0.2646727 0.17671065 -0.56345767 -0.97727835 0.38023338 -0.39855373 0.5187962
1.0241514 -0.5415618 -0.24489853 -1.2097626 -0.1837944 0.6897137 -0.7025393 -0.47046703
-0.11453669 -0.59951323 -0.23895936 0.04422912 -0.3816482 0.6901516 0.85928893 -0.020720396
-0.21875745 0.030327512 -0.5020747 0.26226565 0.6556209 0.70513535 -0.3746489 -0.709167
0.4958776 -0.15332161 -0.29715934 0.40244004 0.40558973 0.36201912 -0.7617597 0.8675994
1.1087943 0.58206046 -0.07776847 -1.207909 -0.22245695 -0.03261475 -0.100728974 -0.50173855
0.16035464 0.053960007 -0.23483402 0.20795435 0.2531499 -0.23001143 0.5914846 0.79409635
-0.22132741 0.12578721 -0.2012812 0.4421028 0.03581965 -0.24981956 0.40936157 0.13157551
-0.052827187 -0.27538538 0.14277671 -0.34588802 0.5486321 0.36919954 0.39394552 -0.5237455
-0.007780995 -0.29467 0.347076 0.20895438 -0.26624537 0.085301206 0.07241864 -0.41864553
-0.33849353 0.08853958 -0.46514034 0.92784977 0.35275546 -0.72632116 -0.58128995 0.22966717
0.088624865 -1.4964081 -0.5274323 -0.00010037285 -0.24831071 0.11778568 -0.3330025 -0.21060832
-1.1402073 0.2859236 0.21666998 0.5097925 0.061356474 0.3196365 -0.27825695 -0.20929858
0.51549494 -0.1324008 -0.7504323 0.3345766 -0.0840795 -0.29187158 -0.16019437 0.2191212
-0.4970062 -0.12379929 -0.72246253 -0.07077821 -0.43895668 0.42516983 -0.12908542 0.31792712
0.68779576 0.22124319 0.35359427 0.6456502 0.2913945 -0.43570647 0.31976297 -0.068652
0.46427074 0.32224518 0.26725674 0.498327 0.012864934 0.52681583 0.24334075 0.5744122
0.99030507 -0.22808713 0.5033082 0.10614735 0.5794334 -0.3913898 0.19157583 0.2234822
0.58829355 0.14125422 0.36729422 -0.26403773 0.016031055 0.23842308 0.4592729 0.4176635
0.51287216 0.561997 0.54628974 0.50641197 -0.54842174 0.614182 0.74095833 -0.11422996
0.57403654 0.29491067 0.34319296 -0.14359334 0.000726872 0.423839 -0.16804036 0.8013607
0.37805262 0.38264278 0.6976755 -0.06424897 0.02013203 0.42173675 0.0038602466 -0.15098001
0.73642653 0.14037009 0.061278585 0.5757576 0.8011221 0.3486431 0.5938295 0.33406615
-0.4349571 -1.4147187 -0.14880635 -1.003958 -0.81421924 1.5649799 0.4020154 0.56895584
-0.8984759 -0.24193206 -0.94404614 -1.0186567 0.014243648 -1.2893369 -0.54935133 -1.136374
0.046210956 -0.38885343 -0.6558722 0.16951068 -0.85225326 -0.9732837 0.60948753 0.76038253
-0.7937342 -0.53435445 -0.8399835 0.48898196 -0.4037476 -1.2920709 -0.079513274 0.08783464
-0.53878623 -0.5094874 -0.98409194 -1.5345697 -1.1620549 -0.8826736 -0.9429127 -1.0507214
-0.94855094 -0.48577163 -0.3490125 -0.34558183 -0.752046 -0.951329 0.032442935 -0.75608873
0.4708052 0.031236429 -0.4635606 -0.44354627 -0.18690264 -0.31603974 -1.3062325 -0.89057297
-1.0770614 -0.8234683 -0.4591182 -0.52136105 -0.67510295 -0.17989944 -0.9423049 -0.9335943
00000000: cc43 84be 7269 ab3e 393d 5d3e 8556 ddbd
00000010: 05cf db3e 3a80 7cbe 2a04 25bf 0555 8bbf
00000020: 9a8e 113f 2e83 873e a3f3 343e c33e 10bf
00000030: ea2e 7abf f3ad c23e 3c0f ccbe d4cf 043f
00000040: 6517 833f cba3 0abf aec6 7abe 80d9 9abf
00000050: 9934 3cbe 1491 303f 9ed9 33bf 0ee1 f0be
00000060: 3692 eabd b379 19bf c3b1 74be 9829 353d
00000070: 6567 c3be c6ad 303f 5cfa 5b3f d2bd a9bc
00000080: f401 60be 6771 f83c f887 00bf af47 863e
00000090: c5d6 273f c083 343f fbd1 bfbe f88b 35bf
000000a0: abe3 fd3e 5700 1dbe 4525 98be 9f0c ce3e
000000b0: 75a9 cf3e 925a b93e af02 43bf ff1a 5e3f
000000c0: f9ec 8d3f ea01 153f 1345 9fbd c39c 9abf
000000d0: c1cb 63be 0b97 05bd fe4a cebd f071 00bf
000000e0: 0234 243e 2b05 5d3d 5478 70be fcf1 543e
000000f0: dd9c 813e 1e88 6bbe 896b 173f e649 4b3f
00000100: a7a3 62be 5dce 003e a91c 4ebe 4c5b e23e
00000110: a0b7 123d b3d0 7fbe d797 d13e bbbb 063e
00000120: 5261 58bd 50ff 8cbe 0f34 123e 3c18 b1be
00000130: 2773 0c3f b907 bd3e 3ab3 c93e 2f14 06bf
00000140: b8f7 febb fcde 96be f2b3 b13e 23f8 553e
00000150: 5051 88be 66b2 ae3d 3950 943d b558 d6be
00000160: 064f adbe 3d54 b53d e026 eebe 9087 6d3f
00000170: 5d9c b43e 2ff0 39bf 6bcf 14bf df2d 6b3e
00000180: f480 b53d 4d8a bfbf ce05 07bf 437f d2b8
00000190: 2a45 7ebe 9e39 f13d 4e7f aabe b5a9 57be
000001a0: 50f2 91bf 9464 923e bcde 5d3e c381 023f
000001b0: ed50 7b3d 65a7 a33e b277 8ebe 5e52 56be
000001c0: 7af7 033f 1394 07be 551c 40bf a04d ab3e
000001d0: df31 acbd 3170 95be fe09 24be 4f61 603e
000001e0: 9977 febe 7b8a fdbd 4ef3 38bf 2bf4 90bd
000001f0: eebe e0be dcaf d93e f82e 04be 58c7 a23e
00000200: 6213 303f 938d 623e 4f0a b53e 5549 253f
00000210: a931 953e eb14 dfbe f9b7 a33e 6b99 8cbd
00000220: e5b4 ed3e 52fd a43e e0d5 883e b724 ff3e
00000230: 72c7 523c 67dd 063f 512e 793e ae0c 133f
00000240: a284 7d3f ac8f 69be ced8 003f c863 d93d
00000250: bf55 143f 3e64 c8be 742c 443e 85d8 643e
00000260: 689a 163f f2a4 103e fd0d bc3e f42f 87be
00000270: 8f53 833c 2e25 743e d125 eb3e fed7 d53e
00000280: 974b 033f 09df 0f3f a5d9 0b3f 37a4 013f
00000290: 5e65 0cbf 083b 1d3f 72af 3d3f 66f1 e9bd
000002a0: 0ff4 123f 88fe 963e fdb6 af3e 220a 13be
000002b0: 8e8b 3e3a 6d01 d93e c612 2cbe fa25 4d3f
000002c0: 1d90 c13e c1e9 c33e dd9a 323f f794 83bd
000002d0: edeb a43c e1ed d73e 31fc 7c3b 819a 1abe
000002e0: 7386 3c3f 2dbd 0f3e 41ff 7a3d da64 133f
000002f0: 5716 4d3f 5981 b23e 3605 183f b80a ab3e
00000300: b2b2 debe 8115 b5bf b160 18be b281 80bf
00000310: ac70 50bf 4351 c83f f6d4 cd3e 17a7 113f
00000320: 8402 66bf 0abd 77be 02ad 71bf 5863 82bf
00000330: 315e 693c fe08 a5bf 4aa2 0cbf b474 91bf
00000340: b347 3d3d cc17 c7be 3ee7 27bf 3594 2d3e
00000350: 452d 5abf 1f29 79bf 6007 1c3f 6ea8 423f
00000360: 2a32 4bbf 74cb 08bf 2909 57bf d85b fa3e
00000370: 01b8 cebe 9462 a5bf dbd7 a2bd a6e2 b33d
00000380: e5ed 09bf c46d 02bf 73ed 7bbf c86c c4bf
00000390: 37be 94bf e6f6 61bf ba62 71bf 0a7e 86bf
000003a0: 3cd4 72bf 0fb7 f8be c4b1 b2be 1af0 b0be
000003b0: 1686 40bf 4c8a 73bf e2e2 043d 088f 41bf
000003c0: 610d f13e 8ae3 ff3c d157 edbe 7f18 e3be
000003d0: 6863 3fbe f6cf a1be a032 a7bf 97fc 63bf
000003e0: 26dd 89bf d2ce 52bf 8a11 ebbe eb77 05bf
000003f0: 8cd3 2cbf 8f37 38be e53a 71bf 0900 6fbf

convs.1.bias f4 [64]
0.19197059 -0.006084959 0.062207185 -0.076927595 0.104587615 -0.24658793 0.022859495 0.013018967
-0.05954926 -0.03355574 0.096522965 0.175289 0.044323675 -0.09572732 0.078531295 -0.018328417
-0.05727313 0.11819409 0.11726785 -0.19686788 0.107254446 0.025767183 0.035774045 -0.02464489
0.06641314 -0.23766637 -0.04753408 -0.06380681 0.16105816 0.02059009 -0.031415105 0.08930492
0.095976375 0.13756403 -0.09091661 -0.10076969 0.057008628 -0.11603557 -0.15300132 -0.04371094
0.079088695 0.13340218 0.0098862965 -0.046008416 0.0781554 0.092298605 0.10711925 0.04723931
-0.0077426764 -0.01572578 0.048353266 0.20703964 0.08027227 -0.077170864 0.20270233 0.055915084
0.17311184 0.13289765 -0.059382964 0.114491776 0.08164871 0.13297792 -0.029097429 0.026517676
00000000: f093 443e 5664 c7bb f6cc 7e3d 378c 9dbd
00000010: 0832 d63d 8c81 7cbe d643 bb3c 814d 553c
00000020: ede9 73bd be71 09bd d5ad c53d f67e 333e
00000030: be8c 353d af0c c4bd 04d5 a03d 7a25 96bc
00000040: 3b97 6abd be0f f23d 202a f03d bc97 49be
00000050: 38a8 db3d b315 d33c ce87 123d 15e4 c9bc
00000060: 9d03 883d d05e 73be 18b3 42bd 25ad 82bd
00000070: 6eec 243e 8cac a83c 20ad 00bd 7fe5 b63d
00000080: 438f c43d 96dd 0c3e 7d32 babd 5760 cebd
00000090: e181 693d 0fa4 edbd 61ac 1cbe 3e0a 33bd
000000a0: 41f9 a13d 959a 083e 22fa 213c 5273 3cbd
000000b0: f00f a03d 0d07 bd3d 5661 db3d 027e 413d
000000c0: 47b6 fdbb 5ad3 80bc 130e 463d 3302 543e
000000d0: ca65 a43d c20b 9ebd 3391 4f3e 3707 653d
000000e0: 3b44 313e 5216 083e 8d3b 73bd aa7a ea3d
000000f0: 7037 a73d 5d2b 083e bb5d eebc 993b d93c

convs.1.lin.weight f4 [256, 64]
-0.05765451 -0.22615492 -0.15505452 -0.05494798 -0.117547974 0.1261363 -0.011392613 -0.114688136
0.11521605 -0.063519634 -0.5297309 0.029683972 -0.22428773 -0.28871453 -0.046657197 -0.65604687
-0.54653996 -0.3950104 -0.8164699 -0.08101156 0.12848596 -0.3349474 0.012939349 0.09499056
-0.8888295 0.15858427 -0.18057844 -0.06310061 0.013390466 -0.06641633 -0.28538516 -0.0774556
-0.23419483 -0.28432468 -0.26630408 0.05666831 -0.008384423 -0.05503913 0.080296084 -0.0886697
0.048939224 0.009970083 -0.3366876 -0.8575877 -0.16687383 -0.068889424 -0.45741394 -0.07436535
0.08451344 0.09600263 -0.19756864 -0.7713987 -0.1750545 -0.09820409 -0.1420897 -0.35061026
-0.40949208 -0.1628852 -0.15265758 -0.06601778 -0.15100712 -0.43714505 -0.14943069 -0.13570538
0.11590464 -0.25000268 0.23478658 0.16898014 0.25471073 -0.002490173 0.036518198 0.27760902
0.32598528 -0.08731142 0.1090467 0.36469477 0.21938123 -0.018274143 0.13267748 -0.05448696
0.28390846 0.07852239 0.21754672 0.0828529 0.31189954 0.39361256 0.24274859 0.001807323
0.21148892 -0.22296272 0.12304376 0.07649266 -0.06900316 0.424536 0.3338648 -0.066492334
-0.19891326 0.09676384 -0.024154717 0.31051266 -0.06407827 -0.04933121 0.33194673 -0.11987205
0.25347006 -0.0022691742 -0.049008816 0.017763652 0.33728182 -0.089783095 0.20778418 -0.12507017
0.049543142 0.013386938 0.31112385 0.14914522 0.7498668 0.37238073 0.13126753 -0.09581584
0.03349116 -0.054718375 -0.021190867 0.29097757 0.16622046 0.0863438 -0.05061782 0.116475284
0.14763966 0.021247191 0.25528225 0.09071515 0.05160147 0.07598603 -0.13754565 0.013054209
-0.050286107 -0.13503362 0.1803652 -0.020370787 -0.17808184 -0.15671895 0.15811197 0.1731775
-0.34528375 0.0065331454 -0.84187025 -0.011993448 0.018955734 -0.004673442 -0.16270709 0.10230405
0.04741657 0.045864068 0.20740463 0.17624861 -0.34402764 0.060249846 -0.29253265 -0.18362595
0.018155793 -0.07554176 0.067711495 -0.13071936 0.0025680112 -0.081580915 0.2214657 0.031500556
0.19448046 -0.027611323 0.089842 -0.31068867 -0.016416635 0.10117655 -0.07039169 -0.15006085
0.38400975 -0.0016447264 0.07617885 -0.065351404 0.18398593 0.112108305 -0.14208503 -0.13890386
0.3889113 0.093368985 0.13568707 0.20770209 0.034185786 -0.44520625 -0.0065496396 0.1432027
0.26870698 -0.48945162 0.13574794 -0.13925093 -0.3403369 -0.16306685 -0.0579135 -0.013514234
-0.32618877 -0.129547 -0.087063305 0.018609257 -0.15631388 -0.018632634 -0.16159947 0.2651685
-0.1373191 -0.37472656 0.11129198 -0.101038925 0.033083852 0.111190386 -0.37314728 -0.17750417
0.54822546 0.05587945 -0.03837774 -0.13899018 -0.1543496 -0.14060587 -0.08069679 -0.050293855
-0.10691153 -0.17929037 -0.16074039 0.20831622 -0.16205554 -0.38315964 -0.21728873 -0.10126827
-0.5958037 -0.14648755 -0.07424256 -0.40203708 0.067374766 0.092372894 -0.24186014 -0.556188
0.6617806 -0.051267006 0.07238044 -0.5700716 -0.02055882 0.22817487 -0.19703737 0.03920836
0.03006586 -0.049944464 -0.22579105 -0.33635595 -0.33500278 0.17114921 -0.10836196 0.08144954
00000000: 2327 6cbd 2895 67be 9dc6 1ebe 2211 61bd
00000010: febc f0bd e029 013e 15a8 3abc 9de1 eabd
00000020: 64f6 eb3d 9516 82bd 729c 07bf cd2b f33c
00000030: afab 65be 64d2 93be 9e1b 3fbd b0f2 27bf
00000040: 0bea 0bbf ce3e cabe 2c04 51bf 64e9 a5bd
00000050: d391 033e 3a7e abbe 90ff 533c 698a c23d
00000060: 558a 63bf ea63 223e 8ee9 38be e53a 81bd
00000070: af63 5b3c 4905 88bd 011e 92be 0ba1 9ebd
00000080: c5d0 6fbe 0193 91be 0259 88be 081d 683d
00000090: d25e 09bc b670 61bd 4672 a43d 7698 b5bd
000000a0: 7f74 483d 8f59 233c 5162 acbe de8a 5bbf
000000b0: f9e0 2abe e615 8dbd 2932 eabe dc4c 98bd
000000c0: 6215 ad3d 079d c43d 6f4f 4abe 637a 45bf
000000d0: 7d41 33be 3a1f c9bd f67f 11be 3083 b3be
000000e0: f2a8 d1be 61cb 26be 4552 1cbe 5434 87bd
000000f0: 9ca1 1abe 7ad1 dfbe 5c04 19be 5af6 0abe
00000100: 695f ed3d 5a00 80be e56b 703e 2109 2d3e
00000110: 7269 823e 2c32 23bb 1b94 153d c522 8e3e
00000120: 8be7 a63e 54d0 b2bd e053 df3d 46b9 ba3e
00000130: 79a5 603e a8b3 95bc 9bdc 073e b82d 5fbd
00000140: 735c 913e 59d0 a03d 91c4 5e3e c8ae a93d
00000150: 4cb1 9f3e 9687 c93e 1693 783e b2e3 ec3a
00000160: 8d90 583e 5750 64be 5efe fb3d 2fa8 9c3d
00000170: 8751 8dbd c85c d93e 54f0 aa3e 222d 88bd
00000180: ebaf 4bbe 1f2c c63d 1de0 c5bc 84fb 9e3e
00000190: 783b 83bd 860f 4abd ecf4 a93e 7a7f f5bd
000001a0: d4c6 813e 6db6 14bb 78bd 48bd 1485 913c
000001b0: 34b0 ac3e 33e0 b7bd 60c5 543e 6512 00be
000001c0: c0ed 4a3d e354 5b3c a04b 9f3e 86b9 183e
000001d0: 45f7 3f3f b0a8 be3e ff6a 063e 183b c4bd
000001e0: 072e 093d 6020 60bd 7898 adbc 03fb 943e
000001f0: b235 2a3e 05d5 b03d a254 4fbd 988a ee3d
00000200: da2e 173e 970e ae3c 5bb4 823e ddc8 b93d
00000210: 105c 533d 909e 9b3d c4d8 0cbe 52e1 553c
00000220: cef8 4dbd 4146 0abe a8b1 383e a3e0 a6bc
00000230: 165b 36be ef7a 20be 1be8 213e 7155 313e
00000240: 08c9 b0be ff13 d63b cf84 57bf 2b80 44bc
00000250: 0e49 9b3c ac23 99bb b09c 26be c984 d13d
00000260: e137 423d f6db 3b3d e161 543e 847a 343e
00000270: 6424 b0be 8bc8 763d d7c6 95be 7108 3cbe
00000280: 75bb 943c a3b5 9abd 53ac 8a3d 4cdb 05be
00000290: 144c 283b e513 a7bd e8c7 623e ba06 013d
000002a0: e325 473e 2431 e2bc 15ff b73d 9612 9fbe
000002b0: 2e7c 86bc a735 cf3d 8529 90bd 8da9 19be
000002c0: ed9c c43e dc93 d7ba a803 9c3d f5d6 85bd
000002d0: cf66 3c3e 0a99 e53d bd7e 11be d03c 0ebe
000002e0: 621f c73e 3d38 bf3d 8df1 0a3e dbaf 543e
000002f0: 6506 0c3d 13f2 e3be 5c9e d6bb bba3 123e
00000300: f693 893e 6799 fabe 8201 0b3e cc97 0ebe
00000310: a340 aebe fffa 26be b536 6dbd ce6a 5dbc
00000320: 3702 a7be f8a7 04be 3f4e b2bd 7172 983c
00000330: bf10 20be 77a3 98bc 557a 25be 2ac4 873e
00000340: 619d 0cbe 29dc bfbe 0ded e33d 7fed cebd
00000350: ef82 073d c9b7 e33d 290d bfbe a7c3 35be
00000360: 8158 0c3f dae1 643d fa31 1dbd 7153 0ebe
00000370: d20d 1ebe fcfa 0fbe 5c44 a5bd ee00 4ebd
00000380: 6ff4 dabd e597 37be 2199 24be d950 553e
00000390: e3f1 25be 802d c4be f080 5ebe bd65 cfbd
000003a0: 9786 18bf d500 16be 7c0c 98bd ced7 cdbe
000003b0: c8fb 893d 002e bd3d 2faa 77be 5662 0ebf
000003c0: 746a 293f 5afd 51bd 323c 943d 36f0 11bf
000003d0: f86a a8bc aca6 693e 2ac4 49be f298 203d
000003e0: ae4c f63c 9192 4cbd c535 67be d936 acbe
000003f0: 7c85 abbe bd41 2f3e e0ec ddbd 04cf a63d

proj.weight f4 [64, 64]
-0.5120736 0.16179724 -0.12564178 -0.12538598 0.4093451 -0.1317583 0.3709743 0.55219275
-0.09370931 0.13839982 0.082642436 -0.29243407 -0.2707047 -0.23224767 0.24718186 -0.052873902
0.18880916 -0.18883367 0.11502123 -0.2537294 0.11211543 0.35102043 0.13604763 0.1516865
-0.00021206873 -0.19706783 0.14301889 -0.10653889 0.34801286 0.08466557 0.1858669 -0.19357698
-0.10870119 0.09535226 0.12153599 -0.24342124 -0.36185864 0.2872957 0.030894993 -0.12539527
0.18077217 -0.11753299 0.04626867 -0.061234243 -0.002289537 0.17868915 0.12153599 0.29352212
-0.01217808 0.23333475 0.03273338 -0.0159344 0.17118022 -0.05202489 -0.37259856 0.25793165
0.53089654 -0.05903328 0.07227483 -0.053400993 0.14681827 0.20281227 0.011036243 0.059918754
0.07433205 0.33635148 0.002965103 0.20400046 0.08862137 -0.018136987 0.041254096 0.12595083
0.33695912 0.07854327 0.14809842 0.02535612 0.06079795 0.08094404 -0.24713391 -0.00074474607
-0.08768869 0.24246468 -0.13903758 -0.048917994 0.40518126 0.21223988 -0.14425966 -0.0525013
0.11794725 0.116504274 -0.12332566 0.11479831 -0.097956404 0.059090987 -0.2541357 -0.021373723
0.10703925 -0.28073946 -0.05080874 -0.011394499 0.19910116 -0.10289466 -0.05270466 -0.08088652
-0.19999845 0.31004223 0.0014718 -0.14462082 -0.085809395 0.03837555 -0.20303321 0.118274555
0.02015397 -0.2404736 -0.18431447 0.10479352 0.1061133 -0.12557971 -0.047311313 -0.21298477
-0.115046665 0.3937478 0.12004556 0.038244314 -0.24471223 -0.10151593 -0.108954154 -0.020976204
-0.13790345 0.14536181 -0.13791256 0.10088788 0.08266162 0.072061986 0.19884157 0.18882197
-0.17463526 0.098712735 0.1329406 -0.111415744 0.029558348 -0.0014740124 0.07639861 -0.2086983
-0.117508225 0.14123316 0.16353433 -0.02664896 -0.10607828 -0.006970472 -0.09442852 0.27091518
-0.10000469 -0.17001092 -0.08763248 -0.34820762 0.11937524 0.018645503 0.082813784 -0.19033739
-0.01968911 0.33074713 0.057918586 0.1319638 0.19530421 0.16533102 -0.102266915 -0.038428165
0.03904315 -0.19915462 0.19704443 -0.014539757 0.11651746 0.11764653 0.020996979 0.020468226
0.032432258 0.006223277 0.21784358 0.73186946 0.20848416 0.22485681 -0.09985603 0.17591916
0.11266415 -0.15727915 -0.12777649 0.057610154 0.18567191 0.18092562 0.08869463 -0.06805772
-0.011124792 -0.03173251 -0.11480082 -0.08005416 -0.5286209 -0.12512644 -0.0042278115 0.0064196163
0.020318342 -0.1669175 0.03661562 -0.14574696 0.14109372 0.026937066 -0.1314736 0.25016847
-0.18775225 -0.06604045 -0.04071883 0.03451075 0.081318595 -0.40840718 0.20588948 -0.11036827
-0.13571231 0.023295568 -0.24120443 0.08095773 -0.3498716 -0.0060359696 -0.17826895 0.106527284
0.006227628 0.0063902074 0.099205896 0.22751553 -0.121137656 -0.12481001 0.0951008 0.20830053
0.065507494 0.12063412 -0.11903492 0.028921133 0.24719945 -0.033996947 -0.21225202 -0.18810341
-0.18590228 -0.15750085 -0.091064736 -0.7113216 0.15272531 -0.22687013 -0.014614192 -0.178702
-0.33572292 -0.00855863 -0.37020323 -0.18817464 0.09485966 -0.3368906 -0.13460222 -0.193282
00000000: 4117 03bf 2dae 253e 3da8 00be 2f65 00be
00000010: ae95 d13e a6eb 06be 58f0 bd3e 815c 0d3f
00000020: abea bfbd afb8 0d3e 7040 a93d ebb9 95be
00000030: ce99 8abe 55d2 6dbe 3e1d 7d3e 4e92 58bd
00000040: 3057 413e 9d5d 41be 4090 eb3d d2e8 81be
00000050: c69c e53d f3b8 b33e 1250 0b3e b553 1b3e
00000060: c45e 5eb9 26cc 49be 8b73 123e 1031 dabd
00000070: be2e b23e 2465 ad3d e553 3e3e 0b39 46be
00000080: bb9e debd 0c48 c33d dce7 f83d 6b43 79be
00000090: 8945 b9be 6c18 933e 7f17 fd3c 9e67 00be
000000a0: 571c 393e 23b5 f0bd 3884 3d3d c2d0 7abd
000000b0: 0f0c 16bb 4afa 363e dce7 f83d 8848 963e
000000c0: 9286 47bc 4eef 6e3e 7013 063d dc88 82bc
000000d0: de49 2f3e 0d18 55bd 3dc5 bebe 9e0f 843e
000000e0: d6e8 073f e1cc 71bd d304 943d 00bb 5abd
000000f0: 8757 163e 05ae 4f3e 5cd1 343c 5e6d 753d
00000100: 673b 983d 4336 ac3e 2c52 423b 7fe5 503e
00000110: 1f7f b53d 0594 94bc 0efa 283d 41f9 003e
00000120: e885 ac3e 4bdb a03d 1da7 173e a3b7 cf3c
00000130: 4507 793d fdc5 a53d ac10 7dbe 103b 43ba
00000140: 2196 b3bd a948 783e de5f 0ebe 3c5e 48bd
00000150: eb73 cf3e 6955 593e ceb8 13be 9a0b 57bd
00000160: 548e f13d cb99 ee3d 2a92 fcbd 601b eb3d
00000170: 5e9d c8bd 6409 723d 131e 82be f217 afbc
00000180: 6537 db3d 15bd 8fbe d31c 50bd feaf 3abc
00000190: 2de1 4b3e 6fba d2bd d7e0 57bd d5a7 a5bd
000001a0: 65cc 4cbe dbbd 9e3e 6ae9 c03a 7b17 14be
000001b0: d6bc afbd ae2f 1d3d f0e7 4fbe ee39 f23d
000001c0: f019 a53c b63e 76be efbc 3cbe fc9d d63d
000001d0: ee51 d93d f897 00be 82c9 41bd ae18 5abe
000001e0: 969d ebbd 5099 c93e 72da f53d 12a6 1c3d
000001f0: d895 7abe 95e7 cfbd 5b23 dfbd 4ad6 abbc
00000200: 9036 0dbe bad9 143e f338 0dbe 4e9e ce3d
00000210: 7f4a a93d 3c95 933d 209d 4b3e 8c5a 413e
00000220: 96d3 32be e729 ca3d 9521 083e f02d e4bd
00000230: 5924 f23c a633 c1ba e076 9c3d 02b5 55be
00000240: 27a8 f0bd 6d9f 103e 8b75 273e eb4e dabc
00000250: 923f d9bd 8f68 e4bb bd63 c1bd 65b5 8a3e
00000260: 42cf ccbd 5817 2ebe a878 b3bd 4548 b2be
00000270: 017b f43d 74be 983c 469a a93d cee7 42be
00000280: 0e4b a1bc b057 a93e 0a3c 6d3d 8521 073e
00000290: d4fd 473e 894c 293e 5171 d1bd da66 1dbd
000002a0: b6eb 1f3d 30ef 4bbe 04c6 493e 2938 6ebc
000002b0: b5a0 ee3d aaf0 f03d db01 ac3c fbac a73c
000002c0: b0d7 043d a2ec cb3b 6312 5f3e cc5b 3b3f
000002d0: df7c 553e dd40 663e 5181 ccbd 2724 343e
000002e0: 76bc e63d c90d 21be d7d7 02be a0f8 6b3d
000002f0: c720 3e3e 9144 393e 88a5 b53d d961 8bbd
00000300: c244 36bc f3f9 01bd b11c ebbd 6ff3 a3bd
00000310: b353 07bf 2521 00be 7489 8abb a55b d23b
00000320: a772 a63c 6cec 2abe 43fa 153d b13e 15be
00000330: df7a 103e 1fab dc3c 04a1 06be 1516 803e
00000340: 2042 40be 3740 87bd cac8 26bd 255b 0d3d
00000350: 5d8a a63d bf1a d1be b1d4 523e c208 e2bd
00000360: 2bf8 0abe 59d6 be3c 4bfe 76be 2bcd a53d
00000370: 5f22 b3be 62c9 c5bb 238c 36be fa2a da3d
00000380: 2111 cc3b f264 d13b 762c cb3d d5f9 683e
00000390: 0517 f8bd 649c ffbd 35c4 c23d bc4c 553e
000003a0: cb28 863d 060f f73d 95c8 f3bd 03ec ec3c
000003b0: da21 7d3e 6240 0bbd 9858 59be 2e9e 40be
000003c0: 2b5d 3ebe e747 21be 2680 babd 2c19 36bf
000003d0: 0664 1c3e a550 68be 5d70 6fbc a8fd 36be
000003e0: e0e3 abbe 7f39 0cbc 478b bdbe dab0 40be
000003f0: c845 c23d ed7c acbe 2ad5 09be b7eb 45be

proj.bias f4 [64]
-0.03977827 -0.0016423112 -0.086036235 0.14182556 -0.016735623 -0.17117359 -0.02393577 0.10357359
-0.0653925 -0.08120206 0.18347402 0.091883816 -0.11338577 -0.019708058 0.059269443 0.047080524
0.019698737 0.04168715 -0.092672125 -0.010404634 -0.02276258 0.051425748 -0.13392092 -0.044314656
0.072309166 -0.127413 0.009529943 -0.0038669796 -0.03235132 -0.0431214 0.07163237 -0.107272044
0.00023192444 0.018317766 -0.004200927 -0.11149073 0.0918715 -0.097705565 -0.15868877 -0.09854903
0.2292348 0.052814092 -0.044526923 0.029758511 0.025151076 -0.17935345 0.025737751 -0.043205053
0.13028319 -0.039241266 -0.031824358 -0.03431704 -0.046582833 0.0468733 -0.031213818 0.032780904
-0.0040129106 0.018687667 0.040699653 0.054036405 0.11519363 0.07418595 0.058415174 0.013385354
00000000: 8aee 22bd d242 d7ba c433 b0bd b83a 113e
00000010: 2519 89bc 2148 2fbe f314 c4bc 641e d43d
00000020: 81ec 85bd 444d a6bd 9de0 3b3e 952d bc3d
00000030: cc36 e8bd cb72 a1bc 84c4 723d 82d7 403d
00000040: 3f5f a13c 25c0 2a3d e2ca bdbd 3378 2abc
00000050: 9778 babc cea3 523d 9122 09be 4983 35bd
00000060: d416 943d 8e78 02be 7a23 1c3c 276d 7dbb
00000070: d182 04bd 11a0 30bd feb3 923d 72b1 dbbd
00000080: be30 7339 240f 963c eea7 89bb 4055 e4bd
00000090: 2027 bc3d db19 c8bd 4f7f 22be 13d4 c9bd
000000a0: 87bc 6a3e 9753 583d dd61 36bd 1fc8 f33c
000000b0: a109 ce3c 6ea8 37be fad7 d23c c8f7 30bd
000000c0: f568 053e 73bb 20bd 425a 02bd 0690 0cbd
000000d0: a4cd 3ebd 38fe 3f3d 1fb4 ffbc 4545 063d
000000e0: bc7e 83bb e116 993c aeb4 263d 4755 5d3d
000000f0: a3ea eb3d ceee 973d c044 6f3d 3e4e 5b3c
