checkpoints/curve70_gcn.pt (torch, 54384 bytes, 7 tensors)

convs.0.bias f4 [64]
0	0x3e95ff5d	0.2929639
1	0xbec0cc33	-0.37655792
2	0xbb306717	-0.0026916915
3	0x00000000	0.0
4	0x00000000	0.0
5	0x3e30fa83	0.17283063
6	0xbbeb6c01	-0.007184506
7	0xbe04afd8	-0.12957704
8	0x3ea089d5	0.31355157
9	0xbf8fb8cf	-1.1228274
10	0xbd8de506	-0.069284484
11	0xbdc534d2	-0.09629215
12	0x00000000	0.0
13	0xbc24c81d	-0.010057476
14	0xbf17c884	-0.5929034
15	0x3e79693e	0.24356553
16	0xbe291d41	-0.16515066
17	0x00000000	0.0
18	0x3e28b7b0	0.16476321
19	0xbeeb8f1d	-0.46007624
20	0xbd20f978	-0.039300412
21	0x00000000	0.0
22	0xbd9ea8dd	-0.07747052
23	0x00000000	0.0
24	0xbb878585	-0.00413579
25	0xbda9aaef	-0.08284556
26	0xbe8a7601	-0.27043155
27	0xbcea5005	-0.02860261
28	0xbeb1fbae	-0.3476233
29	0x3e7e6d42	0.24846366
30	0xbc2e28e5	-0.010629867
31	0x00000000	0.0
32	0xbeab4e59	-0.33458212
33	0x00000000	0.0
34	0xbc5ddb73	-0.01354109
35	0xbe31257d	-0.17299457
36	0x00000000	0.0
37	0x3db6303a	0.08895917
38	0x00000000	0.0
39	0x00000000	0.0
40	0x3e952683	0.29130945
41	0xbebf6a8b	-0.37385973
42	0x00000000	0.0
43	0xbeecdd55	-0.46262613
44	0xba40ae3c	-0.00073501817
45	0xbe3a9fe2	-0.18225053
46	0xbd0baeb3	-0.034102153
47	0x00000000	0.0
48	0xbe300bdd	-0.17192025
49	0x3bc41f33	0.0059851645
50	0x00000000	0.0
51	0xbae64562	-0.0017568285
52	0xbf077806	-0.52917516
53	0x3c81e42f	0.015855877
54	0x00000000	0.0
55	0x00000000	0.0
56	0xbb2affb2	-0.0026092348
57	0x00000000	0.0
58	0x00000000	0.0
59	0xba89c384	-0.0010510539
60	0xbe7ee2c3	-0.2489119
61	0x00000000	0.0
62	0x00000000	0.0
63	0x00000000	0.0

convs.0.lin.weight f4 [64, 2]
0	0x3e4dbf49	0.20092501
1	0xbece1238	-0.40248275
2	0x3e565ab9	0.20933045
3	0xbe851b98	-0.25997615
4	0xbf4764e8	-0.77888346
5	0xbe1685ac	-0.1469943
6	0xbda9e68e	-0.08295928
7	0xbdecb3b8	-0.11557716
8	0xbe802422	-0.25027567
9	0xbe9978ed	-0.29975072
10	0xbdf10e38	-0.1177029
11	0xbec0ae73	-0.37633094
12	0xbd86986a	-0.065720394
13	0xbec33369	-0.3812516
14	0x3dc4d42f	0.09610783
15	0xbe9be9e1	-0.30451873
16	0xbefdc1bc	-0.4956187
17	0xbecd2a65	-0.40071407
18	0x3e4da6a4	0.200831
19	0x3eea11b6	0.45716637
20	0x3f2b30f2	0.6687156
21	0xbf268866	-0.6505188
22	0x3d2a2503	0.041539203
23	0xbe1140cd	-0.14184876
24	0xbd075610	-0.03304106
25	0xbe671834	-0.22567827
26	0x3f36aece	0.7136048
27	0xbf1dadbd	-0.6159323
28	0x3e1bf26f	0.152292
29	0xbd713767	-0.058890726
30	0x3e90ff1f	0.28319642
31	0xbeb51836	-0.35370034
32	0x3ed11e71	0.40843537
33	0x3d12f380	0.03587675
34	0x3d1ede88	0.03878644
35	0xbe880aec	-0.26570833
36	0x3eea29d1	0.45735028
37	0xbebb68c8	-0.3660338
38	0x3c82bdb8	0.015959606
39	0x3ee06545	0.43827263
40	0x3d2bd768	0.041953474
41	0xbe42a572	-0.19008425
42	0xbe1c44e9	-0.15260662
43	0xbc6be960	-0.014398903
44	0x3d9fce97	0.07803076
45	0xbe84d355	-0.25942484
46	0xbe3029e4	-0.1720348
47	0xbdd374f4	-0.103250414
48	0xbec3e430	-0.3826003
49	0xbce056a0	-0.027385056
50	0x3da37753	0.07981744
51	0xbedea5d3	-0.4348589
52	0x3d6a6baa	0.057231583
53	0x3c349516	0.011021873
54	0x3cbf916a	0.023384769
55	0xbe09e58e	-0.13466474
56	0x3f0f7166	0.5603241
57	0x3d284b23	0.04108728
58	0x3ea71e27	0.32640192
59	0xbf253b48	-0.6454358
60	0xbd8d0acb	-0.06886824
61	0xba89cba1	-0.0010512957
62	0xbd5a2a88	-0.053263217
63	0xbdb803a4	-0.089850694
64	0x3e0b6670	0.13613296
65	0xbd4e1768	-0.05031529
66	0xbcf48580	-0.029848814
67	0xbd8a4158	-0.067507446
68	0xbd2dcc64	-0.04243125
69	0xbda9af4f	-0.082853906
70	0x3d9c9f61	0.076475866
71	0xbd00ccf7	-0.03144547
72	0xbe8c3608	-0.27384973
73	0xbde3e10a	-0.11126907
74	0x3e8f8e32	0.28038174
75	0xbe018e83	-0.1265202
76	0xbc75b3a0	-0.014996439
77	0xbe3a254e	-0.18178293
78	0xbe3ce4b4	-0.18446618
79	0xbe8a486f	-0.27008387
80	0xbf97df83	-1.1865085
81	0x3c1a5a82	0.009420993
82	0x3d90f264	0.07077482
83	0xbb6dbaf4	-0.0036274763
84	0xbe887533	-0.26651916
85	0xbe39ab52	-0.1813176
86	0x3d1d612d	0.038422752
87	0x3ef6277c	0.48077
88	0xbc6a0ec1	-0.014285744
89	0xbe0a734c	-0.13520545
90	0x3f306c5e	0.68915355
91	0xbee77c28	-0.4521191
92	0xbfe47293	-1.7847465
93	0x3e91cd7b	0.28477082
94	0xbe0c635a	-0.13709775
95	0xbd779314	-0.060443
96	0xbece05b6	-0.40238732
97	0x3cb7f4b7	0.022455556
98	0x3e97ec37	0.29672405
99	0xbd9ae97d	-0.075640656
100	0xbe574821	-0.21023609
101	0xbe985b90	-0.29757357
102	0xbf616ef5	-0.8805993
103	0xbdadf3f8	-0.08493799
104	0x3ee7dd5e	0.45286077
105	0x3e7d357d	0.24727435
106	0x3e920935	0.2852265
107	0xbd0d8594	-0.03455122
108	0xbb418080	-0.0029526055
109	0xbe6acdef	-0.2293012
110	0xbe844360	-0.25832653
111	0xbe9064b1	-0.2820182
112	0x3cfc0b5c	0.030767135
113	0xbe958bc9	-0.2920821
114	0xbd788b88	-0.060679942
115	0xbe31af96	-0.17352137
116	0xbd610b5c	-0.054942474
117	0xbe594eae	-0.2122142
118	0xbeb82cd7	-0.3597171
119	0xbd4f597d	-0.050622452
120	0xbd757a9e	-0.05993139
121	0x3cfc3fbd	0.030792112
122	0xbdc61910	-0.09672749
123	0xbe627cb5	-0.22117884
124	0xbd59e680	-0.053198338
125	0xbe15aa24	-0.14615685
126	0xbdbceae0	-0.09224486
127	0xbe92f694	-0.2870375

convs.1.bias f4 [64]
0	0x3db78bd8	0.0896222
1	0xbe065eb7	-0.13122068
2	0x3e32a28a	0.17444816
3	0xbe407b58	-0.18797052
4	0xbdf88990	-0.12135613
5	0xbe7c9908	-0.24667752
6	0xbeb3a110	-0.35083818
7	0xbe6ee2e7	-0.23328744
8	0x3d432765	0.04764499
9	0xbe09863e	-0.13430116
10	0xbe167822	-0.14694265
11	0xbd9161d3	-0.070987366
12	0xbd028f70	-0.031875074
13	0x3ec1e370	0.37868834
14	0x3e246683	0.1605473
15	0xbdee41d2	-0.11633648
16	0xbde30e9f	-0.11086773
17	0xbb70c3fd	-0.0036737912
18	0xbe5ff6d5	-0.21871503
19	0xbe052f87	-0.13006411
20	0xbd038f50	-0.032119095
21	0x3d2ebf17	0.042662706
22	0xbdd1449f	-0.102181666
23	0x3e3c0e8f	0.18364929
24	0x3daefdfe	0.08544539
25	0xbde10c61	-0.10988689
26	0xbe1f30cf	-0.15545963
27	0x3e281c68	0.16417086
28	0xbe053d34	-0.13011628
29	0xbde40879	-0.111344285
30	0xbc516ddb	-0.012782539
31	0xbe1b363b	-0.15157406
32	0x3d23aca0	0.03995955
33	0xbdd1cfef	-0.10244738
34	0x3deb9082	0.11502172
35	0xbcc22591	-0.023699554
36	0xbe0b5af7	-0.13608919
37	0xbdc2bf96	-0.09509198
38	0xbdd3c936	-0.10341112
39	0x3e42c364	0.19019848
40	0xbe0216c3	-0.12703995
41	0xbe15a61b	-0.14614145
42	0xbde89002	-0.11355592
43	0xbe7f3539	-0.24922647
44	0xbd8c428f	-0.068486325
45	0x3e815cca	0.25266105
46	0xbde9c457	-0.11414402
47	0x3d7dc303	0.061953556
48	0x3e73ec5c	0.23820633
49	0x3ececfcb	0.40392908
50	0xbd9ed60f	-0.07755672
51	0x3d8e5aad	0.06950889
52	0x3dfc8fd9	0.12332124
53	0xbe1e968b	-0.15487115
54	0x3d55aadf	0.05216491
55	0xbc8b12da	-0.016976763
56	0xbdca41f1	-0.098758586
57	0x3ed3a686	0.41337985
58	0xbe5c72a1	-0.21528102
59	0xbdef57ad	-0.11686645
60	0x3eb95378	0.36196494
61	0x3e4b85f4	0.19875318
62	0xbd6f205c	-0.05838047
63	0xbe2bde4a	-0.16784015

convs.1.lin.weight f4 [64, 64]
0	0xbe4b5254	-0.19855624
1	0x3cfea169	0.031082826
2	0xbe1b9709	-0.15194334
3	0xbe20d266	-0.1570526
4	0x3db39e86	0.0877047
5	0xbd9765f0	-0.0739249
6	0xbe11e00c	-0.14245623
7	0xbd07c331	-0.033145133
8	0xbe59fbf9	-0.21287526
9	0xbeddf93e	-0.4335422
10	0xbe01ba8a	-0.12668815
11	0x3cd9fb75	0.026609162
12	0xbac82780	-0.0015270561
13	0xbe6b83e0	-0.22999525
14	0x3d65da9f	0.056116696
15	0xbe7caeae	-0.2467601
16	0xbf4fc5c8	-0.81161165
17	0xbd6ab1bc	-0.057298407
18	0xbed03846	-0.40667933
19	0xbe3ef281	-0.18647195
20	0xbe2f45e0	-0.17116499
21	0x3d1af3dc	0.03783022
22	0xbe2a87ee	-0.16653416
23	0x3dab7e66	0.08373718
24	0x3db20ffd	0.08694456
25	0xbd9cc7df	-0.0765531
26	0xbe0a14e4	-0.13484532
27	0xbe2ca361	-0.16859199
28	0x3d927d90	0.071528554
29	0xbe9fd95c	-0.3122052
30	0xbdc629b8	-0.09675926
31	0x3e05ed1d	0.13078733
32	0x3d3189ee	0.04334443
33	0xbe485116	-0.19562182
34	0x3d8254ec	0.06363854
35	0xbe05a428	-0.13050902
36	0xbd19c39c	-0.037540063
37	0xbf231f79	-0.637199
38	0xbcbec568	-0.02328749
39	0xbe19f9b5	-0.15036662
40	0x3ea739cf	0.32661292
41	0xbf037533	-0.51350707
42	0xbd9847a8	-0.07435542
43	0xbd13fad7	-0.03612789
44	0x3e47ae3e	0.19500062
45	0x3debbcc9	0.11510617
46	0xbf603a81	-0.8758927
47	0x3d93f676	0.07224743
48	0xbec4991b	-0.3839806
49	0xbf490d65	-0.78536063
50	0xbd89ec8c	-0.06734571
51	0xbd6a49b1	-0.057199184
52	0xbee54ce4	-0.44785225
53	0xbf888cd9	-1.0667983
54	0x3de5141a	0.11185475
55	0x3e2cc883	0.16873364
56	0xbd15e4a7	-0.036595013
57	0x3e4a8c7d	0.19780155
58	0xbe517742	-0.2045565
59	0xbe0fc290	-0.14039063
60	0x3ccc3223	0.02492625
61	0x3d6366cc	0.055517957
62	0x3dd0d0ea	0.10196097
63	0xbe131dc4	-0.14366823
64	0xbdd09806	-0.10185246
65	0xbef16b6c	-0.4715227
66	0xbe40dade	-0.18833491
67	0xbc713dd0	-0.01472421
68	0xbe5762b1	-0.21033742
69	0xbe6fdc53	-0.23423891
70	0xbe0e4fae	-0.13897583
71	0x3e2c22d7	0.16810165
72	0xbc006529	-0.007836618
73	0xbe6b614d	-0.22986336
74	0x3d8f293a	0.06990285
75	0xbe08066d	-0.13283701
76	0xbe516316	-0.20447955
77	0xbea372f7	-0.3192365
78	0xbe7ee8f1	-0.24893548
79	0xbd4be9f7	-0.049783673
80	0xbe557f77	-0.20849405
81	0xbd6f63a4	-0.058444634
82	0xbeb83c0a	-0.35983306
83	0xbd6711f1	-0.056413595
84	0xbdb14737	-0.08656161
85	0xbe16eead	-0.14739485
86	0x3e12b5fa	0.14327231
87	0x3e3ae00d	0.18249531
88	0xbe18e50a	-0.14931121
89	0x3e26eb06	0.16300592
90	0xbe0d0a0a	-0.13773361
91	0xbc57fb52	-0.013182478
92	0xbdfe8a90	-0.124287724
93	0xbe39b8e5	-0.18136938
94	0x3e58c63d	0.21169372
95	0x3e0867ef	0.13320898
96	0xbe71d600	-0.23616791
97	0xbe06eb7a	-0.13175765
98	0xbe40d7a5	-0.18832262
99	0xbdc94219	-0.0982706
100	0xbe26c2fe	-0.16285321
101	0xbea6d5ab	-0.3258489
102	0xbe0e1aa0	-0.13877344
103	0xbe5b30e6	-0.21405372
104	0xbe447cab	-0.19188182
105	0x3d36c228	0.044618756
106	0x3df7adf6	0.12093727
107	0x3d94c5f1	0.07264317
108	0xbde0ee41	-0.10982943
109	0xbe473f4e	-0.19457743
110	0xbe8254cf	-0.2545533
111	0x3b8a8f20	0.0042284876
112	0xbe5fb20f	-0.21845268
113	0xbe1bc726	-0.15212688
114	0xbe0e16c0	-0.13875866
115	0x3c93602d	0.017990196
116	0x3d284805	0.04108431
117	0xbe024b7a	-0.12724105
118	0x3e21b837	0.15792929
119	0xbe1de607	-0.1541978
120	0xbe382c94	-0.17985755
121	0xbe08e582	-0.133688
122	0xbcc4c710	-0.024020702
123	0xbddfbc46	-0.10924582
124	0xbdf71987	-0.12065416
125	0xbe5626c5	-0.20913227
126	0xbda46952	-0.08027901
127	0x3ced8538	0.028994188
128	0xbfc13858	-1.509532
129	0xbecaa74c	-0.39580762
130	0xbdf9492e	-0.12172161
131	0x3e2463b7	0.16053663
132	0xbe05aa2a	-0.13053194
133	0x3e23aabb	0.15983097
134	0x3ee89ae8	0.45430684
135	0xbe43057e	-0.19045064
136	0xbe16fc52	-0.1474469
137	0x3cad61ee	0.02116486
138	0xbea9f2c9	-0.33193043
139	0x3d8bc8d1	0.06825412
140	0xbdb86464	-0.09003523
141	0xbe0d26ff	-0.13784407
142	0xbe44330c	-0.19160098
143	0xbfa2a89f	-1.2707709
144	0x3ba6813b	0.0050813234
145	0xbe531a4b	-0.20615499
146	0xc00911ad	-2.1417038
147	0xbe254591	-0.16139819
148	0xbe3b6ac8	-0.18302453
149	0xbc890198	-0.016724393
150	0x3e1b43b8	0.15162551
151	0xbd7d1bcc	-0.061794087
152	0xbdce70d8	-0.10080117
153	0xbcdc3f2d	-0.026885593
154	0x3c3e53d9	0.0116166705
155	0x3cc61e3f	0.024184344
156	0xbfc718e4	-1.5554471
157	0xbf42af97	-0.7604918
158	0xbccb7105	-0.024834165
159	0xbce1d090	-0.02756527
160	0xbe790590	-0.24318528
161	0x3df7b38a	0.12094791
162	0xbdab1c66	-0.08355026
163	0xbe5af300	-0.2138176
164	0xbe205e4b	-0.1566097
165	0x3f3abec9	0.72947365
166	0xbdd7e143	-0.10541012
167	0x3e2f1aa5	0.17100008
168	0xbe49dde1	-0.19713546
169	0x3e6269b6	0.22110638
170	0xbe34bb92	-0.17649677
171	0xbe61b79d	-0.22042699
172	0x3d49fcf6	0.049313508
173	0xbf9f6ce7	-1.2455109
174	0xbe84be90	-0.25926638
175	0x3d95d802	0.07316591
176	0xbdb3aeba	-0.08773561
177	0x3f3c6b14	0.7360089
178	0x3d4b7e84	0.0496812
179	0x3d7eface	0.062250905
180	0xbf95bc21	-1.1698037
181	0x3f48286f	0.78186697
182	0x3e25f155	0.16205342
183	0x3dd3f81a	0.10350056
184	0xbc7155a1	-0.014729888
185	0xbe14797d	-0.14499469
186	0xbe147bfa	-0.14500418
187	0x3d3a0265	0.04541244
188	0x3e01160f	0.12606071
189	0x3e48127f	0.19538306
190	0xbce6ed38	-0.028189287
191	0xbd230578	-0.039800137
192	0x3de28ec9	0.1106239
193	0xbd22652f	-0.039647277
194	0x3ddb3943	0.10704281
195	0xbde22b47	-0.11043411
196	0xbd917b68	-0.07103616
197	0x3c6f1194	0.014591593
198	0x3e0a36a2	0.13497403
199	0xbe4549b9	-0.19266404
200	0xbe1ab329	-0.15107407
201	0x3d94ee50	0.07272017
202	0xbc911cc2	-0.017713908
203	0x3e1a03cb	0.1504051
204	0xbd96325e	-0.073338255
205	0xbe4607f4	-0.19338971
206	0xbe195b20	-0.14976168
207	0xbde38df2	-0.11111058
208	0xbe793cc6	-0.2433959
209	0x3ddbbcea	0.10729392
210	0xbb81eea5	-0.003965216
211	0xbe513b0a	-0.20432678
212	0x3e4cc58f	0.19997238
213	0x3d7c7954	0.061639145
214	0x3d8fa9e5	0.07014827
215	0xbdbad480	-0.091225624
216	0x3d82c232	0.06384696
217	0xbe1da8f6	-0.15396485
218	0x3db5d94c	0.08879337
219	0xbde5e9c2	-0.112262264
220	0xbbfdd31e	-0.0077461144
221	0xbdb68c31	-0.08913458
222	0x3de8aefd	0.11361501
223	0xbe39ef7d	-0.18157764
224	0xbde74c2a	-0.11293824
225	0xbd6f5d4c	-0.058438584
226	0xbdc8affd	-0.09799192
227	0xbe26ce59	-0.16289653
228	0xbd78d7e8	-0.06075278
229	0xbb7bdd1e	-0.0038431357
230	0x3e1d5da3	0.15367751
231	0xbd11ba20	-0.035577893
232	0x3d18a4b1	0.037266437
233	0xbe37f1e3	-0.17963366
234	0xbde44580	-0.111460686
235	0xbda71a0e	-0.081592664
236	0x3a21838a	0.00061612634
237	0x3c082498	0.008309506
238	0x3d74fd02	0.0598116
239	0x3d97d146	0.074129626
240	0xbe86caae	-0.26326507
241	0xbe18e6fd	-0.14931865
242	0xbd302d78	-0.043012112
243	0xbe8877b4	-0.26653826
244	0x3c6a8bbf	0.014315545
245	0x3dcec035	0.10095254
246	0x3ddc37fe	0.10752867
247	0xbb8c7b00	-0.0042871237
248	0xbc3fc897	-0.011705539
249	0xbdcfa4cd	-0.10138855
250	0xbcc509a8	-0.024052456
251	0x3dca5de6	0.09881191
252	0xbe0e22c9	-0.13880457
253	0x3d0de07c	0.034637913
254	0xbe22aafb	-0.15885536
255	0xbd728230	-0.059206188

proj.weight f4 [64, 64]
0	0xbc80fcbe	-0.015745517
1	0xbd225651	-0.0396331
2	0xbc4dc14b	-0.012558292
3	0x3e32762a	0.17427889
4	0xbd65322f	-0.055956062
5	0x3c01c7b3	0.007921147
6	0xbc61068d	-0.013734472
7	0xbe067de8	-0.13133967
8	0xbd6e34dd	-0.058155883
9	0xbdd45fa6	-0.10369806
10	0xbdfcce14	-0.12343994
11	0xbca0b4b1	-0.01961741
12	0x3e36bda4	0.1784578
13	0xbc926105	-0.017868528
14	0x3e0017ff	0.12509154
15	0x3ccdc971	0.025120469
16	0x3e508d3e	0.2036638
17	0xbe6548f3	-0.22391109
18	0xbe9b45cc	-0.30326688
19	0x3d573077	0.052536454
20	0x3d59bea9	0.053160343
21	0x3c068468	0.008210279
22	0x3e21777d	0.15768237
23	0x3d7ba91a	0.061440565
24	0x3d974720	0.07386613
25	0x3c229995	0.009924312
26	0xbe577c6f	-0.21043561
27	0x3a4c2d1c	0.0007788704
28	0x3e2d0d59	0.16899623
29	0x3d09f615	0.033681948
30	0x3e8fbf36	0.2807557
31	0x3d80ecb8	0.062951505
32	0xbdb12f08	-0.086515486
33	0xbd08a28a	-0.033358134
34	0x3bf5a653	0.007496634
35	0xbdcc3aba	-0.09972139
36	0x3d26af5b	0.040694576
37	0xbd454895	-0.048164923
38	0xbc378653	-0.011201459
39	0xbd123824	-0.03569807
40	0x3b30e7fc	0.0026993742
41	0x3de28380	0.11060238
42	0xbc0e2bf7	-0.008677474
43	0x3e437606	0.19087991
44	0x3eab9dc1	0.33518794
45	0x3b46e94d	0.003035146
46	0xbd32bb29	-0.04363552
47	0xbd6d31a7	-0.05790868
48	0x3cd4d274	0.025979258
49	0x3cced29f	0.025246916
50	0xbd061a61	-0.03274
51	0x3d6b968a	0.057516612
52	0xbddb5213	-0.10709014
53	0x3de1d54f	0.110270135
54	0xbd38c1e1	-0.045106772
55	0xbe7ac215	-0.24488099
56	0x3dbad22a	0.09122117
57	0x3e0207d6	0.12698302
58	0xbe8e889f	-0.2783861
59	0x3a940c4f	0.0011295172
60	0x3d19ab4b	0.037516873
61	0xbdfc36ca	-0.12315138
62	0x3d6fb925	0.058526177
63	0x3debacdd	0.115075804
64	0x3cf415b0	0.029795498
65	0xbe0edddc	-0.1395182
66	0x3c6625fa	0.01404714
67	0xbe0f0b2f	-0.1396911
68	0x3e0a4d91	0.13506152
69	0x3e85d13e	0.26136202
70	0xbddbaebf	-0.107266895
71	0x3eafb5d2	0.34318405
72	0x3da4e2bf	0.08051061
73	0x3df1167b	0.11771866
74	0xbdfa561f	-0.122234575
75	0xbd8548ff	-0.065080635
76	0x3f0a3f2e	0.54002655
77	0xbde93779	-0.11387534
78	0x3e7fbeb2	0.24975088
79	0xbe119bec	-0.14219636
80	0x3d35fb63	0.044429194
81	0x3f0ace72	0.5422126
82	0xbd9a0c95	-0.07521931
83	0xbe04fc36	-0.12986836
84	0xbba263df	-0.004955753
85	0x3dd80973	0.10548677
86	0x3d784a17	0.060617533
87	0x3f79e483	0.97614306
88	0x3d98f40d	0.07468424
89	0xbd7b4ee1	-0.06135452
90	0xbe20d2dc	-0.15705436
91	0xbd970687	-0.07374292
92	0xbdbf225c	-0.093327254
93	0xbcf6c471	-0.030122967
94	0xbcb4ca66	-0.022069167
95	0xbde27c66	-0.11058883
96	0xbd9cbaf4	-0.07652846
97	0xbd42709c	-0.047470674
98	0xbd3ee504	-0.046605125
99	0xbd25ff71	-0.04052681
100	0xbdedfdaa	-0.11620648
101	0x3d9ba836	0.07600443
102	0x3e25f670	0.1620729
103	0xbdde9446	-0.10868125
104	0x3e61e99d	0.22061773
105	0xbcda85d2	-0.026675139
106	0x3b73f627	0.0037225576
107	0xbed29131	-0.41126397
108	0x3d28e589	0.041234527
109	0xbe0f5feb	-0.14001434
110	0xbc2ddd5e	-0.01061186
111	0xbcaf05e4	-0.021365114
112	0xbe9e4140	-0.30909157
113	0xbe19da84	-0.15024763
114	0x3de7e49b	0.113229
115	0x3dd6a27c	0.1048021
116	0x3c03b958	0.008039795
117	0xbd16ad1d	-0.036786187
118	0x3d649a46	0.05581119
119	0xbc3cf542	-0.011533083
120	0xbcc35f15	-0.02384905
121	0xbc3a2889	-0.011362203
122	0xbc53c526	-0.012925422
123	0xbdd5671e	-0.10420059
124	0xbe0eb2b7	-0.13935362
125	0x3dfa42fb	0.12219807
126	0x3da3ea22	0.08003642
127	0x3dc06559	0.093943305
128	0x3f6b5eca	0.9194151
129	0xbeb092ab	-0.344869
130	0xbdd9ce34	-0.10635033
131	0x3deaf73c	0.114729375
132	0xbd23c875	-0.039986093
133	0xbe0cf8ae	-0.13766739
134	0x3dcbe293	0.09955325
135	0x3e4c9f00	0.19982529
136	0x3bb50823	0.0055246516
137	0x3d49ae6e	0.049238615
138	0xbd468b8c	-0.048472926
139	0x3e26060f	0.16213249
140	0xbe2c82f4	-0.1684683
141	0x3e55b0fb	0.20868294
142	0xbe269944	-0.16269404
143	0x3dfd7884	0.12376502
144	0x3dd72ded	0.105068065
145	0xbf01bf38	-0.506824
146	0x3e88479d	0.26617137
147	0xbc5226fd	-0.012826678
148	0x3e10e084	0.14148146
149	0x3ca08e8f	0.019599227
150	0xbda79758	-0.081831634
151	0xbfa4fcba	-1.2889626
152	0x3e0bd649	0.13655962
153	0xbe09f3e7	-0.13471948
154	0xbd240ae9	-0.040049467
155	0x3d2e7d84	0.04260017
156	0x3d3fed29	0.046857033
157	0xbdd18bd6	-0.1023175
158	0x3ecfb742	0.40569502
159	0x3e547041	0.20745946
160	0xbf024550	-0.5088701
161	0xbc275d02	-0.010215046
162	0xbe8c640d	-0.27420083
163	0x3e07bdb6	0.13255963
164	0xbdaa54fe	-0.08316992
165	0xbb001a79	-0.001954703
166	0xbdc0bf0a	-0.09411438
167	0x3bf7b9f3	0.0075600087
168	0xbde55d05	-0.11199383
169	0xbe0042a3	-0.1252542
170	0x3be33da4	0.0069348384
171	0x3dc7ebca	0.0976177
172	0x3e4637f6	0.19357285
173	0x3e01c525	0.12672861
174	0x3bdc3808	0.0067205466
175	0xbe63ffff	-0.22265624
176	0x3ed36ba5	0.41293064
177	0x3ecbe1ad	0.39820614
178	0xbdd5cfda	-0.10440035
179	0xbe640657	-0.22268043
180	0xbea089f0	-0.31355238
181	0xbd5bcf6b	-0.053664606
182	0xbe5da9fc	-0.21646875
183	0x3ec5f4f2	0.3866344
184	0x3db6f808	0.08934027
185	0xbeed3ead	-0.4633688
186	0xbe2037b7	-0.15646254
187	0xbddd2abc	-0.107991666
188	0x3e98c704	0.29839337
189	0xbc5ef09a	-0.013607169
190	0xbdb8c170	-0.0902127
191	0xbe1cdb41	-0.15318014
192	0x3f6f0e19	0.93380886
193	0x3d00e93e	0.031472437
194	0x3ce96530	0.028490633
195	0x3e16c922	0.14725164
196	0xbd0eeb81	-0.034892563
197	0xbd89f27d	-0.06735704
198	0xbd9ca6a0	-0.07648969
199	0xbe7c1e9e	-0.24621055
200	0xbe34afd6	-0.17645201
201	0xbd36445c	-0.044498786
202	0x3c69a437	0.014260343
203	0xbd72e99b	-0.059304815
204	0xbcb33b0f	-0.021878747
205	0x3dbeb555	0.0931193
206	0x3d5c5bd4	0.05379851
207	0x3ba2747f	0.004957735
208	0xbd2d80f5	-0.04235931
209	0xbf158d5e	-0.58418834
210	0x3cdbfa56	0.026852768
211	0xbdab1b89	-0.08354861
212	0xbd1ca058	-0.038238853
213	0x3dc3a1b9	0.095523305
214	0x3b2f90d1	0.0026789198
215	0x3e1f5784	0.15560728
216	0xbd7cc55b	-0.06171165
217	0xbe0d9d86	-0.13829622
218	0x3c21f82d	0.00988583
219	0xbd80b62c	-0.062847465
220	0x3e0e2d1c	0.13884395
221	0x3d9680bc	0.07348773
222	0x3ce623a3	0.028093165
223	0x3e12dac3	0.14341263
224	0xbea23204	-0.31678784
225	0x3e4ed843	0.20199685
226	0xbd596717	-0.05307683
227	0x3c9beb46	0.019033086
228	0xbd8348e5	-0.06410388
229	0x3d8509b7	0.064959936
230	0x3c716e32	0.014735745
231	0x3e511d31	0.20421292
232	0xbe00e2cf	-0.1258652
233	0x3e06dd0f	0.13170265
234	0x3e2c4a79	0.16825284
235	0xbd2cd1fb	-0.04219244
236	0xbe72db9a	-0.23716584
237	0xbd146eef	-0.036238607
238	0xbd93a1e6	-0.07208614
239	0xbd80be4c	-0.06286296
240	0xbbee4b6e	-0.0072721755
241	0x3cef6de5	0.029227206
242	0xbcbd5ecb	-0.02311649
243	0x3c82cec1	0.015967729
244	0xbd7962c9	-0.060885224
245	0x3c867d01	0.016417028
246	0xbdec68f9	-0.115434594
247	0x3f00b55a	0.5027672
248	0xbd056d09	-0.032574687
249	0x3d6419dd	0.055688728
250	0x3d7dffa5	0.06201138
251	0xbd2e76ac	-0.042593643
252	0xbe2a068f	-0.16604064
253	0xbde56eaf	-0.11202752
254	0xbdb733de	-0.0894544
255	0xbb0117f1	-0.0019698108

proj.bias f4 [64]
0	0xbb0cd471	-0.002148893
1	0x3ce16396	0.027513307
2	0x3c760796	0.015016457
3	0x3d0f794d	0.03502779
4	0xbc389b9e	-0.011267571
5	0xbcd0e0a9	-0.025497751
6	0x3e0637e1	0.13107254
7	0x3dc4635a	0.09589262
8	0x3d180be4	0.037120715
9	0xbd1e141d	-0.0385934
10	0x3d018e58	0.03162989
11	0xbe8eb90b	-0.27875552
12	0x3caea614	0.021319427
13	0x3e81d105	0.25354782
14	0xbc6204c1	-0.013795079
15	0xbd0e142a	-0.0346872
16	0xbd2d65a5	-0.042333264
17	0x3bf73faa	0.007545431
18	0x3deb7eb9	0.1149878
19	0x3dc6533f	0.09683847
20	0xbd8728c8	-0.06599575
21	0x3d6451d7	0.05574211
22	0x3d30c90f	0.043160494
23	0x3d3d9026	0.04628005
24	0x3b5a9b86	0.003335686
25	0xba312a3e	-0.0006758309
26	0x3c8771ef	0.01653382
27	0xbe343666	-0.17598876
28	0x3c1fc7c3	0.009752217
29	0x3b040c32	0.002014887
30	0x3c617aa1	0.013762147
31	0x3ced6eee	0.02898356
32	0x3d08af9b	0.033370595
33	0x3bf8a2f4	0.007587785
34	0xbddabd12	-0.106805936
35	0x382ad696	4.0731007e-05
36	0x3cec62f1	0.028855773
37	0xbd785ff9	-0.0606384
38	0x3cc5c938	0.0241438
39	0x3cd5bb1b	0.026090195
40	0xbc6c8490	-0.014435902
41	0xbcc180d2	-0.023620997
42	0x3d2628d0	0.040566266
43	0xbc85a0eb	-0.016312083
44	0x3c0d4d99	0.008624458
45	0x3ed1b260	0.40956402
46	0x3d4776e6	0.048697375
47	0xbc10ef84	-0.0088461675
48	0xbdb18016	-0.086670086
49	0xbcc3c2a2	-0.02389652
50	0xbc07c0b5	-0.008285691
51	0xbd5ccf1c	-0.053908452
52	0xbe88ba90	-0.26704836
53	0xbc6f3b65	-0.014601563
54	0xbb0aa09c	-0.002115286
55	0xbc2d0073	-0.010559189
56	0x3c98690f	0.018604783
57	0xbd94c08c	-0.07263288
58	0xbca72ff3	-0.020408606
59	0xbcbb7b2a	-0.022885878
60	0x3ced3813	0.028957402
61	0x3b8745e4	0.0041282047
62	0x3e13a086	0.14416704
63	0x3e55db42	0.20884421

scorer.bilin.weight f4 [1, 64, 64]
0	0x3d9511d4	0.07278791
1	0x3dd17510	0.10227406
2	0x3e138312	0.14405468
3	0xbe291120	-0.16510439
4	0x3e09598a	0.13413063
5	0x3dba2896	0.090897724
6	0xbd5bf1c2	-0.053697355
7	0xbdaa2744	-0.083082706
8	0xbaff5577	-0.0019480427
9	0x3cb480f9	0.022034155
10	0xbdcae989	-0.099078245
11	0xbc911a2a	-0.017712671
12	0x3d708381	0.058719162
13	0x3c89ce7e	0.016822096
14	0xbdf62e6b	-0.12020572
15	0xbe4e2026	-0.20129451
16	0xbd9471ff	-0.072483055
17	0xbd4fdc51	-0.05074722
18	0x3e324bc8	0.17411721
19	0x3d1fded0	0.03903085
20	0xbe1580e6	-0.14599952
21	0x3db13eb6	0.08654539
22	0x3e163f58	0.14672601
23	0x3c2077c7	0.009794182
24	0x3e39b621	0.18135883
25	0xbc03c398	-0.008042239
26	0x3e006b29	0.12540878
27	0x3d9b5e15	0.07586304
28	0x3d27a2c8	0.040926725
29	0x3d6d0d22	0.057873853
30	0x3dd23110	0.10263264
31	0xbe1d1503	-0.15340047
32	0xbd689684	-0.056784168
33	0xbadcef61	-0.0016856008
34	0xbd9b3da5	-0.07580117
35	0x3e18667c	0.14882845
36	0xbb2c9399	-0.0026333092
37	0xbcf8da6e	-0.030377593
38	0x3e4f7014	0.20257598
39	0x3c83572f	0.016032783
40	0x3da2994e	0.07939397
41	0x3de36c5d	0.11104653
42	0xbe63dd29	-0.22252335
43	0xbe05c214	-0.13062316
44	0xbdeda09b	-0.11602899
45	0xbcb14d11	-0.021643193
46	0x3de8b8e1	0.11363388
47	0x3e123400	0.14277649
48	0x3c2df81b	0.010618235
49	0xbb0a3300	-0.0021087527
50	0x3d02926a	0.031877913
51	0x3e24805b	0.16064589
52	0x3b4dffbc	0.0031432947
53	0x3c73da52	0.014883595
54	0x3d4cebb1	0.05002946
55	0xbd2da463	-0.0423931
56	0x3e2ede78	0.17077053
57	0x3cc98cbc	0.02460324
58	0xbe076403	-0.13221745
59	0x3e8d1a5f	0.27559182
60	0xbd7387c1	-0.059455637
61	0xbd11ff29	-0.03564373
62	0x3e8e286b	0.2776521
63	0xbe308338	-0.17237556
64	0xbdba3dfa	-0.09093852
65	0xbe82b8dc	-0.25531662
66	0xbe12bea3	-0.14330535
67	0xbec37e87	-0.3818247
68	0x3e33445e	0.17506549
69	0xbdeb8d68	-0.115015805
70	0xbd3d6838	-0.04624197
71	0xbe1a7f0d	-0.15087529
72	0xbcea6635	-0.02861319
73	0x3e2a94e5	0.16658361
74	0xbde5cf92	-0.112212315
75	0xbd6cb599	-0.057790373
76	0x3e46052c	0.1933791
77	0xbe2091bf	-0.15680598
78	0xbdabe107	-0.0839253
79	0xbd551cf3	-0.05202956
80	0x3e6764e2	0.22597077
81	0xbe0a6033	-0.1351326
82	0x3da870b3	0.08224621
83	0x3d997812	0.07493605
84	0x3a6a3980	0.000893496
85	0xbe177fa4	-0.14794785
86	0x3d4f5440	0.050617456
87	0xbe013ec9	-0.12621607
88	0x3e01fe12	0.12694576
89	0x3d562d04	0.052289024
90	0xbe435174	-0.1907404
91	0x3dfddfff	0.123962395
92	0x3ce6899f	0.028141795
93	0xbd05354f	-0.032521542
94	0x3d83eddc	0.064418525
95	0x3d043ea6	0.03228631
96	0xbd1eff5a	-0.03881774
97	0xbdcf0c00	-0.10109711
98	0x3e26a97d	0.16275592
99	0x3d29f99c	0.04149781
100	0xbe2a480d	-0.16629048
101	0xbd271b34	-0.040797427
102	0x3e27ef8e	0.16399977
103	0xbda9aa1a	-0.082843974
104	0x3c9f7f66	0.019469928
105	0x3d2d4f86	0.042312168
106	0x3c19b9ce	0.009382678
107	0x3d9ddeff	0.07708549
108	0xbe1b5b05	-0.1517144
109	0xbdaf082d	-0.08546481
110	0xbd187cfc	-0.03722857
111	0x3e0627d5	0.13101132
112	0xbebf4afd	-0.373619
113	0x3dea6a07	0.11446004
114	0xbe878123	-0.2646571
115	0x3c902018	0.017593428
116	0x3d60aa90	0.05485016
117	0x3d2c47e3	0.042060744
118	0x3e900fae	0.28136963
119	0x3e115bb8	0.14195144
120	0xbe1682ec	-0.1469838
121	0x3e01530f	0.1262934
122	0x3e4d1def	0.2003095
123	0xbd32fed9	-0.043700073
124	0xbdb6c6b7	-0.089246206
125	0xbc90f4e2	-0.017694894
126	0xbd94e3b0	-0.072699904
127	0x3e3c594c	0.18393439
128	0x3dacda70	0.08440101
129	0xbcdc6c22	-0.02690703
130	0x3d354be4	0.044261828
131	0xbdab38e1	-0.08360458
132	0xbe51eb68	-0.20499957
133	0x3cbe8959	0.023258852
134	0xbd1093d4	-0.03529723
135	0xbddc40c7	-0.10754543
136	0x3e544b46	0.2073184
137	0xbdc1950d	-0.09452257
138	0xbe0827ae	-0.13296387
139	0x3c81f847	0.015865458
140	0xbd644812	-0.055732794
141	0x3c1a8c06	0.009432798
142	0xbe1847f8	-0.14871204
143	0x3d4b65ff	0.049657818
144	0xbc95e978	-0.018299803
145	0x3e824a3b	0.25447258
146	0xbd850af8	-0.06496233
147	0x3b0c9247	0.0021449493
148	0xbd9fdf0d	-0.078062154
149	0x3c865c20	0.01640135
150	0x3e55ed35	0.20891269
151	0xbe7a41c9	-0.24439158
152	0x3eab3cc1	0.3344479
153	0xbdc4321e	-0.095798716
154	0x3c1130d9	0.008861744
155	0xbdf40066	-0.119141385
156	0x3d517808	0.05113986
157	0xbc82ed02	-0.015982155
158	0xbe76a253	-0.2408536
159	0x3e0672cf	0.13129734
160	0xbd08dec5	-0.033415575
161	0xbe1d6d5f	-0.15373753
162	0xbd810451	-0.062996514
163	0xbd53f923	-0.051751267
164	0x3d5e5c75	0.054287393
165	0xbea7c9fe	-0.32771295
166	0x3d2d2cca	0.042279042
167	0xbe23b9b3	-0.15988807
168	0xbcc99f40	-0.02461207
169	0xbcd31288	-0.025765672
170	0x3e83a169	0.25709084
171	0xbde86612	-0.11347593
172	0x3c224129	0.009903231
173	0x3de77f94	0.113036305
174	0xbe755de2	-0.23961595
175	0xbe00c09b	-0.12573473
176	0x3e0a8861	0.13528587
177	0x3a562055	0.000816827
178	0xbe7c9c8b	-0.24669091
179	0x3e04a9b1	0.12955357
180	0x3a39fb57	0.00070946425
181	0x3d7ec423	0.06219877
182	0xbd152cdd	-0.036419738
183	0x3e189df8	0.1490401
184	0x3e2e1929	0.17001785
185	0xbe864df4	-0.2623135
186	0xbe2bc260	-0.16773367
187	0x3df19fea	0.11798079
188	0xbc7ae63c	-0.015313681
189	0x3d40f09c	0.047104463
190	0xbdfff961	-0.12498737
191	0xbe9fc215	-0.3120276
192	0x3c48912c	0.012241643
193	0xbcbaf808	-0.022823349
194	0xbd581cca	-0.05276183
195	0x3d91af16	0.07113473
196	0xbd213d8b	-0.039365333
197	0xbe54319d	-0.20722051
198	0xbbe67f0d	-0.0070341886
199	0x3d9799a8	0.074023545
200	0xbded1453	-0.11576142
201	0xbd31d692	-0.04341752
202	0xbc240546	-0.010011023
203	0x3ddda274	0.10822001
204	0xbd7321c9	-0.059358392
205	0xbd87aeac	-0.06625113
206	0x3e202946	0.15640745
207	0x397a0c1a	0.00023846366
208	0xbc2e5f6a	-0.010642866
209	0x3ddc996a	0.10771449
210	0x3dd74398	0.10510939
211	0x3d9c4806	0.07630925
212	0x3dca4988	0.09877306
213	0xbe890a11	-0.26765493
214	0x3d9dc506	0.07703595
215	0xbe0a0344	-0.13477808
216	0xbe77e9c8	-0.24210274
217	0xbcd9f65e	-0.026606735
218	0xbcf5c8bb	-0.030002942
219	0xbe19aff3	-0.15008526
220	0x3e1729bb	0.14762013
221	0x3e064215	0.13111146
222	0x3d65612e	0.05600088
223	0xbdf820cd	-0.12115631
224	0xbdcd8d1b	-0.10036679
225	0x3d728094	0.059204653
226	0x3cbb755e	0.022883113
227	0xba38da21	-0.00070515467
228	0xbd366f3a	-0.044539668
229	0xbe1924e0	-0.14955473
230	0xbd66debf	-0.05636477
231	0x3dad795f	0.08470415
232	0x3d952b33	0.0728363
233	0x3a5bdd45	0.0008387159
234	0xbd493e65	-0.04913177
235	0xbd7b1c74	-0.061306432
236	0x3c41bdb3	0.011825013
237	0x3bcbb76e	0.006216935
238	0xbde5c7a6	-0.112197205
239	0xbd23646f	-0.039890703
240	0xbd8347d8	-0.064101875
241	0x3d370283	0.04468013
242	0xbdba19b2	-0.09086932
243	0xbe9f2f1c	-0.3109063
244	0x3de8c9bf	0.11366605
245	0x3e96cd23	0.29453382
246	0xbd6545f8	-0.05597493
247	0xbd4c8614	-0.049932554
248	0x3d93f072	0.07223596
249	0xbd98b833	-0.07457008
250	0xbd9fc4c9	-0.07801206
251	0x3db46dc6	0.0881
252	0x3d55b622	0.05217565
253	0x3ccc8bec	0.024969064
254	0xbd0bd82b	-0.0341417
255	0x3d006f7f	0.03135633
