checkpoints/curve30_sage_v2.pt (torch, 71976 bytes, 9 tensors)

convs.0.lin_l.weight f4 [64, 2]
00000000: 2af3 9cbe ce5d ebbd 62c6 ed3e ff90 953e
00000010: 373a 29be 9734 10bf ecd4 0bbf 7764 56bf
00000020: a20b 43bf 1172 83bd 8811 f03d 2276 34be
00000030: fea0 3dbf 8547 fcbe 8456 473e 1475 01bf
00000040: ea54 98be 3aae 763d 1580 edbe bb7c b3be
00000050: 63c7 da3c 3ae6 9bbd a2f0 cebe d99c 48bf
00000060: 0854 12bf 9bdb c1be 1af5 0e3f 094a 0bbf
00000070: 609a b2be 8f38 6f3e 1972 1e3e 2f24 773e
00000080: 0a91 793e f3ee c2bd 0c8a 43bf f9fd 233d
00000090: 9748 003e f112 1bbe 12f5 debe ff16 0a3f
000000a0: f79b 90be d4e8 f0be 1e63 2fbf 346e e3ba
000000b0: 5302 923d d9f7 5cbe fe7f 7a3d 4d01 02bf
000000c0: 8c74 0dbf ccb4 33be 41e8 c63e af33 cd3d
000000d0: 94ca d2be a0fb bbbd c971 05bf eba7 aebe
000000e0: 1c50 283d 875a fc3e e443 e93e 1bda 44bf
000000f0: a0fa fa3e 699f 20bf 27f4 89bd fde1 943e
00000100: d105 25be d075 bf3e e03c 1abf b448 8abe
00000110: d04e a73e a66a c1bd 4ec2 68be 2fb6 47be
00000120: 31c2 893e 8f11 1c3d d807 683e dc73 cbbe
00000130: 77b6 1dbf d335 babd 42d3 803e 751a aebe
00000140: 91da 6fbe 7492 f13d 7922 72be 24cd 07be
00000150: 2032 32be e3ed 23bf 998e 90bf 2f6b d9be
00000160: 2c1c 96be c618 9d3e 64c9 52be 35a3 8dbe
00000170: c09d 4b3e 36a9 f1bd 9419 f73e a289 d0be
00000180: 59c9 febe 0466 cfbd ab96 04bf a941 d1be
00000190: c60e 3f3d c1b8 c8bd 6cff dbbe a606 7c3e
000001a0: 12fe 823e 649f 89be e9d2 4b3e 09b5 f7be
000001b0: f866 93be 48e9 2e3d 0b02 8e3e dd7b 63be
000001c0: b5f4 86be 5353 563e 1d85 57bf a760 a33d
000001d0: 9674 32be 9b4a 823e d416 0fbe a092 af3d
000001e0: f40a bbbe 0f23 183e 9b26 083d 1359 ba3e
000001f0: 94f7 0e3f 84b9 cdbe 22a8 6cbf c8c3 0d3f
-0.3065427 -0.11492501 0.46440417 0.29212186 -0.16526113 -0.56330246 -0.5462177 -0.8374705
-0.76189625 -0.06418241 0.11722094 -0.17623189 -0.7407378 -0.49273315 0.19466597 -0.5056927
-0.29752284 0.06022475 -0.4638678 -0.350561 0.026706403 -0.076122716 -0.40417963 -0.7836433
-0.5715947 -0.37862858 0.55842745 -0.54409844 -0.34883404 0.23361419 0.15473212 0.24134897
0.24371734 -0.09518232 -0.7638252 0.04003713 0.12527691 -0.15143944 -0.4354635 0.5394134
-0.28243992 -0.47052634 -0.68510616 -0.0017351569 0.071293496 -0.21578921 0.06115722 -0.50783235
-0.5525596 -0.17549437 0.3884907 0.100196235 -0.4117018 -0.09178853 -0.5212675 -0.34112486
0.041092023 0.49287817 0.4555961 -0.768953 0.49019337 -0.6274324 -0.067360215 0.29078665
-0.161155 0.3739457 -0.6024914 -0.27008593 0.32677317 -0.0944417 -0.22730371 -0.19503091
0.2690597 0.038102683 0.22659242 -0.3973683 -0.61606544 -0.090922974 0.25161177 -0.3400456
-0.2342322 0.11795512 -0.23645963 -0.13261849 -0.17401934 -0.6403486 -1.1293517 -0.42464587
-0.29318368 0.30682963 -0.20584637 -0.2766358 0.19884396 -0.117998526 0.48261702 -0.40730006
-0.4976299 -0.1012688 -0.517924 -0.40870407 0.04664495 -0.09800864 -0.4296831 0.24611911
0.25584465 -0.26879418 0.19904675 -0.48380306 -0.28789496 0.042702943 0.27735934 -0.22215219
-0.26358572 0.20930223 -0.8418749 0.07977419 -0.17427287 0.25447544 -0.13973552 0.085728884
-0.36531794 0.14857124 0.033239942 0.36396083 0.55846524 -0.401806 -0.9244405 0.55376863

convs.0.lin_l.bias f4 [64]
00000000: 81bf b23e 1070 2ebf 7c6e 20be 1d46 58bf
00000010: 3e72 47bf bc59 9bbe 4e4c a93e 068d 683d
00000020: 9094 1fbf 852e 213f 0d86 5dbe 88dc f3be
00000030: e8fd b0bd 0fdd 90be c481 17bd a369 4bbf
00000040: 8c5c bf3c ac9b 0fbf 255f 0dbf 7267 d1be
00000050: e256 a33e 1c26 f03e 7fec 80bb a09b aebd
00000060: 8bb7 a83d bc43 c0bc 2a34 c7be 557b 833e
00000070: 2eb0 d3be c66e 1bbf cb37 b6be da08 4ebe
00000080: b699 8ebd 7c9e 8cbe d835 ffbe 0a29 ccbe
00000090: e392 e8be 9cb5 ebbe 50fc 7ebb 2fc0 a1be
000000a0: 79d1 8b3e ddd6 1b3f 54a7 663e a5bb aa3d
000000b0: bec7 fabd 88e2 8ebb 41ac ddbe 0f2c 883d
000000c0: 19ca 07be 22b0 173f fa3e bebe e80f 29bf
000000d0: 53e0 bcbe f717 3abf 212e ceba 87f0 e23e
000000e0: 9c25 a23e f3a2 29be d10f 38bf d14e c2be
000000f0: 8f97 04bf 06f7 f7bd 790e b8bd a7c8 1fbf
0.3491173 -0.68139744 -0.15667146 -0.84481984 -0.77908695 -0.303419 0.33066028 0.056775115
-0.62336063 0.6296161 -0.21633168 -0.4762919 -0.08642179 -0.28293654 -0.03698899 -0.79458064
0.02335956 -0.5609691 -0.55223304 -0.40899235 0.31902224 0.46904075 -0.0039344425 -0.08525777
0.08238133 -0.023469798 -0.38906986 0.25680032 -0.41345352 -0.607159 -0.35589442 -0.20120564
-0.06962912 -0.27464664 -0.49845767 -0.3987506 -0.45424566 -0.46036994 -0.0038907714 -0.31591937
0.27308252 0.6087473 0.22524768 0.083365716 -0.12245129 -0.0043605007 -0.43295482 0.066490285
-0.13260688 0.5925313 -0.37157422 -0.66039896 -0.36889896 -0.7269282 -0.00157303 0.44324133
0.3166932 -0.16566066 -0.71899134 -0.37950757 -0.5179376 -0.12107663 -0.089871354 -0.62415546

convs.0.lin_r.weight f4 [64, 2]
00000000: 4d03 0b3e 77ff 0abf a65b 12bf 3609 65bf
00000010: 942a 1a3f 78a6 46bf c573 cc3e f3b6 d0bd
00000020: 7da4 20bc c4df 993e 927b aabe b9ad c6bb
00000030: c9bf dc3e 4beb 51bf e198 c53e fd4c 9cbd
00000040: 85d0 523d b81a 2d3e ab0d 3ebe 9568 8bbe
00000050: fc20 52be 4147 a53e 1e2a e03e 9798 f0bc
00000060: 1841 2abf 0303 543b 3f9e fbbe 68b3 3f3d
00000070: bb9a cfbe c3c6 2dbe be46 93be 0068 673d
00000080: 6690 4f3e 6d1d 5dbe bed3 c93e f63a b23e
00000090: 5f40 1e3f e61b 43be 441c 28be 382d be3e
000000a0: e4af 7dbe cdae f7bd 73ae 82be aea2 12bf
000000b0: 4fea a6bd 9509 78be 26ac 5e3e 8090 6a3e
000000c0: 48f5 b43e 3136 d23d 7d36 14be 3915 04bf
000000d0: e0fa fdbe 90e3 e0be e385 1fbf 74c7 efbe
000000e0: a900 2dbf 9565 6cbf 1370 0dbf 6dfe 2abf
000000f0: b925 0fbf 6a23 6f3e 3e07 c23d 3c89 72bf
00000100: 570b 1dbf c4e9 7bbc 8d9e b2be 052f abbe
00000110: 1b55 f73e 901a 30bf 5dec 62bc 96ed d53d
00000120: d08f a4bc 9ed9 1a3e 1ed9 d2be 40d6 1fbc
00000130: e337 33bd 25f2 37be a66b ab3d 7072 883e
00000140: fa57 5bbf 41c2 92be eb7c 09bf b09d e5be
00000150: 00ee 67bd 0357 1fbf 7261 d03e d180 f0bd
00000160: 70a9 edbe 2607 823e 5e52 2bbf 4909 8cbe
00000170: 3486 0abf ba69 53bf d1d3 8fbe 33e5 3cbe
00000180: af27 363e bc12 7f3e 4745 d53e 55ec b1be
00000190: c942 adbe 12be 893e 8353 8b3e 02a5 7db9
000001a0: 1802 b4bd 2997 f8be 1d5d 74bd 89d7 013f
000001b0: 94ba 9bbe bc0e f2bd 613b 12bf 3d75 bfbe
000001c0: 9a20 54be 9444 28bf 0e4d 90be 8bd9 e8bd
000001d0: 9820 d9be 51c3 9d3e 0762 efbe 80b1 b0be
000001e0: 4335 f0bc f657 113e 4c25 4abe 7a2b 47be
000001f0: 8cd5 3dbf 2fca cfbe d33f 16bf 3f74 6bbe
0.13575478 -0.5429606 -0.57171094 -0.8946718 0.6022122 -0.7759776 0.39932075 -0.10191145
-0.009804842 0.30053532 -0.33297402 -0.00606319 0.4311507 -0.81999654 0.385932 -0.07631872
0.05146839 0.16904724 -0.18559901 -0.27228227 -0.20520395 0.32280925 0.43782133 -0.029369636
-0.66505575 0.0032350428 -0.4914417 0.046801955 -0.40547737 -0.16970353 -0.2876491 0.056495667
0.20269927 -0.21593256 0.3941936 0.3481061 0.6181697 -0.19053611 -0.16417032 0.37143874
-0.24774128 -0.120938875 -0.2552372 -0.5727948 -0.081501596 -0.24222405 0.21745357 0.22906685
0.35343385 0.102642424 -0.1447391 -0.51594883 -0.49605465 -0.43923616 -0.6231367 -0.46831858
-0.6757913 -0.923425 -0.55249137 -0.6679447 -0.55916935 0.23353353 0.094740376 -0.94740653
-0.6134543 -0.015375558 -0.3488659 -0.3343431 0.48307118 -0.6879053 -0.013850299 0.104457065
-0.020088106 0.15122077 -0.41181272 -0.009755671 -0.04375447 -0.17963465 0.08370142 0.2664981
-0.85681117 -0.2866383 -0.53706235 -0.4484687 -0.05662346 -0.62242144 0.40699345 -0.1174332
-0.46418333 0.2539608 -0.6692256 -0.27350834 -0.5411103 -0.825832 -0.2809129 -0.18446808
0.17788576 0.2490949 0.41654417 -0.3475062 -0.33840016 0.26902825 0.27212152 -0.0002418943
-0.08789462 -0.48552826 -0.059659112 0.50719506 -0.30415785 -0.118192166 -0.57121855 -0.37394133
-0.20715562 -0.6572964 -0.28183788 -0.11369618 -0.4240768 0.30813077 -0.46754476 -0.34510422
-0.029322272 0.1419371 -0.1974079 -0.19450179 -0.7415397 -0.4058394 -0.5869114 -0.22993563

convs.1.lin_l.weight f4 [64, 64]
00000000: ae74 09bd 388c f0bc 5473 bebd ffd0 a33d
00000010: 9065 33bd 9c50 ccbd 3e47 d6bd c4e1 c1bd
00000020: ab24 0bbe 39d3 ffbc 6d31 843c 6256 a2bc
00000030: 76a8 783d c32d c1bd 00fb d7bd 6016 05be
00000040: a396 e0bd 561d 573d df05 bd3d ddb1 3c3d
00000050: 084c b3bd 8dc8 9bbc 8c26 79bd ab7a 5f3d
00000060: d19c fabd c4cd cdbd 5475 f5bd b03f 4a3c
00000070: 964d c7bd d68a b3bd 7c08 6bbc a551 b43d
00000080: fb92 793c 44e3 af3d 3df0 38bd edd0 79bd
00000090: 5f33 35be 8e16 ac3d 6acd 80b8 562a 4e3d
000000a0: 1efe 35be 2f90 c1bd 58df a4bd 3f8b 1abe
000000b0: 33f3 02be 50c1 213d c9d1 0e3d b9f3 2d3d
000000c0: a156 fcbd e017 a93c cd40 363d e23c 0fbd
000000d0: 389f cfbd f9b8 0bbe 136e 493d 5620 c0bd
000000e0: b20e 23be 693d 1a38 f9ca c3bb d0a6 4ebd
000000f0: 3498 23be 27fd 07bd 5fe3 31bd f3c1 09bd
00000100: 8da9 46bc 411f 463d 3f9c 493d a5e7 d53d
00000110: 5c3a 6d3d 5f19 22bc 8d54 d93d f301 c6bd
00000120: bdb7 623d 0b0f 583d 1230 21be b571 383d
00000130: 2939 87bc d1e4 ebbd a346 5b3d 6da2 25be
00000140: 5323 83bc d161 19be bc24 c4bd 8a95 3bbe
00000150: f9c8 853d 92c0 5fbc 580d 5d3d 2bb1 6d3c
00000160: 7250 fabd 6ec2 29bd 3c3e ad3d d8eb c5bd
00000170: cb7a 24be 643b 02bd 6051 e8bd 58d0 6fbd
00000180: e9ea 8b3d 6059 8e3d c544 96bd 6ba5 d2bd
00000190: 2437 4f3d b010 1dbc 6140 a1bd 60aa 6bbd
000001a0: c8cc 4cbd 0c87 6bbc 00ea 163b 2eaf db3c
000001b0: 94c6 cc3c e4c0 333d c841 53bc 8859 62bd
000001c0: 2c76 0fbe 3c11 1dbc 9ce5 02be 5819 f4bd
000001d0: 4947 36be 2362 5abd 0d78 d8bd a33d 78bd
000001e0: 6158 543d 4aea 413d 7f03 0dbe 0466 d73d
000001f0: 2e4c 31bd 49cd 643c cefb 883d 64eb 213d
00000200: a551 15bd 0175 9c3d d295 e1bd 4bbc bc3d
00000210: 535c 123e 152c 47bd f094 9cbd 23cd 65be
00000220: f561 6bbd d4f8 3d3d be78 9fbd 04e2 07bd
00000230: f5a1 e0bc 9586 4cbd 3c05 cb3d 80b8 64bd
00000240: acc7 adbd 39e7 cebd 8edd 09bd 6c09 5abd
00000250: 8d01 26be dc07 c03d 7546 d1bb c689 54bd
00000260: 138f a5bd f185 76bb a425 fe3d c0e0 a63c
00000270: 352d f63d d472 583d 5849 bf3d a3a8 d0bd
00000280: fd76 86bd 52b8 a33d cd27 29be 01b1 0abe
00000290: 2218 2abd 88c5 f5bc 3b4c 023d c2a9 cebd
000002a0: ef87 01be 16db 973d f01d 6cbc d044 573c
000002b0: ae16 06be a8bf d8bd b1a4 82bd 035c e93d
000002c0: d5e7 20be cede 97bd 44fb a53c e9f7 683d
000002d0: 4425 cf3c a32a d0bc 69d4 c63c 1f73 17be
000002e0: c9e2 8e3d 7a52 9e3c 200f 453b 10b0 f8bd
000002f0: fcf1 ad3b 35c8 26be 879c 0c3d b248 d93d
00000300: f34e 6a3d b227 0b3e 4533 2d3e 8eeb 753d
00000310: c2f4 72be 1c10 1bbc 314d 5dbe 547b e23d
00000320: 65a3 9abe 7e45 a4be 985d f23d c7ea 3ebe
00000330: 468a 733d f878 163d 9ea7 c6be 93e8 53be
00000340: 6493 303e 613d 40bd 278c 5b3e d217 1bbe
00000350: 10ec 483e f189 72be 8345 423e 72c7 5b3e
00000360: 5401 1bbd d611 07be 029e ae3d e224 0a3e
00000370: 99e0 b93e 0636 b33d 59d7 b3bd d9ac fcbc
00000380: 22e7 41be 104d 19bd 1843 833d 842f dc3c
00000390: adc9 b2bd e0fb 3fbc 2a87 e9bd 0f57 1e3d
000003a0: 39e0 a0bd b3c3 e5bd 2048 6c3d 559d 45bd
000003b0: 316a 76be ec2d 86bd bf16 923d d770 49bd
000003c0: 1bfd 11be f9ad 3cbe 0189 253e 8dfe aebe
000003d0: 5c3d a2be 82c5 bebd b12d 483c f9a3 13bd
000003e0: 57e2 5dbe 4cc7 a3bd 7fb1 e6be e07e 3ebd
000003f0: 38db 2abe ef79 f6be 0239 07be a7db 85be
-0.03355854 -0.029363737 -0.09299341 0.07998847 -0.04379803 -0.099763125 -0.10462807 -0.094668895
-0.13588206 -0.031228648 0.01613685 -0.019816581 0.060707532 -0.094325565 -0.10545921 -0.12996817
-0.10966232 0.05251821 0.092296354 0.04606806 -0.08754736 -0.019016529 -0.060827777 0.054560345
-0.122369416 -0.10049012 -0.11985269 0.012344286 -0.09731595 -0.08766715 -0.014345285 0.08804635
0.015232797 0.08588269 -0.045150984 -0.060990263 -0.17695378 0.084027395 -6.141777e-05 0.050333343
-0.1777272 -0.09451329 -0.08050412 -0.1509218 -0.12788086 0.039490998 0.034868035 0.04246876
-0.12321211 0.020641267 0.044495393 -0.03497017 -0.101377904 -0.1364478 0.04917724 -0.093811676
-0.15923575 3.6773654e-05 -0.005975124 -0.050452054 -0.1597603 -0.03320041 -0.04342973 -0.03363223
-0.012125385 0.04836965 0.049221274 0.10444573 0.057916984 -0.009893744 0.1061183 -0.096683405
0.055351008 0.05274872 -0.15740994 0.045030314 -0.016506748 -0.11518253 0.05353416 -0.16175242
-0.016008055 -0.1497872 -0.09577319 -0.18318763 0.06532473 -0.013656752 0.053967804 0.014507572
-0.12222375 -0.04144519 0.08459136 -0.09664124 -0.16062467 -0.03179492 -0.11343646 -0.0585483
0.06831915 0.06950641 -0.073373355 -0.10285457 0.050589696 -0.009586498 -0.078736074 -0.05753553
-0.049999982 -0.014375459 0.0023027658 0.02681693 0.024997033 0.043885127 -0.012894101 -0.055261165
-0.14009923 -0.0095866285 -0.12782902 -0.119188964 -0.1780063 -0.053316247 -0.10569773 -0.060605656
0.051842097 0.047342576 -0.13770865 0.10517505 -0.04328554 0.013964959 0.06688653 0.039531127
-0.036454815 0.07639504 -0.11014904 0.092156015 0.14293031 -0.048626024 -0.07645595 -0.22441535
-0.057466466 0.04637988 -0.077867016 -0.03317453 -0.027420977 -0.049933035 0.09913108 -0.055840015
-0.0848535 -0.10102696 -0.033658557 -0.05323164 -0.16211529 0.09376499 -0.006386573 -0.051889203
-0.0808393 -0.0037616456 0.12409523 0.020370841 0.12020341 0.052843884 0.09340161 -0.10188415
-0.06565664 0.07994141 -0.16519089 -0.13544084 -0.04152692 -0.030001417 0.03181098 -0.100909725
-0.12649511 0.07414834 -0.0144114345 0.013138965 -0.13094589 -0.105834305 -0.06379069 0.11394503
-0.15713437 -0.074155435 0.020261414 0.05687705 0.025286324 -0.025410956 0.024271207 -0.14790009
0.069768496 0.019326437 0.003006883 -0.12142956 0.005308388 -0.1628731 0.034328964 0.10609569
0.057204198 0.13589361 0.16914089 0.060039096 -0.2372618 -0.00946429 -0.21611477 0.11058679
-0.30202785 -0.32084268 0.11834258 -0.18644248 0.05945804 0.03673646 -0.38799757 -0.20694189
0.17243725 -0.046933535 0.21440183 -0.15145805 0.196213 -0.23685433 0.18971829 0.21462801
-0.037843063 -0.13190398 0.08526231 0.13490632 0.36304167 0.087505385 -0.08781309 -0.030844139
-0.18935826 -0.03742701 0.064092815 0.026878126 -0.08729873 -0.0117177665 -0.114027336 0.038657244
-0.07855267 -0.11218967 0.05768597 -0.048245747 -0.24063946 -0.06551728 0.07133245 -0.049179878
-0.14256708 -0.1842574 0.16165544 -0.34178582 -0.31687438 -0.093150154 0.012217925 -0.03604505
-0.21668373 -0.07996997 -0.45057294 -0.046507716 -0.16685188 -0.48139903 -0.1320534 -0.26144144

convs.1.lin_l.bias f4 [64]
00000000: cc37 33be 2d63 fabd e806 11be 1629 f33d
00000010: 40a8 803d abb7 15be 55cd 403e 6136 893d
00000020: 413d 273e 249f f1bd 724e 70be 1252 8a3c
00000030: 462d 113e 35c0 82be 4ce6 393d bed1 0c3d
00000040: a5cd 4f3e 8841 e73d 564b 033e 8c67 b9bd
00000050: f476 e8bd c0cf 0ebe a696 78be adcb a0bd
00000060: 03aa 4d3e 7418 ccbd 6f5b 0abe d8e4 14be
00000070: 030f 06be 0b04 613e 1a15 e7bd 443f 303e
00000080: 1b84 c23d 1a1c 2e3e 4c06 d83b 02e1 29bc
00000090: dd12 64bd a810 983e 2e82 c8bd 75f1 d23c
000000a0: 4418 4e3e 98ca f5bd 3456 43be 31f6 873e
000000b0: 3568 263e fdfc cbbd 38ec 3bbd 6501 b0bd
000000c0: b849 8f3e 1cd2 133e fc16 46be 7ac7 bb3d
000000d0: 407b 3b3e 1289 0bbe b323 423d 2b24 a53d
000000e0: 872d 5cbe e2a2 eabc a1c7 e9bd 5aa5 f6bd
000000f0: bac4 26be 9460 173e 0613 4b3e d72f 16be
-0.17501754 -0.122259475 -0.14162791 0.11873071 0.06282091 -0.14620845 0.18828328 0.06699825
0.1633196 -0.11797932 -0.23467425 0.016884837 0.14177427 -0.25537267 0.045385644 0.034379713
0.20293291 0.11291796 0.12821707 -0.09052953 -0.113508135 -0.13946438 -0.24276218 -0.07851348
0.20084386 -0.099656016 -0.13511442 -0.14540422 -0.13091664 0.21974199 -0.11283322 0.17211634
0.09497853 0.17002907 0.0065925475 -0.010368587 -0.055682052 0.29700208 -0.09790455 0.025749901
0.20126444 -0.12001532 -0.19075853 0.26555017 0.1625069 -0.09960363 -0.045879573 -0.08594016
0.2798593 0.14435619 -0.19344705 0.091689065 0.18308735 -0.13626507 0.047397327 0.08063539
-0.21501742 -0.028642122 -0.11415029 -0.12043257 -0.16285983 0.14782935 0.19831476 -0.14666687

convs.1.lin_r.weight f4 [64, 64]
00000000: 751f 28bd 1f06 26be 305b 7ebc 9063 783d
00000010: 442f 993d fcf3 8cbd 1943 963c 89e3 9bbc
00000020: 7e02 19be 492b 8dbd ab81 d7bd 7af8 c1bc
00000030: 0b8d d1bd 2ebc 603d 5203 24be 02cb d2bd
00000040: d2c6 a9bd 891c 8e3d 1880 54bd b2d8 11bd
00000050: 4a1c 6c3c f0a6 b9bb 50b0 9dbd 2fba 03bd
00000060: 9709 c5bd 5beb bbbd 2063 dbbd 4aa8 0cbe
00000070: a9b8 03bd 8833 c4bd bbe7 4f3c f7f6 0e3d
00000080: a19d 78bd 20ff 433d 5afb debd 55b9 abbd
00000090: b116 febd 80be f2bd 1127 2dbb 45d7 efbc
000000a0: 184a 4d3c b93b f6bd 8e41 dcbd 207a 32be
000000b0: e912 c7bb b25c a2bd aab0 a8bc 7d14 e43c
000000c0: 78db 833d 43cc 5bbd 629f f0bd da19 1dbe
000000d0: 32dd 193d 9765 133d f71b 03bd 0eaf 08be
000000e0: 00af 03bc d93f e93b 9b53 cfbd 9884 b8bc
000000f0: 0850 22be 3edf 6cbd eefd 243c d931 e5bb
00000100: 7716 48bd c098 393d 6b5e 9f3d 4089 c43c
00000110: 17d0 dcbd 21e0 eebd 872e de3c 5c67 f4bd
00000120: ad80 303b 645d aebb 1f11 14be 8064 dd3b
00000130: a8f5 4abd c8a5 a93d 21d6 59bd 45b9 1b3d
00000140: d756 003d fd03 c0bd 2cf0 01bd ca6c 60bd
00000150: e603 ad3d 6401 cf3b b767 85bd 5911 963c
00000160: 7afa 20be 066d 2bbd 1807 d13c 2406 03be
00000170: 4828 d93c 94f2 733c f51a 023e 88b8 b2bd
00000180: 5480 05bd 2436 0dbd 5ffb a3bd ebd9 00be
00000190: 00ae 363d 0e04 e63d 44f4 5b3c d8ac ceb9
000001a0: d19d e83c c313 e2bc 55e1 95bd badc 9bbc
000001b0: d48d 4fbd e271 773d 40ca 0abe e6b3 a73b
000001c0: 87f3 bebd 2238 2ebe f85b 82bd 50ed 6b3d
000001d0: 276d c1bc 6e58 5ebd 230a c7bb 8490 00bd
000001e0: daea 9d3d 9aa4 b93d 8777 91bc 109d 99bd
000001f0: c8cf 14be a281 9cbd b213 bebd efd5 da3d
00000200: 6e0b b4bd 1b65 1b3c 243f 413d 852e 01bc
00000210: 1562 7dbc dc8f db3c 90ec 89bc 01f2 92bd
00000220: c0a2 30be 436f 83bd d5da 82bd 4b5a ba3d
00000230: ed8d f33c 2d3e c33c 0399 0f3e 0340 ebbd
00000240: 158d b6bd e6ed 363d 5bab 08bd 79eb 10bd
00000250: ee60 f33c 01ca 4bbc 820c b03b 3de0 31be
00000260: c3f1 0f3d a6b1 84bd 9261 c63d 9449 9bbd
00000270: f38d 0cbe 01c8 d7bc eb2f 8cbd d3eb cdbd
00000280: ddcb dbbc 6a88 a6bd 9852 6e3c 4ed8 67be
00000290: f3b1 c3bd ccae 95bd 009e ab3c eecf e93c
000002a0: 1a6c b3bc 5c62 db3c 5af8 20bd a3f7 00be
000002b0: c773 b4bd dea6 c33d 32fd 3abd 2218 f2bc
000002c0: 008e 24be 749b d3bd 98e8 05be dae3 71bd
000002d0: 34e0 b1bd 884b 16bd c9c3 d23d 914d b5bd
000002e0: c2f9 143d cd7b 71bd cb80 e7bd 8aa7 c13d
000002f0: 9a5a 34be 7f73 d33b 8323 81bd 1ebb 8cbc
00000300: 2ebf 94bc 8f31 91be 2fa1 15be 8e30 a6bd
00000310: c753 d23d cb7a 5dbd 4a9e 2bbe 6179 4cbe
00000320: 659f aabe bf7b 20be 5843 d4be db17 c8bd
00000330: 4ac4 843c 3c74 56be 7274 113e 4c02 8cbe
00000340: d804 f73d 8508 fabe 92e1 1fbe 36a7 a63d
00000350: 1544 c33b 3391 743d 93c3 dd3c 4aa7 19be
00000360: 7ac4 8cbe 4461 06bd 2883 08bd 9cf1 c43d
00000370: d520 9bbe 7595 93bc 6180 a5be b874 683d
00000380: cea0 ecbd e47d e9bd 8262 76be 034f cbbe
00000390: c2fd 4f3d 500c 3f3c 5ae9 cebd b1b2 03be
000003a0: 309e abbc f3a5 1fbe a49b e03d 2216 193d
000003b0: 639a 51be 50da 69bc 3946 47bd 52fe 54bd
000003c0: df30 88be 0b4e c5bd 8899 d8be 0016 00be
000003d0: 658d c43d 1953 a6bd 7e1b 03bd 4ca8 0fbe
000003e0: 0231 953c d734 953d e7b8 2ebe 0244 9b3d
000003f0: b607 2abe 232a f53d 1865 223e d9e7 88be
-0.041045625 -0.16213273 -0.0155246705 0.060641825 0.07479718 -0.06882474 0.018342542 -0.019029396
-0.14942357 -0.068930216 -0.10522779 -0.023678053 -0.1023198 0.054866962 -0.16016892 -0.10292627
-0.08289875 0.069390364 -0.051879972 -0.035607047 0.0144110415 -0.0056656525 -0.076996446 -0.03215998
-0.0962097 -0.0917575 -0.10712266 -0.13736072 -0.032158528 -0.09580141 0.012689526 0.034903493
-0.0606972 0.047850728 -0.10887785 -0.08384959 -0.12406672 -0.11852741 -0.002642099 -0.029277453
0.012529872 -0.1202311 -0.10754691 -0.174294 -0.0060752523 -0.079278365 -0.020592052 0.0278418
0.06438345 -0.053661596 -0.1174915 -0.15341893 0.037564464 0.035985555 -0.03200909 -0.13348028
-0.008037329 0.007118207 -0.10123368 -0.022524163 -0.15850842 -0.057830088 0.010070307 -0.0069944677
-0.04884955 0.04531169 0.07781681 0.023991227 -0.107818775 -0.11663843 0.027121795 -0.11933777
0.0026932165 -0.0053211916 -0.14459656 0.0067563653 -0.049550682 0.082835734 -0.053182725 0.038018484
0.031332817 -0.09375761 -0.031723186 -0.05479125 0.08448009 0.0063173044 -0.06513923 0.018318819
-0.15720549 -0.04185202 0.025516078 -0.12795311 0.026508465 0.014889378 0.12705596 -0.08726603
-0.032593086 -0.03447546 -0.080069296 -0.12583129 0.044599533 0.11231242 0.013424937 -0.0003942016
0.028395565 -0.027597314 -0.07318369 -0.019026149 -0.050672367 0.06041134 -0.13553715 0.005117881
-0.09323793 -0.170136 -0.06365198 0.057599366 -0.023611618 -0.054283552 -0.0060742064 -0.03138782
0.0771081 0.090645984 -0.01775719 -0.075006604 -0.14532387 -0.07641913 -0.092811 0.10685336
-0.087912425 0.009484555 0.047179356 -0.007884626 -0.015465279 0.026801996 -0.016836435 -0.07175065
-0.17249584 -0.06417706 -0.06389395 0.09099253 0.029730761 0.023833359 0.14023213 -0.11486819
-0.08913628 0.04466047 -0.033366542 -0.035380814 0.029709306 -0.012438298 0.005372585 -0.17370696
0.03514267 -0.06479196 0.09686579 -0.07582393 -0.13726024 -0.026340486 -0.06845077 -0.100547455
-0.026830608 -0.08131488 0.014546059 -0.22641107 -0.095554255 -0.073087305 0.020949364 0.028541531
-0.021902133 0.0267803 -0.039299347 -0.12594466 -0.08811145 0.09553312 -0.045651622 -0.029552523
-0.16069794 -0.10332385 -0.13077009 -0.059055187 -0.086853415 -0.036693126 0.10291249 -0.08852685
0.036371 -0.058955956 -0.11303862 0.09455784 -0.17612687 0.006452977 -0.063056014 -0.017179068
-0.018157568 -0.28358123 -0.14612268 -0.0811473 0.102698855 -0.054072183 -0.16759601 -0.19968177
-0.33324733 -0.15672205 -0.4145763 -0.09770175 0.01620688 -0.20942777 0.14204577 -0.27345502
0.12061471 -0.48834625 -0.15613392 0.08137362 0.0059590437 0.059708785 0.027070796 -0.15005222
-0.2749365 -0.032807603 -0.033328205 0.09616396 -0.30298486 -0.018015603 -0.32324508 0.056751937
-0.115541086 -0.11400965 -0.24061015 -0.3970872 0.05077911 0.01166065 -0.10103102 -0.12861134
-0.020949453 -0.15590648 0.10967186 0.037374623 -0.2046905 -0.014273241 -0.048650954 -0.05200035
-0.26599786 -0.09634026 -0.42304635 -0.12508392 0.09597281 -0.08121318 -0.03200864 -0.14029044
0.018211845 0.07285469 -0.17062722 0.07581331 -0.16604504 0.119709276 0.15858877 -0.26739386

proj.weight f4 [64, 64]
00000000: 889d 2d3d 0faf 4ebd 6870 f13a 0a3f afbd
00000010: e03f c7bd 327c a8bd 23df 6bbd 1204 8dbd
00000020: 51bd 3ebe cabd 56bd 7ba2 f7bd 5e76 8dbe
00000030: 86d5 04bd 674e 78be 6610 53bd f049 b5ba
00000040: b130 603e 1d17 923d 214b de3d cfb8 ae3d
00000050: a453 ed3c fbac b53d 8da4 a43d 5c4e c3bd
00000060: b6ee 0dbe c2fa 7a3e 81ba c33d 550f 61bd
00000070: b685 b83d 4d26 25be 4d89 3a3d ea87 6cbc
00000080: 33d4 a4bd 977a 513d eda3 83bd 1a7c 8f3d
00000090: 366d 6fbe 0836 fd3c 4589 d73d 1f4f 4bbd
000000a0: 47f6 0c3d ea72 013e 9927 f1bd 3014 ab3d
000000b0: 6383 733d e5a7 0bbe 0353 3c3e beca 82bc
000000c0: b764 01be 8676 3e3c 933c bf3d f154 a4bc
000000d0: b3ca 30bc 46f6 7fbc c4ab c43d 6b6b 10be
000000e0: cc0d 8a3c 2ee2 183e 1ef5 a33d 5d9c d6bd
000000f0: ead0 5bbd c45a bb3c dd1c 903c 3a3f 293e
00000100: 56a8 f63c 08e7 503c 0814 5abc df85 98ba
00000110: 9ff6 10bc 3886 a4bd d920 65bd 53de 72be
00000120: 8554 303a a8ca 1abd 96fd 0bbe 6db0 343e
00000130: 5b50 9b3c af96 33bd cbdb 78bd c565 9bbd
00000140: 890a bf3d ceb7 a93c 0170 1cbe 4637 003d
00000150: 3c5a a63d e0c6 933d 1bfd 55be 6a7a babd
00000160: 22f0 cbbc 204e 00bd 5057 babe 61d4 2bbe
00000170: 7482 8d3d b52b a13d 149a efbd d129 fa3d
00000180: adb0 0bbe 32c5 ff3c 40fb 0fbd db4a a6bb
00000190: 1b72 c7bb c1cf 4fbc b4d5 253d f684 73bd
000001a0: 5e35 0dbe f615 e8bd 3c30 123e c97a 7d3d
000001b0: 8679 c93d d548 1fbd 7da4 05bd 58f7 11be
000001c0: 73fa 223c f2b2 0f3e 58af 993d afd2 44bd
000001d0: 22de a8bd 0305 1f3d 292d abbb 96b1 543d
000001e0: 7fc5 983d b860 8abd 4f9c 423e 4a0a 82bd
000001f0: 0045 f6bd b8b6 bcbd 2a72 09be 640c 91bd
00000200: 870a a53d d9d1 0c3e 906d c53d 5d78 73bd
00000210: 53fb 5c3d 432b 943d afb8 4d3d 3a19 1abd
00000220: b822 173d 00a5 74bd 5ddd fa3d 8529 b63d
00000230: e7bc 093d 3c16 bb3c e072 e2bd a09d 763d
00000240: 35e0 f4bb 9845 a13d 9b51 f73d 6094 63bd
00000250: d367 e33b 1d7d 76b9 796a 073d af1d e53d
00000260: e212 1e3d 1ef2 55bd bcf3 4f3d 7089 963d
00000270: a986 04be 64a5 e1bd c208 aa3d 921a 923d
00000280: 3b1e 883a 15a4 c1bc 9394 9bbb 6c30 5bbd
00000290: 2fed 2b3d 9c15 a33a e4a0 b4bc ed42 32bd
000002a0: 4fe5 173e bac3 24bd 71db 393d 8f0b c7bd
000002b0: bf14 8dbe 266b 19be 0a40 403d c391 09bd
000002c0: 9764 ecbc d569 cebd 8c8a eabd fd07 eebc
000002d0: 100f 553c 8791 bf3c 4af7 36bd 9e13 92bd
000002e0: aeae f83b b08c 933d 0034 86bd c4d5 4cbd
000002f0: 07f6 9a3d 0262 cb3d 0f4f 293e 219e 1dbd
00000300: a32d 1dbc 73ba 633d 1db9 893d 38d5 573d
00000310: 3556 0ebd a582 473d c0e1 28bd 67a3 2d3e
00000320: f312 723c fd1a 3abe 46fd 01bd 5300 b83c
00000330: ae70 3fbd 8ff2 183c 6110 b53c 6dba 8d3c
00000340: bc1d 953d 2722 4bbd ad4b 9abd 4bc4 163d
00000350: 6730 b3bd b5da 333c a0a2 583d 4920 aebd
00000360: 5236 3ebd c4bb 8a3d 61e6 b03d 609b 843c
00000370: a297 a23c a124 433d 5eff 9abb 9de7 da3c
00000380: f784 5dbd 31f2 a2bd 727f 81bd 7843 283d
00000390: 33e3 653d a615 2abe 212a 343d e2b4 363c
000003a0: 62b5 343d 97a2 f7bd a940 8abd 2c65 c9bd
000003b0: 7cda 353e 6f34 b5bc a0fd 86be 6afc 56bd
000003c0: bb62 fa3b 0db6 8abd 7053 8e3d 0889 afbc
000003d0: 4e7e 903c 4933 aa3d b128 ef3c 194d fbbb
000003e0: 3c76 c63c 2243 adbd f59b c9bd 65dd 9c3d
000003f0: 15d7 bebc 6e16 413c ac99 a1bd 4385 e03d
0.04238656 -0.050459918 0.001842034 -0.085569456 -0.0972898 -0.082268134 -0.057585847 -0.06885542
-0.18626906 -0.05242709 -0.120915376 -0.2762937 -0.032430194 -0.24248658 -0.05152931 -0.0013831239
0.21893574 0.07133315 0.108541735 0.08531343 0.028970547 0.08870884 0.08039198 -0.0953643
-0.13860592 0.24509719 0.09557057 -0.054946262 0.09009878 -0.16127892 0.045541096 -0.014436701
-0.08048286 0.0511423 -0.06427751 0.07006092 -0.23381504 0.030909553 0.10524229 -0.049636003
0.034414556 0.12641492 -0.11775131 0.0835346 0.059451472 -0.13638265 0.18391041 -0.015965816
-0.12636076 0.011624938 0.093377255 -0.020060034 -0.010790515 -0.015622681 0.09603074 -0.14103477
0.016852282 0.1493003 0.08005737 -0.10479043 -0.053666033 0.022870429 0.017591888 0.16528025
0.030109566 0.012750395 -0.01331044 -0.0011636576 -0.008847862 -0.08033413 -0.05593953 -0.23717622
0.00067264616 -0.037790924 -0.13670954 0.17645426 0.018959215 -0.043844875 -0.060756486 -0.075877704
0.09328181 0.020717528 -0.15277101 0.031302713 0.081226796 0.07215667 -0.20897333 -0.0910538
-0.024894778 -0.031324506 -0.3639474 -0.16780235 0.069096476 0.078696646 -0.1169931 0.12215007
-0.13641615 0.03122196 -0.03515172 -0.0050748414 -0.0060866005 -0.01268381 0.040487006 -0.059452973
-0.13789889 -0.11332314 0.14276212 0.061884675 0.09837632 -0.038887817 -0.03262757 -0.1425451
0.009947407 0.14033106 0.07504147 -0.048052486 -0.082454935 0.03882314 -0.0052238894 0.05192717
0.074595444 -0.06756729 0.1900494 -0.06349619 -0.120248795 -0.09214538 -0.13422456 -0.070824414
0.080586486 0.13751926 0.09640038 -0.05944096 0.05395062 0.07234814 0.050224956 -0.037621714
0.036898345 -0.05972767 0.12249253 0.08894638 0.033627417 0.02283775 -0.11057067 0.060208917
-0.0074730166 0.07874602 0.12076112 -0.055561423 0.006939867 -0.00023506997 0.033060525 0.11187302
0.038592227 -0.052232854 0.050769553 0.07350433 -0.12941994 -0.11017874 0.08302452 0.07133974
0.0010384986 -0.02363781 -0.004747936 -0.053512976 0.041974243 0.0012442353 -0.022049375 -0.043520857
0.14833568 -0.040225722 0.04537529 -0.097190015 -0.2755489 -0.1498228 0.046936072 -0.033586275
-0.028856559 -0.100787796 -0.11452207 -0.029056543 0.013004079 0.023384823 -0.044669427 -0.07132648
0.007589183 0.072045684 -0.06552887 -0.05000855 0.07566457 0.09930803 0.16534065 -0.03848088
-0.0095934 0.055597734 0.06724761 0.052693576 -0.034750182 0.048708577 -0.041230917 0.16956864
0.014775026 -0.18174358 -0.03173568 0.022461092 -0.04673832 0.009335174 0.022102537 0.017300809
0.07281062 -0.049593117 -0.07533965 0.036808293 -0.087494664 0.010977437 0.052889466 -0.08502252
-0.046438523 0.06774095 0.08637691 0.01618737 0.019847695 0.047642354 -0.004730149 0.02672177
-0.054081883 -0.079563506 -0.063231364 0.04107997 0.056124877 -0.1660982 0.04398549 0.011151524
0.044118293 -0.120915584 -0.06750614 -0.0983375 0.17759126 -0.022119729 -0.26365376 -0.052486815
0.007641164 -0.06773005 0.06949508 -0.021427646 0.017638352 0.08310563 0.029194208 -0.007669103
0.0242263 -0.0846007 -0.098441996 0.07659415 -0.023295918 0.011785133 -0.07890639 0.10962918

proj.bias f4 [64]
00000000: 7e65 0e3d 4f9f a13c a0a0 50bc 9872 0a3d
00000010: d71d 8d3d 1cf9 2c3e 0816 63bc 8902 4c3c
00000020: 4af9 27bb e627 75bd 032b 9c3c da6a 2fbb
00000030: 3967 3bba 335b a8bd 011e 74be 21bc 6c3c
00000040: 13c9 f7bc 8f7a d03c fa89 acbd 51ad 3d3e
00000050: 631a 643b 0188 8b3e d27d e73c f11b 58bd
00000060: ee45 c93c bb23 993d 51ad 12bc 0e68 123d
00000070: 74dc 2bbe 3268 213e 2e11 ed3d ce2b bf3d
00000080: d452 88bd f36a b5bd 642b a93d 13b0 08be
00000090: e8cc 233d d71a 073e 93c2 393c fbfa f0bd
000000a0: 8712 f73c b9bf 0d3c 3b99 733d c5eb 11be
000000b0: 981e d23c 0fa7 cb3c 878f cebd 20a4 70bd
000000c0: f90e b2bc 2621 7b3d c6a4 c73d 5e79 c53d
000000d0: 856b 3b3c 5b88 cc3c 0484 3a3e b7b7 ac3c
000000e0: a342 02bd d390 efbd 9783 293d 80ad 0cbe
000000f0: ea71 ad3d 6679 28bd 2df4 b5bd aa87 10bd
0.03476476 0.019729285 -0.0127336085 0.03380069 0.06890457 0.16891903 -0.013860233 0.012451776
-0.0025630766 -0.059852503 0.019063478 -0.002676657 -0.0007148865 -0.0822052 -0.2383957 0.01444915
-0.030247247 0.025449065 -0.084247544 0.18523146 0.0034805767 0.272522 0.028258238 -0.052761022
0.024569478 0.07477518 -0.008952455 0.035743766 -0.16783315 0.15762404 0.115755424 0.09334527
-0.06656423 -0.088582896 0.08260229 -0.13348417 0.039990336 0.13193832 0.011337894 -0.11766621
0.030160202 0.008651667 0.059472304 -0.14250095 0.025649354 0.024859933 -0.100859694 -0.05875027
-0.021735655 0.06131091 0.09748225 0.096422896 0.011439209 0.024967363 0.18214422 0.021083696
-0.03180183 -0.11697545 0.04138526 -0.1373806 0.08468993 -0.0411314 -0.088844635 -0.03528563

scorer.bilin.weight f4 [1, 64, 64]
00000000: e188 81bd 7523 02bd 44d7 0a3d a97b fd3d
00000010: d6ef cabd f92f 21bd 9b8b ea3d 2bc7 bfbc
00000020: a991 853d 42e9 c13d ef9a 01be fb68 7f3d
00000030: eed7 413d ff38 243e d959 533e 4619 8abb
00000040: 033f 133e 718c fdbc b70a 063d ad18 243e
00000050: ab99 b23d dc02 a8bb cd3f ccbc 6adf 253e
00000060: b65f 9e3d effe cd3d 0b28 b9bd 2409 46bb
00000070: 4489 1c3e c3ea 01bb 7d0d 903c 31cc 143d
00000080: a65e c5bc 8b9a cd3d 2004 72bd 15f3 7ebe
00000090: 39c7 debd bae9 f93d 79b0 283c d517 653e
000000a0: 6c31 f8bd 3fe3 ad3d 4e9b 2bbd b87c 2dbe
000000b0: 40fe a4bd 1d9a 22bd f753 07bd c9e0 a2b9
000000c0: bf68 89bb 9847 0c3e 797e 03be 3c73 1f3d
000000d0: 346a d3bc aec7 7dbd 2051 0dbc 9547 933d
000000e0: cd57 8bbc f92c f43d db89 a9bd 5b58 b93c
000000f0: 7872 3fbd 3a41 d03d 5729 d2bd a901 223e
00000100: 7676 ec3d 6255 25bd e4fb 21bd d2c5 ed3c
00000110: 2cc9 dbbc 4a38 683d a394 a83c c8b7 b33d
00000120: 09d0 1dbd f693 493d 3542 f2bd 4637 36bd
00000130: 811f 5f3d dfca a93d f81f f3bd 3ef3 a0bd
00000140: 82c7 0b3e c4e4 acbc 0040 54bd 99f7 6e3d
00000150: d5b1 1fbe f5a2 9bbd 5ba1 a03d b1a0 7fbd
00000160: da8e f5bd c9ba 4f3e d11d 773d 12b3 a73d
00000170: 5e46 28bd 4ce2 d93c 5904 a33d 73aa 6e3d
00000180: a5d0 ae3d fd65 613d 8a36 3a3e 202d acbd
00000190: 10d0 00bd ae7e 4d3c a2e9 9fbd 8ad0 913d
000001a0: e0f2 d63d 07d3 1e3e d9cd 82bd ec2d 423d
000001b0: ea38 8dbd fb42 94bd fe2d 08bd 4505 b33d
000001c0: f729 cdbd a0eb 7b3d a9a4 afbd e7c6 4d3d
000001d0: 4952 903d ef22 63bd 2e89 283e fd6c abbd
000001e0: d66f df3d 274b 00be 72c2 d7bb 7997 acbd
000001f0: 5e3d 1e3d c0ec fc3d a08f 08bd 65ac 5e3d
00000200: 53f7 bbbd 7838 a23d 0f3a b5bd e0c5 d0bc
00000210: e594 bf3b c85f 38bd 9f6d 603d 9406 28bc
00000220: 5db4 25bd 625b 013e 2bae adbc 0f22 8dbc
00000230: d6a3 d5bc 1e7c d73d 16f0 3b3d 2018 dbbd
00000240: 5779 84bd 287e e1bd d3d5 8abb d8a9 b1bd
00000250: 6fdf 13bd b496 6bbc 5deb 11be dc87 bc3d
00000260: 9e4c d63d e557 dbbd 6e64 a83d 7804 7ebd
00000270: 6f24 65bd f23d 89bd 6612 e9bb 1cbe 46ba
00000280: 08bc 44bc cf6a 42bc 5f31 0fbe 8341 ffbd
00000290: 705c 003d 427a d03d d707 033c 7806 1f3e
000002a0: d338 313d 5bd3 1ebd 95f5 093e 7312 11bd
000002b0: 4553 d53b 3faa 493d 9da0 323e 976c 613d
000002c0: 54f7 d53c 06da d7bd 528a 063e 9ac6 f5bb
000002d0: 8490 ce3d 718c 2cbd 8ebc 23be 943d 2bbd
000002e0: 6175 9cbd a564 123e 7c7f d13d e901 1d3e
000002f0: 1bd1 4cbd 9011 5cbd 6562 abbd 0886 0a3c
00000300: e3ee 033e 19f1 89be cd63 bd3d c8f1 763d
00000310: 4a91 a83d e08a 823d 0f10 54bd 445f 983d
00000320: e0f1 573c 7448 12bd e34e 23be b6fd e53d
00000330: df58 ee3d bb05 09bd 4b37 20bc fccf 373d
00000340: cf35 06be d967 883d 7863 f1bd 8ed2 ad3d
00000350: 9fa3 1a3d 9119 333c a9d9 de3d e9f6 a63b
00000360: a1e2 133b bfea e0bc 99f6 e13c 6754 1fbd
00000370: c5fd adbd 07c7 4bbe 770a 8f3d 572b 033e
00000380: edf7 3d3d cd93 a53d 662c a53d e404 563b
00000390: 2f47 ab3d b68f 0c3e ad2d e73d 6a70 8b3d
000003a0: 8786 27bd 6288 c83c 3726 013e 7940 493d
000003b0: d631 fd3d e663 85bd db8e 113d 6297 023e
000003c0: 1b9e 853d ad42 d3b9 71fe 47bd e711 d3bc
000003d0: 00d0 f1bd 44f9 4ebb d13f 033e 327b ecbc
000003e0: 19a9 a2bc 92cc b93d 78e5 bb3b cdf4 81bd
000003f0: c863 9bbd bae7 a3bd c3ad a23d b147 16bc
-0.06324936 -0.031772096 0.0338967 0.12377102 -0.09909026 -0.03935239 0.11452409 -0.0234104
0.06521923 0.094683185 -0.12656759 0.062355977 0.047325067 0.16037367 0.20639743 -0.0042144386
0.14379506 -0.030950757 0.032725062 0.16025038 0.08720716 -0.005127294 -0.024932766 0.16198507
0.07733099 0.1005839 -0.09040841 -0.003021785 0.15286738 -0.0019823767 0.017584557 0.036327545
-0.024092983 0.10039242 -0.059085965 -0.24897416 -0.108778425 0.12202783 0.010295981 0.22372372
-0.121188015 0.084906094 -0.041896157 -0.16942108 -0.08056307 -0.039697755 -0.03303906 -0.00031066526
-0.004193395 0.13699186 -0.12841214 0.038928255 -0.025807478 -0.061958008 -0.008625299 0.071913876
-0.01700964 0.1192264 -0.08278247 0.022625139 -0.046740025 0.10168691 -0.10261791 0.15820946
0.11546032 -0.04036463 -0.039546862 0.029024992 -0.026829325 0.056694306 0.020578688 0.08775288
-0.038528476 0.049213372 -0.11829034 -0.044486307 0.054473404 0.08290648 -0.11871332 -0.07858895
0.13650325 -0.021105178 -0.051818848 0.058341596 -0.15595181 -0.07599441 0.07843276 -0.062409107
-0.119901374 0.20286097 0.06033117 0.08188452 -0.041082732 0.026597165 0.079598136 0.05826802
0.085358895 0.055028904 0.18184868 -0.084070444 -0.031448424 0.01254241 -0.07808234 0.07119854
0.104955435 0.15510188 -0.063869186 0.047407076 -0.06895621 -0.07239338 -0.033246987 0.087412395
-0.1001777 0.061504006 -0.08576328 0.050238516 0.07046945 -0.055453237 0.1645858 -0.08370397
0.10910003 -0.12528668 -0.006584459 -0.084273286 0.038632743 0.12349844 -0.033340096 0.054363627
-0.09178033 0.07920927 -0.088489644 -0.02548498 0.005846607 -0.04501322 0.054792043 -0.010255475
-0.04045521 0.12632516 -0.021201214 -0.017228154 -0.0260791 0.1052172 0.04588326 -0.10697961
-0.06468456 -0.110103905 -0.0042369156 -0.08674973 -0.036101755 -0.014379192 -0.1424994 0.092056006
0.10463832 -0.10710124 0.082222804 -0.06201598 -0.05594295 -0.06701268 -0.007112789 -0.0007581429
-0.012007721 -0.011866285 -0.13983677 -0.12463667 0.031338155 0.10179569 0.007997475 0.15529811
0.043267082 -0.038775783 0.13472588 -0.035417985 0.0065101706 0.049234625 0.17444082 0.0550352
0.026118912 -0.105396315 0.13138703 -0.007500482 0.10086158 -0.042126123 -0.15989897 -0.041806772
-0.07639576 0.14296205 0.10229394 0.1533276 -0.050004106 -0.053727686 -0.08368377 0.008454807
0.12884097 -0.26941755 0.09247551 0.060289174 0.08230837 0.063741446 -0.051773127 0.074400455
0.013180226 -0.035713628 -0.15948062 0.11230032 0.116380446 -0.03345273 -0.009778808 0.044876084
-0.13106464 0.06660432 -0.1178655 0.08487426 0.037753697 0.0109313885 0.10881359 0.005095352
0.0022565501 -0.027455686 0.027583407 -0.03889885 -0.08495668 -0.19900142 0.06984418 0.12809502
0.04637902 0.080848314 0.08065109 0.0032656724 0.083631866 0.13726696 0.11288009 0.06808551
-0.04089978 0.024479095 0.12612234 0.04913375 0.12363021 -0.06513195 0.03553663 0.1275306
0.06524297 -0.00040294733 -0.04882664 -0.025765372 -0.11807251 -0.003158168 0.12817313 -0.028867338
-0.019856023 0.09072222 0.005734142 -0.0634552 -0.07587391 -0.08003183 0.07943299 -0.009172366
