checkpoints/curve50_sage_v2.pt (torch, 71528 bytes, 9 tensors)

convs.0.lin_l.weight f4 [64, 2]
-0.35901862 -0.3007364 0.332257 0.1347 -0.79204404 -0.8010559 -0.53190243 -0.8994045
-0.5374789 0.09851628 0.03996046 -0.28240526 -0.8818642 -0.8697592 0.19933012 -0.53164214
-0.31318572 0.22597772 -0.30942678 -0.43369532 -0.3278424 -0.17523052 -0.86392295 -0.7178973
-0.5715947 -0.37862858 0.49559447 -0.22722149 -0.48225293 0.048521582 -0.0073302076 0.15524073
0.044385932 -0.2672977 -0.23770353 -0.01943074 0.106701456 -0.056283187 -0.334251 0.44596043
-0.54982406 -0.24826975 -0.67781276 -0.1662063 0.0325607 -0.25203243 -0.0240079 -0.82538414
-0.57692987 -0.112228215 -0.10130423 0.020391962 -0.4117018 -0.09178853 -0.5212675 -0.34112486
0.32999876 0.3471087 0.60657173 -0.4045164 0.4879964 -0.43895644 -0.07144887 0.1783682
-0.17538576 0.1683621 -0.6024914 -0.27008593 0.46175402 -0.30568406 -0.38818297 -0.33209345
0.09741772 0.072845004 0.22659242 -0.3973683 -0.60931474 -0.07275382 0.18689351 -0.29635835
0.10125799 0.29941824 -0.072020605 -0.13407311 -0.17401934 -0.6403486 -1.7304518 -0.3704018
0.03670667 0.10961061 -0.20584637 -0.2766358 0.40522575 -0.02627576 0.24576356 -0.6284694
-0.3927671 -0.17983691 -0.7637448 -0.7183093 0.03678822 -0.07320926 -0.44937366 0.41199556
0.1773394 -0.335168 0.13494584 -0.6303078 -0.43139932 0.05813209 0.114840664 -0.26065803
0.0132065285 0.11423202 -0.67508227 0.04663846 0.08808859 0.20904756 -0.13973552 0.085728884
-0.7228631 0.095679164 -0.24461791 0.09579816 0.3869547 -0.64413255 -0.25326228 0.6124602
00000000: 4ad1 b7be 1ffa 99be 971d aa3e ccee 093e
00000010: 66c3 4abf 0012 4dbf c22a 08bf 603f 66bf
00000020: 3898 09bf e7c2 c93d 94ad 233d 6c97 90be
00000030: dac1 61bf 8aa8 5ebf 321d 4c3e b319 08bf
00000040: e159 a0be b466 673e 306d 9ebe 500d debe
00000050: f6da a7be a16f 33be 0e2a 5dbf 1ec8 37bf
00000060: 0854 12bf 9bdb c1be 8fbe fd3e c0ac 68be
00000070: dbe9 f6be 91be 463d 3d32 f0bb 6df7 1e3e
00000080: 06ce 353d 3edb 88be 8e68 73be 372d 9fbc
00000090: 4b86 da3d 3389 66bd f222 abbe ed54 e43e
000000a0: 45c1 0cbf 6d3a 7ebe 2385 2dbf fc31 2abe
000000b0: 5e5e 053d 650a 81be 37ac c4bc 604c 53bf
000000c0: adb1 13bf e8d7 e5bd 9878 cfbd 0b0d a73c
000000d0: 94ca d2be a0fb bbbd c971 05bf eba7 aebe
000000e0: 99f5 a83e 3bb8 b13e 4948 1b3f c61c cfbe
000000f0: aada f93e e6be e0be c953 92bd 27a6 363e
00000100: 5398 33be 1d67 2c3e e03c 1abf b448 8abe
00000110: 066b ec3e 9f82 9cbe ebbf c6be 2708 aabe
00000120: f182 c73d c32f 953d d807 683e dc73 cbbe
00000130: 0dfc 1bbf f4ff 94bd 0361 3f3e 48bc 97be
00000140: 5960 cf3d 594d 993e 8a7f 93bd 764a 09be
00000150: 2032 32be e3ed 23bf 727f ddbf 4ea5 bdbe
00000160: bc59 163d 877b e03d 64c9 52be 35a3 8dbe
00000170: c079 cf3e 4340 d7bc 71a9 7b3e 5fe3 20bf
00000180: c518 c9be 2b27 38be c784 43bf 1ee3 37bf
00000190: 3faf 163d bdee 95bd 4e14 e6be 15f1 d23e
000001a0: 7698 353e 249b abbe 3e2f 0a3e da5b 21bf
000001b0: 5fe0 dcbe ea1b 6e3d 9531 eb3d f874 85be
000001c0: 3260 583c 7af2 e93d 31d2 2cbf f807 3f3d
000001d0: ca67 b43d 9010 563e d416 0fbe a092 af3d
000001e0: 8e0d 39bf 70f3 c33d 1e7d 7abe d331 c43d
000001f0: ed1e c63e dfe5 24bf 98ab 81be 31ca 1c3f

convs.0.lin_l.bias f4 [64]
-0.0052750274 -0.8322735 -0.12676866 -0.77496755 -0.91956264 -0.5085886 0.0769612 -0.04862818
-0.8774883 -0.0025827289 -0.2513136 -0.6271257 -0.11427881 0.052360244 -0.0013390839 -0.95617944
-0.094783284 -0.31556615 -0.8494587 -0.28132555 -0.011018104 0.30388466 -0.00083008216 -0.1964319
-0.09382104 -0.16467366 -0.38906986 0.14971091 -0.48505738 -0.4839776 -0.6480868 -0.2600499
-0.015577656 -0.27464664 -0.42295632 -0.5596178 -0.45752257 -0.46036994 -0.0012030036 -0.3738602
0.18369064 -0.0032555663 -0.0027548163 0.00890099 -0.0918121 -0.0010050947 0.1935791 -0.06563746
-0.41002414 0.641563 -0.70532936 -0.7693601 -0.54627264 -0.8753198 -0.19079672 -0.0017848802
0.17732686 -0.006067961 -0.3356426 -0.37950757 -0.46158326 -0.39744917 -0.4426824 -0.7782689
00000000: 23da acbb e00f 55bf a5cf 01be 4664 46bf
00000010: 7568 6bbf dd32 02bf d59d 9d3d 582e 47bd
00000020: 13a3 60bf 0043 29bb 2dac 80be 4f8b 20bf
00000030: 020b eabd b277 563d 3384 afba 2dc8 74bf
00000040: bd1d c2bd e391 a1be 2076 59bf e709 90be
00000050: 4785 34bc c596 9b3e df99 59ba 7225 49be
00000060: 3f25 c0bd 36a0 28be 2a34 c7be d14d 193e
00000070: 7159 f8be e9cb f7be 04e9 25bf 4325 85be
00000080: 6d39 7fbc 7c9e 8cbe bb8d d8be 1d43 0fbf
00000090: 6640 eabe 9cb5 ebbe 1aae 9dba 9b6a bfbe
000000a0: 6619 3c3e 575b 55bb 268a 34bb 75d5 113c
000000b0: fb07 bcbd 62bd 83ba 9939 463e ef6c 86bd
000000c0: afee d1be 793d 243f 7790 34bf c9f4 44bf
000000d0: 86d8 0bbf f514 60bf 3760 43be a4f2 e9ba
000000e0: 2c95 353e bfd5 c6bb 59d9 abbe d14e c2be
000000f0: a454 ecbe 757e cbbe 44a7 e2be a13c 47bf

convs.0.lin_r.weight f4 [64, 2]
0.00062049535 -0.53347707 -0.7042688 0.0040774047 0.45842373 -0.37364244 0.44037226 -0.4081766
-0.11047079 0.34752825 -0.42293045 0.10408892 0.3626877 -0.28984147 0.48323604 -0.110778674
-0.25874704 0.3672088 -0.15439014 -0.422953 0.03723677 0.19151343 0.36861473 -0.25331175
-0.66505575 0.0004525278 -0.22226349 0.02930935 -0.5601772 -0.14649108 -0.35879713 -0.046740256
0.023634458 -0.17595711 0.19247988 0.29811758 0.15288593 -0.920481 -0.24190015 0.25407207
-0.06576184 -0.17381714 -0.4594684 -0.42587513 -0.051373243 -0.26126352 0.011455431 0.022024468
0.3325463 0.06572553 -0.0497807 -1.2858818 -0.49605465 -0.43923616 -0.6231367 -0.47661376
-0.6324314 -0.26487294 -0.42636758 -0.5080396 -0.5525126 0.24623595 0.24720299 -0.7411636
-0.1565805 -0.26584497 -0.3488659 -0.3343431 0.49025142 -0.7426374 -0.0178654 0.057289887
0.049880244 -0.020843191 -0.41181272 -0.009755671 -0.11241768 -0.14290844 0.11051387 0.26120034
-0.5107468 -0.22553314 -0.53052974 -0.5320332 -0.05662346 -0.62242144 0.16377246 0.06282412
-0.59151226 0.47650748 -0.6692256 -0.27350834 -0.23861986 -0.2401905 -0.73735136 -0.35684046
0.10725325 -0.03112269 0.006652508 -0.24971592 -0.21986854 0.06910514 0.25173563 -0.06899312
-0.14763947 -0.8216964 -0.25867534 0.09936608 -0.39483264 -0.10146151 -0.81564397 -0.43194425
-0.13903858 -0.9491185 -0.47974882 -0.11898846 -0.5353387 0.18759072 -0.46754476 -0.34510422
0.06310193 0.25835827 -0.30672425 -0.575852 -0.92296624 -0.61651653 -0.5760412 -0.06579118
00000000: bda8 223a f491 08bf f64a 34bf c09b 853b
00000010: 84b6 ea3e 104e bfbe 7978 e13e 86fc d0be
00000020: 823e e2bd 39ef b13e 578a d8be 922c d53d
00000030: 34b2 b93e 1a66 94be b76a f73e eedf e2bd
00000040: 7e7a 84be cb02 bc3e 7318 1ebe 4c8d d8be
00000050: 9585 183d 191c 443e 12bb bc3e 14b2 81be
00000060: 1841 2abf 4141 ed39 0a99 63be 291a f03c
00000070: c667 0fbf c201 16be 42b4 b7be b672 3fbd
00000080: 0d9d c13c 1a2e 34be 7219 453e dea2 983e
00000090: 218e 1c3e a5a4 6bbf acb4 77be bc15 823e
000000a0: 25ae 86bd 1ffd 31be 713f ebbe 4e0c dabe
000000b0: c06c 52bd 55c4 85be 8faf 3b3c a86c b43c
000000c0: 8243 aa3e 1b9b 863d d9e6 4bbd c697 a4bf
000000d0: e0fa fdbe 90e3 e0be e385 1fbf b806 f4be
000000e0: 06e7 21bf 6d9d 87be da4c dabe e20e 02bf
000000f0: 7771 0dbf 4725 7c3e c822 7d3e e6bc 3dbf
00000100: a356 20be d51c 88be 8d9e b2be 052f abbe
00000110: 3c02 fb3e 7c1d 3ebf 765a 92bc cda8 6a3d
00000120: 3a4f 4c3d 57bf aabc 1ed9 d2be 40d6 1fbc
00000130: 3e3b e6bd 9756 12be 1955 e23d 0dbc 853e
00000140: 4dc0 02bf 29f2 66be ccd0 07bf 5433 08bf
00000150: 00ee 67bd 0357 1fbf f8b3 273e efa9 803d
00000160: 596d 17bf caf8 f33e 5e52 2bbf 4909 8cbe
00000170: c458 74be 80f4 75be 0fc3 3cbf cbb3 b6be
00000180: 98a7 db3d 03f5 febc 48fd d93b 88b5 7fbe
00000190: 3825 61be ff86 8d3d 7ee3 803e 444c 8dbd
000001a0: cd2e 17be b25a 52bf 1871 84be 7180 cb3d
000001b0: 8127 cabe 0dcb cfbd 0bce 50bf cc27 ddbe
000001c0: 2160 0ebe 6ef9 72bf a3a1 f5be 39b0 f3bd
000001d0: f50b 09bf c817 403e 0762 efbe 80b1 b0be
000001e0: 963b 813d 8947 843e f60a 9dbe 096b 13bf
000001f0: 8447 6cbf 07d4 1dbf 7077 13bf 87bd 86bd

convs.1.lin_l.weight f4 [64, 64]
-0.09385722 -0.29593322 0.10741888 0.06255395 -0.27668414 -0.11943183 0.57980394 0.13871904
-0.46271935 0.018809514 0.2543902 0.027480101 0.123590626 -0.3192606 -0.09692299 -0.19311303
-0.080170065 -0.007563023 0.26875508 0.1244412 0.21677603 0.13243505 -0.026569152 0.07839891
0.100268856 -0.16255401 -0.11985269 -0.00016640259 0.01436848 -0.115738556 0.39216417 0.0067696054
-0.053038515 0.08588269 0.17664652 -0.14925094 -0.07922563 0.084027395 0.05993479 -0.1695477
0.19242294 -0.24144587 -0.08050412 0.12569429 0.099219136 0.039490998 -0.33966827 0.035778202
0.028230269 0.23312347 -0.08862082 0.12576659 -0.14227508 0.10263085 0.116421744 -0.18641993
-0.4089056 0.046293247 0.12639003 -0.050452054 0.016955314 -0.16184385 -0.012045862 -0.4012863
-0.1446814 0.0660859 0.09236016 0.061786924 0.6056063 -0.13909288 0.28158277 -0.1530548
0.06828003 -0.13788852 -0.4460026 0.021027861 -0.07523921 -0.049576007 -0.20142998 -0.06871826
-0.029542383 -0.22245957 -0.33535177 0.04759946 -0.27321365 -0.2860754 0.228504 -0.06572219
0.004063871 -0.008783995 0.08459136 -0.09664124 -0.060748585 0.024332281 -0.0068127196 0.22111078
0.33702606 0.06950641 -0.20816377 -0.17017272 -0.07197995 -0.009586498 -0.05523927 -0.6496202
-0.034302656 -0.1161231 0.0023027658 0.1042386 -0.09344166 0.043885127 0.017376753 0.11349118
-0.08987857 -0.15128154 -0.1601563 -0.07295903 0.0881205 -0.21273613 -0.13085933 -0.12699619
0.0795872 -0.110269435 0.0114267515 0.10517505 0.032772552 0.21054849 0.07260142 -0.030371223
-0.079764 0.0061909505 -0.08622267 0.07781386 -0.37991393 -0.52307105 -0.38586506 -0.119763896
-0.27504376 -0.48975372 -0.2514134 0.026276179 -0.12533383 -0.059296962 0.2709715 -0.6772281
-0.20840716 -0.2577582 0.30775216 0.07727939 -0.4072695 0.06525093 -0.07704685 -0.13603882
-0.045283087 0.2775119 0.12409523 0.045864526 0.07278491 -0.26669708 -0.084312454 -0.8936798
-0.18112706 0.07994141 0.12999345 -0.18041357 0.012997481 -0.030001417 0.05442471 -0.62263185
-0.06598259 -0.2777849 -0.0144114345 0.41839218 -1.3259351 -0.105834305 0.07721582 -0.0041820817
-0.16337545 0.29832238 0.02405386 0.123155735 -0.03409141 -0.18735564 0.026777538 -0.29687038
0.24165712 0.011306223 -0.14096437 -0.12142956 0.06643956 -0.17715107 -0.062342647 0.14825173
-0.017466908 -0.17326018 0.059699308 0.08472392 -0.040811293 -0.0067652757 -0.08990026 -0.26981875
-0.071175635 -0.044262715 -0.06535379 -0.12619835 0.045205098 -0.11780919 -0.09888363 -0.11344288
-0.08274531 -0.09649693 -0.098851055 -0.0006955648 -0.16851595 0.07301344 -0.036523886 0.030096669
-0.021018395 0.10889359 0.08526231 0.10405868 0.17839353 0.087505385 -0.106413476 -0.11660273
-0.065720886 -0.03742701 -0.02764952 -0.019004589 -0.15367457 -0.0117177665 -0.01396978 0.067414545
-0.09628907 -0.011663649 0.05768597 0.02104592 -0.050603088 -0.06551728 -0.1117623 -0.068687856
-0.23132788 -0.05047626 0.13310565 0.050522894 -0.06276391 0.18382786 0.15510535 -0.13117914
-0.058911007 -0.043562543 -0.028468456 -0.046507716 -0.1223415 0.05479299 -0.118726715 0.06885465
00000000: 3738 c0bd 8f84 97be 6efe db3d 491c 803d
00000010: 8ba9 8dbe ad98 f4bd 086e 143f 5d0c 0e3e
00000020: 8de9 ecbe 6916 9a3c 6f3f 823e f31d e13c
00000030: 151d fd3d 2076 a3be 907f c6bd 6cbf 45be
00000040: 3430 a4bd 3cd3 f7bb 449a 893e 07db fe3d
00000050: 89fa 5d3e 0e9d 073e 8da7 d9bc 9c8f a03d
00000060: c259 cd3d 8f74 26be 5475 f5bd 5b7c 2eb9
00000070: c669 6b3c 5608 edbd bec9 c83e 91d3 dd3b
00000080: ea3e 59bd 44e3 af3d d3e2 343e 3dd5 18be
00000090: 0c41 a2bd 8e16 ac3d 2f7e 753d ea9d 2dbe
000000a0: 850a 453e 963d 77be 58df a4bd 01b6 003e
000000b0: 6733 cb3d 50c1 213d 00e9 adbe 2a8c 123d
000000c0: 2a43 e73c ebb7 6e3e d57e b5bd f5c8 003e
000000d0: 8fb0 11be 2030 d23d 866e ee3d dee4 3ebe
000000e0: 135c d1be fd9d 3d3d 636c 013e d0a6 4ebd
000000f0: dfe5 8a3c 65ba 25be 025c 45bc 6675 cdbe
00000100: 5c27 14be 0b58 873d 5327 bd3d 4914 7d3d
00000110: 0409 1b3f 5d6e 0ebe 9e2b 903e 66ba 1cbe
00000120: 66d6 8b3d a632 0dbe 745a e4be 9f42 ac3c
00000130: 0417 9abd 3610 4bbd a943 4ebe 29bc 8cbd
00000140: de02 f2bc 71cc 63be 3ab3 abbe a7f7 423d
00000150: a9e2 8bbe 7a78 92be f4fc 693e 5b99 86bd
00000160: 392a 853b bfea 0fbc 3c3e ad3d d8eb c5bd
00000170: 82d3 78bd 7e54 c73c 3c3d dfbb dd6a 623e
00000180: ae8e ac3e 6059 8e3d e228 55be c241 2ebe
00000190: 396a 93bd b010 1dbc 9342 62bd 824d 26bf
000001a0: f180 0cbd f3d1 edbd 00ea 163b 0c7b d53d
000001b0: 575e bfbd e4c0 333d b159 8e3c 106e e83d
000001c0: 4112 b8bd 8ce9 1abe 0300 24be 8b6b 95bd
000001d0: 8578 b43d 80d7 59be fdff 05be 4a0b 02be
000001e0: 9dfe a23d f1d4 e1bd 4537 3b3c 0466 d73d
000001f0: 833c 063d 069a 573e 0eb0 943d 12cd f8bc
00000200: 4f5b a3bd 75dd ca3b 8395 b0bd df5c 9f3d
00000210: 1484 c2be fce7 05bf 1b90 c5be c646 f5bd
00000220: 89d2 8cbe 00c1 fabe 42b9 80be 2441 d73c
00000230: 8357 00be 5fe1 72bd c7bc 8a3e d25e 2dbf
00000240: b068 55be e2f8 83be b191 9d3e a844 9e3d
00000250: a185 d0be 48a2 853d bdca 9dbd c34d 0bbe
00000260: c27a 39bd 0a16 8e3e a425 fe3d 71dc 3b3d
00000270: 4110 953d 858c 88be 02ac acbd 33c8 64bf
00000280: 5f79 39be 52b8 a33d 011d 053e 56be 38be
00000290: 63f3 543c 88c5 f5bc 72ec 5e3d cd64 1fbf
000002a0: e121 87bd d339 8ebe f01d 6cbc 8037 d63e
000002b0: 3eb8 a9bf a8bf d8bd 5423 9e3d d809 89bb
000002c0: e54b 27be b6bd 983e 9a0c c53c 1339 fc3d
000002d0: 6fa3 0bbd 28da 3fbe 915c db3c 65ff 97be
000002e0: f774 773e bd3d 393c f758 10be 10b0 f8bd
000002f0: 7711 883d 1767 35be 015b 7fbd 4dcf 173e
00000300: c316 8fbc 1e6b 31be 4387 743d bc83 ad3d
00000310: be29 27bd 3faf ddbb a11d b8bd af25 8abe
00000320: 88c4 91bd d24c 35bd 35d8 85bd 243a 01be
00000330: fb28 393d f245 f1bd 8083 cabd be54 e8bd
00000340: 6076 a9bd 2fa0 c5bd 6c72 cabd 9056 36ba
00000350: 728f 2cbe 1288 953d 129a 15bd 4a8d f63c
00000360: c52e acbc 9a03 df3d 029e ae3d b81c d53d
00000370: cbac 363e 0636 b33d 4fef d9bd 69cd eebd
00000380: ac98 86bd 104d 19bd 3f81 e2bc 83af 9bbc
00000390: de5c 1dbe e0fb 3fbc 81e1 64bc a310 8a3d
000003a0: 3433 c5bd e418 3fbc 2048 6c3d 7e68 ac3c
000003b0: 2f45 4fbd ec2d 86bd a2e3 e4bd 38ac 8cbd
000003c0: 37e1 6cbe 32c0 4ebd d94c 083e 18f1 4e3d
000003d0: 5d8a 80bd 5f3d 3c3e f0d3 1e3e d353 06be
000003e0: ab4c 71bd a36e 32bd ae36 e9bc e07e 3ebd
000003f0: 2e8e fabd 9d6e 603d fe26 f3bd ab03 8d3d

convs.1.lin_l.bias f4 [64]
0.07707463 0.18766098 0.25822175 -0.2183929 0.26432663 -0.022345869 0.118557684 0.1406926
0.21124439 -0.2474538 -0.10272955 0.13697742 -0.12872525 -0.23562734 0.034744002 -0.1819355
0.22898412 0.20613262 -0.100983046 -0.041047655 -0.121407665 0.04039522 -0.22203195 -0.08000974
-0.10359465 0.01386809 -0.20489654 -0.14269866 0.095125504 0.23300485 0.19160444 0.27871788
0.12315379 -0.25432387 0.06959771 -0.13163166 -0.1680098 0.13872677 -0.12430225 -0.18179879
-0.12439484 0.04698388 0.33170724 0.24956053 -0.22788203 -0.1576738 -0.44434577 0.1761946
0.12033373 -0.096455775 -0.1941739 0.20204964 -0.14388649 -0.07352299 0.19780377 -0.06260536
-0.15789035 0.0019121983 0.142488 0.2795667 0.10304628 0.079880744 -0.028431984 0.029444912
00000000: 4ed9 9d3d 332a 403e a435 843e 63a2 5fbe
00000010: d255 873e af0e b7bc 5fce f23d b911 103e
00000020: 7350 583e 8764 7dbe df63 d2bd cf43 0c3e
00000030: 8dd0 03be 4b48 71be ba4f 0e3d 4d4d 3abe
00000040: d07a 6a3e 6e14 533e 33d0 cebd 9621 28bd
00000050: 95a4 f8bd 7575 253d 585c 63be 26dc a3bd
00000060: 6f29 d4bd fc36 633c 66d0 51be 991f 12be
00000070: 29d1 c23d d398 6e3e f433 443e 1cb4 8e3e
00000080: 0e38 fc3d bd36 82be 3f89 8e3d 73ca 06be
00000090: c30a 2cbe 640e 0e3e 2e92 febd 7629 3abe
000000a0: b9c2 febd 2b72 403d 88d5 a93e cc8c 7f3e
000000b0: e859 69be 3e75 21be 4a81 e3be 5b6c 343e
000000c0: 8871 f63d 9b8a c5bd 86d5 46be 1ae6 4e3e
000000d0: fb56 13be 3993 96bd 128d 4a3e 3d37 80bd
000000e0: 02ae 21be baa2 fa3a 60e8 113e 5e23 8f3e
000000f0: ee09 d33d 8498 a33d 31ea e8bc 7536 f13c

convs.1.lin_r.weight f4 [64, 64]
-0.023278536 -0.5129153 -0.19374184 0.06111861 -0.46109828 -0.19781959 0.40233886 -0.28852838
-0.62585664 -0.13251202 -0.48979375 0.06745002 -0.089162245 0.09588069 -0.1045855 -0.33405396
-0.11516253 -0.014621271 -0.32702208 0.13126338 0.031577833 0.58535814 -0.068959236 -0.06700921
-0.27861652 -0.8821655 -0.10712266 0.68394727 -0.5317035 -0.3453917 0.1315106 -0.44617772
-0.3464712 0.047850728 -0.7434641 -0.16709462 0.07033548 -0.11852741 0.059724342 0.07361415
-0.10426388 -0.17105933 -0.11783066 -0.48926127 0.4480673 -0.07597024 -0.053788796 -0.060450613
0.142506 -0.20530136 -0.08605636 -0.5067391 0.0033890423 -0.6515149 0.012192376 -0.20293105
-0.5085458 0.022008084 -0.4782233 -0.022524163 -0.5501764 -0.07729647 -0.2463287 -0.52284455
-0.04825003 -0.0720587 0.023641601 0.031583346 -0.04238355 -0.024666289 0.38268685 -0.5316646
0.09437348 -0.32732987 0.18480209 -0.2013416 -0.08864191 0.04770108 -0.091754645 -0.36736187
0.059030678 -0.9043468 -0.51344675 -0.84905386 -0.12954035 -0.0044424385 -0.009627288 -0.099328
-0.8029515 -0.41772693 0.025516078 0.14809169 -0.070347525 -0.07226014 -0.3995087 -0.54852927
0.14078139 -0.03447546 -0.4430444 -0.2859849 -0.37659195 0.11231242 -0.1598521 -0.5294247
-0.7747947 -0.08646024 0.29235244 0.21546802 -0.40913036 0.04136827 -0.23120186 -0.108845554
-0.26865524 -0.1910888 -0.34266457 -0.17157319 -0.28363097 -0.41955304 -0.06819764 -0.11721558
-0.6371488 -0.001148836 0.0080975415 -0.075006604 0.08299149 -0.10032518 -0.17775719 0.17720321
-0.21492124 -0.11631879 -0.2570474 -0.18342991 -0.19168733 -0.22776595 -0.36311424 0.08085964
-0.5606762 -0.19968927 -0.66340435 0.05444334 0.064907804 -0.28784618 0.086047195 -0.27842832
-0.05536961 -0.029997302 0.042629775 -0.04942261 -0.3682771 -0.25061673 -0.028628048 -0.092891775
0.26455867 0.019218069 0.09686579 -0.32795006 -0.4725776 0.0010159676 -0.26649144 0.13723332
-0.3139332 -0.08131488 0.09972533 -0.07522679 -0.2992098 -0.073087305 0.07165095 -0.22301094
0.03863265 -0.24299936 -0.43169713 -0.8094017 -0.5862743 0.0681879 0.030776637 0.0063558067
-0.22171484 -0.9317304 -0.11690842 -0.37913105 -0.37159115 -0.020246495 0.06528661 -0.14694953
0.091447756 -0.044338148 -0.3174633 0.09455784 -0.12628983 0.030199038 0.018735923 -0.16636859
-0.12318819 -0.26639858 0.05529695 -0.0811473 0.116993725 -0.26316354 -0.045534335 -0.024427846
-0.35280904 -0.113895394 -0.067065075 -0.24288504 0.033001132 -0.12542795 -0.09640629 -0.15063997
-0.11256986 -0.35474536 -0.05735731 -0.16647738 0.061999932 -0.20294721 -0.008162536 0.13752535
-0.20045187 -0.23797023 -0.033328205 0.0008429885 0.13205986 -0.03882881 -0.08361976 0.028322395
-0.16554458 -0.11400965 -0.051751055 -0.10442598 -0.06255063 0.01166065 -0.11132334 0.0055409586
0.0576219 -0.07869908 -0.09668329 -0.23695846 -0.3252646 -0.014273241 -0.090381 0.026973363
-0.08546245 -0.0029628642 0.09425623 -0.21353997 0.15798394 0.078407966 0.00816816 -0.047079653
0.032827828 -0.024359267 0.105073 0.07581331 -0.091176935 0.058122743 0.21139166 -0.097855456
00000000: a1b2 bebc 6b4e 03bf 4364 46be 8257 7a3d
00000010: 1315 ecbe 3891 4abe 5cff cd3e feb9 93be
00000020: 2438 20bf 3bb1 07be 3fc6 fabe 3c23 8a3d
00000030: b29a b6bd 185d c43d ec30 d6bd 1f09 abbe
00000040: 55da ebbd 0e8e 6fbc 706f a7be e869 063e
00000050: c257 013d 08da 153f 803a 8dbd 203c 89bd
00000060: d3a6 8ebe 99d5 61bf 2063 dbbd 2b17 2f3f
00000070: b81d 08bf 2ed7 b0be b7aa 063e 6871 e4be
00000080: ac64 b1be 20ff 433d aa53 3ebf da1a 2bbe
00000090: 0c0c 903d 80be f2bd 83a1 743d 04c3 963d
000000a0: 4d88 d5bd 2d2a 2fbe 3351 f1bd 7480 fabe
000000b0: 1469 e53e 4996 9bbd a451 5cbd 109b 77bd
000000c0: 18ed 113e 853a 52be 513e b0bd a7b9 01bf
000000d0: b21a 5e3b aec9 26bf 88c2 473c 28cd 4fbe
000000e0: 0f30 02bf 4c4a b43c afd9 f4be 9884 b8bc
000000f0: 5cd8 0cbf 9d4d 9ebd 973d 7cbe 24d9 05bf
00000100: d3a1 45bd 8393 93bd 08ac c13c 8a5d 013d
00000110: 609a 2dbd f510 cabc 88ef c33e 2c1b 08bf
00000120: e246 c13d c897 a7be c23c 3d3e 7e2c 4ebe
00000130: e489 b5bd 3562 433d dce9 bbbd db16 bcbe
00000140: 27ca 713d 4683 67bf 3f71 03bf 985b 59bf
00000150: 3aa6 04be e091 91bb c6bb 1dbc 7a6c cbbd
00000160: 3b8e 4dbf 4ee0 d5be 1807 d13c 59a5 173e
00000170: 5d12 90bd 20fd 93bd 688c ccbe 6a6c 0cbf
00000180: ff28 103e 2436 0dbd b7d6 e2be 9d6c 92be
00000190: a9d0 c0be 0e04 e63d 45b0 23be 6188 07bf
000001a0: f258 46bf 1112 b1bd 38af 953e a6a3 5c3e
000001b0: 8979 d1be c671 293d 2ec0 6cbe 6bea debd
000001c0: 2e8d 89be c8ac 43be bb71 afbe e2b0 2fbe
000001d0: 1438 91be a8cf d6be 34ab 8bbd b90e f0bd
000001e0: 2f1c 23bf 8a94 96ba 8dab 043c 109d 99bd
000001f0: 71f7 a93d 4a77 cdbd fb05 36be c274 353e
00000200: 5014 5cbe 8c38 eebd b89b 83be 0dd5 3bbe
00000210: af49 44be 7a3b 69be 1cea b9be bd99 a53d
00000220: 7a88 0fbf 587b 4cbe ded4 29bf fbff 5e3d
00000230: 62ee 843d 9360 93be 8339 b03d 288e 8ebe
00000240: 3fcb 62bd e7bc f5bc 8f9c 2e3d 5d6f 4abd
00000250: d18e bcbe d650 80be 5e85 eabc 0b3e bebd
00000260: 3c74 873e 366f 9d3c 9261 c63d 12e9 a7be
00000270: b1f5 f1be 372a 853a 9171 88be e486 0c3e
00000280: dabb a0be 6a88 a6bd cb3c cc3d 8110 9abd
00000290: 0732 99be ccae 95bd bcbd 923d fb5c 64be
000002a0: 453d 1e3d d3d4 78be 6807 ddbe f334 4fbf
000002b0: 1316 16bf 19a6 8b3d 491f fc3c 5f44 d03b
000002c0: 3709 63be e285 6ebf af6d efbd 771d c2be
000002d0: 3241 bebe fadb a5bc fcb4 853d f079 16be
000002e0: f648 bb3d eb9b 35bd 8d8a a2be 8aa7 c13d
000002f0: 1f52 01be f963 f73c 147c 993c 875c 2abe
00000300: 174a fcbd 6565 88be 0e7f 623d 8e30 a6bd
00000310: 689a ef3d 5fbd 86be 3682 3abd e81c c8bc
00000320: 63a3 b4be fd41 e9bd 6a59 89bd dbb6 78be
00000330: 322c 073d 2f70 00be a970 c5bd 5d41 1abe
00000340: 078b e6bd 2fa1 b5be 80ef 6abd 0c79 2abe
00000350: a4f3 7d3d 65d1 4fbe 28bc 05bc 72d3 0c3e
00000360: 4143 4dbe 78ae 73be 2883 08bd 00fc 5c3a
00000370: b33a 073e f50a 1fbd d640 abbd 5e04 e83c
00000380: 8584 29be e47d e9bd eaf8 53bd 4add d5bd
00000390: 8b1a 80bd 500c 3f3c 7efd e3bd ee90 b53b
000003a0: f104 6c3d fc2c a1bd e401 c6bd 3da5 72be
000003b0: 1589 a6be 50da 69bc ac19 b9bd 3ef7 dc3c
000003c0: f006 afbd 9d2c 42bb 6909 c13d 39aa 5abe
000003d0: 8bc6 213e 5b94 a03d bfd3 053c 98d6 40bd
000003e0: 7976 063d 168d c7bc 8330 d73d 0244 9b3d
000003f0: f9ba babd 1d12 6e3d 0e77 583e 7168 c8bd

proj.weight f4 [64, 64]
-0.116431504 -0.06901153 0.030451328 0.092176534 -0.120409295 -0.06885067 -0.00074816926 0.20763041
-0.16651742 -0.012538282 -0.0489089 0.023741908 -0.0044393362 -0.06559401 0.030551657 0.08953979
0.17610487 0.101464115 -0.04651292 0.025613239 0.008792544 -0.25453964 -0.15677585 -0.13207546
0.07925822 -0.060136296 0.15030025 -0.06476586 0.18723966 0.02602795 -0.034562364 0.029749414
-0.1083967 0.48657846 -0.06239602 -0.08761484 -0.05615423 0.01467369 0.1790479 -0.057854727
0.014306107 -0.043389738 0.02935069 -0.013420543 -0.052188534 -0.18649371 0.1370638 -0.15491964
0.08579208 -0.024626175 0.09768379 0.23676145 -0.088459484 -0.0114880055 -0.10684267 0.022088531
0.057512403 -0.14603797 0.040602125 0.05293751 -0.016317623 0.008671183 -0.0038937116 -0.009237408
-0.026846107 0.14892603 -0.08889248 0.23324753 0.07513813 -0.08415614 -0.08278154 -0.009513319
-0.017307732 -0.12831974 -0.110130705 -0.02780527 0.06405797 0.12314765 0.09815783 -0.027538637
-0.081215106 -0.08029128 -0.20618483 -0.018695708 0.13910075 -0.14854556 0.03809849 -0.09891332
0.07017844 0.15816613 -0.14018156 -0.036960553 0.004788683 0.027612414 -0.0064302366 -0.077211335
-0.11845983 0.11248724 0.051645298 0.088700816 0.1630303 0.07165612 0.10784332 -0.12772311
0.0068445485 -0.056705378 0.009127333 -0.10295062 0.07945615 -0.114857785 -0.15692349 -0.20974682
0.03377557 0.0034947628 0.21056904 0.16026625 -0.004079307 -0.09292334 0.062766016 0.0046990477
0.118571915 0.18289359 0.0057584164 0.060865074 0.0311937 -0.0974266 -0.17777938 0.10755888
0.056673557 -0.12083795 -0.068176836 -0.21790203 0.25835824 0.10262798 -0.05850761 0.06277316
-0.028688163 0.040748354 0.14509515 -0.0112061 0.053754695 0.031868212 -0.028307172 0.017168025
0.26360324 0.015839687 0.13212793 0.17427835 -0.05616273 -0.0019032978 -0.07591473 0.14772919
0.09239213 -0.0098116305 -0.3430723 -0.021862227 0.2601256 0.13664205 0.12688848 0.14285785
0.38903224 -0.42972583 -0.03713033 -0.05126835 0.07521029 -0.24281293 -0.09343204 -0.015542154
-0.11230143 -0.23582575 0.021272447 0.03929485 -0.023951242 -0.14006202 -0.22357687 0.1710179
-0.049602345 -0.16651206 -0.13094424 -0.093630314 0.15797545 0.2868616 0.013244517 -0.042138107
-0.010084703 0.05950091 0.07314563 0.15003568 0.03853401 0.2488185 0.06992872 0.20671497
0.06746486 0.04534494 -0.46224022 0.15725465 0.43279836 0.20509343 0.29580632 0.4331563
0.31448615 -0.002903498 0.03386223 -0.047429863 0.06720559 -0.08790286 0.13334626 -0.050715286
-0.5499563 0.24613509 0.00597279 0.1260082 -0.060565468 0.33767718 -0.14928149 -0.04389936
-0.124041 0.25904787 -0.38395682 -0.024693565 0.46479964 -0.34913427 -0.03010074 -0.5483998
-0.2288116 -0.20478363 -0.46389613 -0.045002934 0.04479544 0.3036985 -0.028996687 0.03890502
0.0065128524 -0.15135732 -0.048024923 -0.44355017 0.15913306 -0.17239988 -0.36365515 -0.42253673
-0.3108779 -0.09207858 0.13465318 0.5179316 -0.06001585 -0.0023886294 -0.082964666 -0.21125905
-0.025284063 -0.15746456 -0.14980467 0.16722895 -0.57432693 0.57900316 -0.20772028 0.09338467
00000000: a473 eebd eb55 8dbd 1075 f93c 0dc7 bc3d
00000010: 2699 f6bd 9401 8dbd ca20 44ba 119d 543e
00000020: 8b83 2abe 5e6d 4dbc b354 48bd 647e c23c
00000030: da77 91bb 2756 86bd 7847 fa3c a360 b73d
00000040: d654 343e 6bcc cf3d 5584 3ebd dbd2 d13c
00000050: 9a0e 103c 0553 82be d989 20be ca3e 07be
00000060: 2252 a23d 7a51 76bd 4fe8 193e f7a3 84bd
00000070: c1bb 3f3e 9138 d53c 4491 0dbd 0bb5 f33c
00000080: 17ff ddbd d020 f93e f892 7fbd 696f b3bd
00000090: fa01 66bd eb69 703c 5558 373e 14f9 6cbd
000000a0: 2964 6a3c 70b9 31bd dc70 f03c d6e1 5bbc
000000b0: a5c3 55bd 35f8 3ebe 745a 0c3e 41a3 1ebe
000000c0: c2b3 af3d d5bc c9bc 700e c83d 9871 723e
000000d0: 3f2a b5bd 3038 3cbc 54d0 dabd 02f3 b43c
000000e0: 2092 6b3d fa8a 15be 6a4e 263d 01d5 583d
000000f0: 89ac 85bc 9411 0e3c a42d 7fbb 7f58 17bc
00000100: 5eec dbbc 1180 183e 430d b6bd 71d8 6e3e
00000110: 05e2 993d 0e5a acbd 5e89 a9bd c0dd 1bbc
00000120: f2c8 8dbc 4066 03be 358c e1bd e1c7 e3bc
00000130: d330 833d d634 fc3d f906 c93d b598 e1bc
00000140: 1b54 a6bd c16f a4bd 1e22 53be be27 99bc
00000150: 6d70 0e3e 541c 18be 2a0d 1c3d 1193 cabd
00000160: b7b9 8f3d 4df6 213e c18b 0fbe f363 17bd
00000170: 62ea 9c3b 6e33 e23c bcb4 d2bb fa20 9ebd
00000180: 119b f2bd b65f e63d 058a 533d c6a8 b53d
00000190: 6af1 263e 72c0 923d f5dc dc3d d9c9 02be
000001a0: 3c48 e03b e643 68bd cf8a 153c c6d7 d2bd
000001b0: e8b9 a23d 8f3a ebbd 8db0 20be dfc7 56be
000001c0: 4158 0a3d 6408 653b 699f 573e d61c 243e
000001d0: b5ab 85bb 984e bebd 788b 803d 78fa 993b
000001e0: d5d5 f23d 7548 3b3e 19b1 bc3b a84d 793d
000001f0: ee89 ff3c 9987 c7bd cc0b 36be d447 dc3d
00000200: 8822 683d e379 f7bd 4ca0 8bbd b621 5fbe
00000210: 8847 843e 9e2e d23d ada5 6fbd 378f 803d
00000220: 7003 ebbc bfe7 263d d393 143e ca99 37bc
00000230: e22d 5c3d 3e88 023d 71e4 e7bc f5a3 8c3c
00000240: 01f7 863e 3bc2 813c 8b4c 073e 0676 323e
00000250: e40a 66bd 1478 f9ba 2f79 9bbd 5246 173e
00000260: 1638 bd3d f6c0 20bc 2ca7 afbe 6a18 b3bc
00000270: 2f2f 853e e5eb 0b3e 0eef 013e 5449 123e
00000280: 3c2f c73e 0605 dcbe f915 18bd c3fe 51bd
00000290: da07 9a3d f4a3 78be 4c59 bfbd 85a4 7ebc
000002a0: 4bfe e5bd 4e7c 71be 8e43 ae3c a3f3 203d
000002b0: 6535 c4bc 6b6c 0fbe 56f1 64be 511f 2f3e
000002c0: d42b 4bbd 2382 2abe 3f16 06be 40c1 bfbd
000002d0: 51c4 213e 86df 923e 88ff 583c 0299 2cbd
000002e0: 4f3a 25bc 3ab7 733d 60cd 953d f4a2 193e
000002f0: d7d5 1d3d 47ca 7e3e ca36 8f3d 17ad 533e
00000300: 042b 8a3d 9ebb 393d c0aa ecbe 5d07 213e
00000310: bf97 dd3e 0304 523e ed73 973e aac6 dd3e
00000320: 5404 a13e 9d48 3ebb 1fb3 0a3d d145 42bd
00000330: 16a3 893d 6a06 b4bd ec8b 083e d5ba 4fbd
00000340: f0c9 0cbf d60a 7c3e 65b7 c33b 4b08 013e
00000350: 7f13 78bd 06e4 ac3e 3fdd 18be d1cf 33bd
00000360: 3509 febd eca1 843e fd95 c4be 294a cabc
00000370: 38fa ed3e bac1 b2be d495 f6bc ee63 0cbf
00000380: 974d 6abe cdb2 51be cb83 edbe ff54 38bd
00000390: 6c7b 373d 5f7e 9b3e 768a edbc df5a 1f3d
000003a0: c469 d53b 6afd 1abe c8b5 44bd 0219 e3be
000003b0: c7f3 223e 9889 30be 0231 babe bc56 d8be
000003c0: 632b 9fbe b293 bcbd 86e2 093e 2a97 043f
000003d0: 2ed3 75bd 8d8a 1cbb 61e9 a9bd 4b54 58be
000003e0: 8620 cfbc 643e 21be 6566 19be 113e 2b3e
000003f0: 1707 13bf 8d39 143f a0b4 54be 7640 bf3d

proj.bias f4 [64]
0.007484428 0.017430801 -0.089836486 0.15424813 0.063446246 0.03309435 -0.08187619 0.00041925785
-0.005564562 -0.048692465 -0.007470805 -0.07080094 0.017065078 -0.009271887 -0.066580504 -0.0027194668
-0.16139285 -0.1438665 0.03384786 0.32225665 0.0124208825 0.10797424 0.09198765 0.021412442
-0.002464628 0.016264217 -0.012185802 0.030292926 -0.34035033 -0.00020243356 0.058218654 -0.11372768
-0.27785033 -0.028254222 -0.010725802 -0.29723206 0.16667922 0.003995622 0.0016727531 -0.049371354
0.008220542 0.15301883 -0.0039293524 -0.013505725 0.046458002 -0.0027868028 -0.021303032 -0.037515484
-0.05253834 -0.15285255 -0.0049240673 0.28134334 0.075362094 0.07684436 0.011615369 0.025327412
-0.16910972 -0.092007615 0.06352648 0.0020717084 0.002576779 0.0016793947 -0.0019738919 -0.010721572
00000000: ef3f f53b 0acb 8e3c 31fc b7bd 39f3 1d3e
00000010: 1bf0 813d f18d 073d b4ae a7bd d6cf db39
00000020: ee56 b6bb c071 47bd a8cd f4bb 1500 91bd
00000030: 10cc 8b3c 1de9 17bc 5c5b 88bd 1539 32bb
00000040: 2b44 25be bd51 13be 0ea4 0a3d d3fe a43e
00000050: f580 4b3c 9921 dd3d 0564 bc3d 2569 af3c
00000060: 9985 21bb 893c 853c f5a6 47bc df28 f83c
00000070: 6642 aebe 5844 54b9 af76 6e3d 0fea e8bd
00000080: 6642 8ebe 6675 e7bc 46bb 2fbc cd2e 98be
00000090: f5ad 2a3e b5ed 823b 4840 db3a 9e39 4abd
000000a0: 74af 063c f8b0 1c3e ccc1 80bb 1e47 5dbc
000000b0: bf4a 3e3d cba2 36bb b283 aebc d6a9 19bd
000000c0: 7132 57bd 6185 1cbe 125a a1bb 3c0c 903e
000000d0: 7157 9a3d 9360 9d3d 634e 3e3c 6f7b cf3c
000000e0: 192b 2dbe 7d6e bcbd 2c1a 823d 80c5 073b
000000f0: 2edf 283b 231f dc3a 695c 01bb 88a9 2fbc

scorer.bilin.weight f4 [1, 64, 64]
0.011791175 0.0799468 0.039552584 -0.047597215 -0.07154748 0.06559719 -0.11726319 -0.021171331
-0.031097211 0.17132698 0.029879097 0.2253239 0.097824715 0.011896785 0.10969468 -0.06732649
-0.1155703 0.016914928 0.014893865 0.04770074 0.05820307 -0.04043869 -0.06632633 0.047281146
-0.23875266 -0.11979914 -0.03431573 -0.21001981 -0.121347934 -0.019457206 0.117480434 -0.058880195
0.017789021 -0.09445189 -0.04005665 -0.01670412 -0.046796165 0.12223715 -0.04240841 -0.011048855
-0.11614864 0.04388746 0.023470357 -0.11154946 -0.0075024865 0.029168539 0.06263916 -0.035395116
-0.14370207 0.1647652 0.06148756 -0.052276917 0.075729355 -0.03564416 0.13569689 0.16671136
0.018670892 -0.06834721 -0.006550326 -0.0003223441 -0.119337 0.10756249 0.06976604 -0.13620074
-0.08907298 0.020522965 0.031908065 0.010926569 -0.0830232 -0.07542226 0.11591366 -0.06352929
-0.11153706 0.043652374 0.15230697 0.052667893 0.3222462 0.023025604 -0.16513003 -0.04897358
0.099486984 -0.026395509 0.024930248 0.1708861 0.14435656 -0.17242517 0.084672794 -0.004240731
-0.11751752 -0.031047123 -0.014948128 -0.28939041 0.08825169 0.0031681631 0.057799947 -0.09463061
0.082165204 0.009988475 -0.16361162 -0.108272 0.015487403 0.07124772 0.09004748 -0.05976597
0.09930937 -0.21187316 0.09295586 0.11908549 -0.10998465 -0.048804667 -0.07994812 0.07447661
0.0074209124 0.21273829 0.04132208 0.06540441 -0.05239935 0.047943514 0.07367195 0.005187578
0.028816633 0.15876341 0.17017952 -0.1785616 -0.16143145 0.03093165 0.10046965 -0.039417744
-0.05841977 0.011508974 0.12591752 0.20095098 -0.25720707 -0.10187532 -0.32895294 0.07839472
-0.09029365 0.2804143 0.08422127 0.09972328 0.044354256 0.032489218 0.1327404 -0.01477331
-0.025462003 -0.071818545 0.07311244 0.026513828 0.13228972 -0.024360819 -0.009372089 -0.04207886
-0.22328648 -0.15627001 -0.11236142 0.043864623 -0.08635616 0.123839445 -0.19529685 -0.09094314
-0.12060935 0.043579943 0.0134503925 0.086047456 -0.32926422 -0.17093453 0.064561136 -0.0059945164
0.14784744 -0.02183981 0.25525433 -0.010175899 0.14344624 0.0035442933 -0.13155298 -0.11313573
0.17183946 -0.08772026 -0.007514577 -0.01030553 0.058838528 0.08298904 -0.063644595 -0.13700715
-0.08089372 0.21116585 0.031066682 0.20467782 0.064693175 0.117750354 -0.19850838 0.08631322
0.06170403 -0.01913671 0.019604228 0.75485164 0.045510713 0.036825128 0.05788608 0.09636169
0.19335198 -0.10813005 -0.18479662 0.020146538 0.2537092 -0.0068378965 0.30533054 0.028395101
-0.1468195 -0.7310195 0.07016144 -0.33498314 -0.06442906 0.51868033 -0.24203274 -0.02246801
0.01720778 -0.05663678 -0.016067458 0.0468174 -0.3667134 -0.035950616 -0.031975083 -0.058902282
-0.13979019 0.07543972 0.08645193 0.26660693 0.106373936 -0.035123616 0.07569772 -0.09722534
-0.03625075 -0.118718065 0.28750527 -0.103380464 -0.3686412 -0.053533927 1.9074287e-05 0.39610848
-0.05965371 0.22217712 -0.0023363594 -0.037526 -0.057574973 -0.049275097 0.033064917 -0.0026997773
0.021088896 0.11118402 0.35451072 0.05814771 0.0644842 -0.004676357 -0.049889274 -0.009111218
00000000: c62f 413c 26bb a33d e401 223d 4cf5 42bd
00000010: 7c87 92bd d257 863d af27 f0bd 806f adbc
00000020: 94bf febc 5770 2f3e 02c5 f43c 4fbb 663e
00000030: 5358 c83d bcea 423c 9ba7 e03d 79e2 89bd
00000040: 1fb0 ecbd 2d91 8a3c 6605 743c da61 433d
00000050: 5866 6e3d 0aa3 25bd 19d6 87bd e0a9 413d
00000060: 947b 74be 4059 f5bd a78e 0cbd 6f0f 57be
00000070: 4485 f8bd b864 9fbc 9599 f03d 5c2c 71bd
00000080: 48ba 913c fe6f c1bd 7112 24bd 14d7 88bc
00000090: 56ad 3fbd 7957 fa3d 71b4 2dbd 4206 35bc
000000a0: 57df edbd 56c3 333d e844 c03c 0b74 e4bd
000000b0: 6bd7 f5bb dcf2 ee3c f648 803d 78fa 10bd
000000c0: a326 13be 35b8 283e 61da 7b3d 5220 56bd
000000d0: fe17 9b3d 9cff 11bd 20f4 0a3e 62b6 2a3e
000000e0: b3f3 983c 9ff9 8bbd 1ea4 d6bb 4b00 a9b9
000000f0: f566 f4bd b949 dc3d 7fe1 8e3d 3578 0bbe
00000100: e56b b6bd c71f a83c 08b2 023d 5a05 333c
00000110: 1108 aabd fc76 9abd 2464 ed3d a51b 82bd
00000120: 8b6d e4bd d5cc 323d 5cf6 1b3e 4aba 573d
00000130: 74fd a43e 31a0 bc3c d917 29be 8598 48bd
00000140: d5bf cb3d 653b d8bc 853a cc3c c4fc 2e3e
00000150: 35d2 133e 3990 30be ee68 ad3d d4f5 8abb
00000160: 07ad f0bd 8956 febc fee8 74bc fb2a 94be
00000170: 4dbd b43d f5a0 4f3b a3bf 6c3d b1cd c1bd
00000180: 3b46 a83d b3a6 233c ce89 27be b6bd ddbd
00000190: e0be 7d3c 53ea 913d d06a b83d 29cd 74bd
000001a0: b662 cb3d 47f5 58be a45f be3d 18e3 f33d
000001b0: a23f e1bd 67e7 47bd d7bb a3bd 3187 983d
000001c0: 202b f33b 11d8 593e 5741 293d bff2 853d
000001d0: b3a0 56bd 6b60 443d 52e1 963d 8ffc a93b
000001e0: dc10 ec3c e092 223e 8a43 2e3e dad8 36be
000001f0: 494e 25be 5f64 fd3c 08c3 cd3d 8074 21bd
00000200: 9249 6fbd 2390 3c3c 86f0 003e 18c6 4d3e
00000210: a5b0 83be 02a4 d0bd 856c a8be 698d a03d
00000220: e1eb b8bd 7792 8f3e 347c ac3d b83b cc3d
00000230: cfac 353d 6a13 053d 19ed 073e c10b 72bc
00000240: b195 d0bc 9a15 93bd fabb 953d 8733 d93c
00000250: f576 073e 5790 c7bc 648d 19bc e25a 2cbd
00000260: 36a5 64be 3f05 20be bf1d e6bd 64ab 333d
00000270: 80db b0bd 899f fd3d e6fb 47be 6640 babd
00000280: 0902 f7bd e280 323d 095f 5c3c a639 b03d
00000290: 5295 a8be 7609 2fbe a138 843d a66d c4bb
000002a0: 5265 173e 67e9 b2bc b2b0 823e d0b8 26bc
000002b0: 92e3 123e 6047 683b d3b5 06be b5b3 e7bd
000002c0: aff6 2f3e aea6 b3bd d73c f6bb 87d8 28bc
000002d0: ab00 713d 28f6 a93d 1958 82bd 9a4b 0cbe
000002e0: 9bab a5bd dc3b 583e 8e7f fe3c 1097 513e
000002f0: db7d 843d 1927 f13d c845 4bbe fcc4 b03d
00000300: 5dbd 7c3d 97c4 9cbc 0c99 a03c f53d 413f
00000310: 7169 3a3d f2d5 163d f419 6d3d 4759 c53d
00000320: 10fe 453e 4a73 ddbd 533b 3dbe 5a0a a53c
00000330: 2ce6 813e 6f10 e0bb 4954 9c3e d89c e83c
00000340: da57 16be 1824 3bbf cdb0 8f3d e982 abbe
00000350: 62f3 83bd 3cc8 043f 6ed7 77be d50e b8bc
00000360: 55f7 8c3c f8fb 67bd e79f 83bc 9ac3 3f3d
00000370: dcc1 bbbe f440 13bd 4ef8 02bd 8543 71bd
00000380: 2925 0fbe 2480 9a3d b60d b13d b480 883e
00000390: 94da d93d c8dd 0fbd 6807 9b3d 141e c7bd
000003a0: ab7b 14bd 7522 f3bd e433 933e 23b9 d3bd
000003b0: 8abe bcbe 6446 5bbd b801 a037 bbce ca3e
000003c0: 7357 74bd 6682 633e 9b1d 19bb ddb4 19bd
000003d0: bcd3 6bbd afd4 49bd 146f 073d bfee 30bb
000003e0: 9fc2 ac3c 73b4 e33d 6e82 b53e 4b2c 6e3d
000003f0: 4b10 843d 203c 99bb b258 4cbd 3847 15bc
