checkpoints/curve30_gat_v2.pt (torch, 109922 bytes, 11 tensors)

convs.0.att_src f4 [1, 4, 64]
0.08981761 0.008342293 -0.64868444 -0.5170343 0.55822444 0.68873364 -0.5238705 -0.7025013
0.49857062 -1.1293305 0.6364442 0.5956992 0.5596827 0.4042828 0.49869868 -0.85906094
-0.979895 0.13830064 -0.8056482 0.72455686 -0.13256367 -0.7069098 -0.70941633 0.75384474
0.232439 -0.7855326 0.9546165 0.3200565 -0.18303396 -0.36160275 1.0231483 -0.8305479
0.5772035 0.06950227 -0.40996483 -0.19605811 -0.64960206 0.5469959 -0.29028776 0.9197378
-0.47063798 -0.6190318 -0.25375345 -0.49364397 0.7564823 -0.18388598 0.42930597 -0.5181231
0.10934898 -0.73643327 0.30684975 -0.46990857 -0.9345206 0.7034738 -0.0008570954 0.096012175
0.4899354 -1.055169 -0.35511392 -0.9781299 0.5824539 0.93291074 0.65693563 0.6917231
0.0059352024 -0.5004882 0.14796023 0.2399408 -0.18447818 0.23921433 0.5927497 -0.22262098
-0.020472048 0.097819045 -0.04639853 0.11898756 -0.16272962 0.15119155 -0.012141781 -0.034142
-0.13558473 0.018875621 0.1140145 -0.004087058 -0.04036214 -0.035762288 -0.4232386 -0.26193967
-0.17785093 -0.05564446 -0.32107744 0.13469495 -0.18878578 0.12295281 0.3591126 0.1611089
-0.09518464 -0.10123548 -0.045610033 -0.2404545 0.4500422 -0.34167063 0.39533827 0.27169725
-0.15864149 -0.053422138 -0.3071372 0.4195437 -0.04513683 -0.0683643 0.20599906 -0.29998684
0.055286072 0.16797495 0.025292283 -0.4742387 0.055667162 0.24457835 0.045057252 -0.0642106
-0.06394161 -0.02447252 -0.14820103 -0.34711355 0.1456267 0.13243891 -0.2888755 0.50228965
-0.16418931 0.2784428 -0.24274397 -0.080065876 -0.044361863 0.4961859 -0.11368882 -0.018746994
0.07904892 0.57417965 0.0055313706 0.1346622 -0.21320401 0.38970152 -0.5499752 -0.22704555
-0.2853913 -0.42261547 0.10193426 -0.117418736 0.18060994 -0.3912172 0.50177354 0.3316543
0.31909615 -0.10797406 0.26932758 -0.2626236 -0.3349688 0.30319652 -0.017943067 0.14493594
0.14952794 -0.47059444 -0.3257689 0.14158085 0.2780156 0.1761927 -0.36083418 0.5980042
0.26089358 -0.1442781 -0.5892806 -0.67662525 -0.31965977 0.12745823 0.014012059 0.32238933
-0.4602668 0.35923395 -0.073021874 0.14034246 0.20307639 -0.25121546 0.080431275 0.17826451
0.439803 0.4591109 0.42031997 0.06758947 -0.19319108 0.3911933 -0.5267253 0.49064076
0.2084702 0.26622844 0.6347686 0.043943267 -0.5277482 -0.010886181 0.33712003 -1.0493033
0.67359775 0.71298945 -0.015499591 0.27257076 -0.25498232 -0.5246323 0.8627941 -0.37689131
0.063354574 1.0551134 0.35544905 -0.14405824 -0.96985245 0.90851516 -0.34837753 0.12402822
-0.2849806 -0.049864314 -0.3726425 -0.38875943 0.39191154 0.4028359 -0.38133025 0.9724355
-0.7917701 -0.24594073 -0.3913013 0.28948018 0.3420453 0.09762727 -0.5133285 0.5728254
-0.56351525 0.17716669 0.11129276 -0.48077005 -0.25314173 0.48934925 0.33775932 -0.61050606
0.5833526 0.9913478 -0.40159348 0.44407627 0.90348065 -0.68407696 -0.18925747 0.0022908628
-0.6709543 0.8791601 -0.50203 0.31892893 -0.04229407 0.43364105 -0.20401387 -0.17008604
00000000: 4cf2 b73d 1dae 083c 2f10 26bf 5c5c 04bf
00000010: cce7 0e3f d950 303f 611c 06bf 20d7 33bf
00000020: a644 ff3e e78d 90bf 02ee 223f be7f 183f
00000030: 5e47 0f3f 28fe ce3e 6f55 ff3e 6beb 5bbf
00000040: 66da 7abf af9e 0d3e f63e 4ebf 8f7c 393f
00000050: c5be 07be 0af8 34bf 4f9c 35bf f8fb 403f
00000060: 7d04 6e3e aa18 49bf bf61 743f 72de a33e
00000070: 416d 3bbe ff23 b9be 86f6 823f ca9e 54bf
00000080: 9cc3 133f 3557 8e3d e9e6 d1be 75c3 48be
00000090: 524c 26bf ec07 0c3f 99a0 94be f073 6b3f
000000a0: 76f7 f0be de78 1ebf f9eb 81be e7be fcbe
000000b0: d3a8 413f 9b4c 3cbe fecd db3e b7a3 04bf
000000c0: 5cf2 df3d e486 3cbf 691b 9d3e db97 f0be
000000d0: be3c 6fbf dc16 343f b3ae 60ba 08a2 c43d
000000e0: d0d8 fa3e c70f 87bf 7ed1 b5be b966 7abf
000000f0: b31b 153f 3dd3 6e3f ef2c 283f c414 313f
00000100: 167c c23b ff1f 00bf e382 173e 0bb3 753e
00000110: d9e7 3cbe 9af4 743e 72be 173f c1f6 63be
00000120: ffb4 a7bc 5a55 c83d 630c 3ebd c0af f33d
00000130: 98a2 26be f5d1 1a3e 52ee 46bc 7bd8 0bbd
00000140: b9d6 0abe 0ca1 9a3c 6f80 e93d baec 85bb
00000150: c552 25bd 7a7b 12bd bbb2 d8be f51c 86be
00000160: 8e1e 36be 72eb 63bd 4364 a4be 79ed 093e
00000170: 0f51 41be afce fb3d 9bdd b73e bbf9 243e
00000180: 2af0 c2bd 8c54 cfbd 96d1 3abd b439 76be
00000190: ee6b e63e 74ef aebe c769 ca3e e71b 8b3e
000001a0: ea72 22be 2cd1 5abd 1641 9dbe 6fce d63e
000001b0: 66e1 38bd 9502 8cbd 6bf1 523e e097 99be
000001c0: a673 623d a001 2c3e c331 cf3c 6acf f2be
000001d0: 4003 643d bf72 7a3e f48d 383d d980 83bd
000001e0: d2f3 82bd 987a c8bc 03c2 17be deb8 b1be
000001f0: 2a1f 153e 119e 073e 7de7 93be 0e96 003f
00000200: 3e21 28be 0e90 8e3e e091 78be 94f9 a3bd
00000210: c9b4 35bd 140c fe3e afd5 e8bd 4c93 99bc
00000220: 66e4 a13d 70fd 123f 8040 b53b e3e4 093e
00000230: 2752 5abe f586 c73e 2dcb 0cbf a17e 68be
00000240: cf1e 92be 0e61 d8be e9c2 d03d 3c79 f0bd
00000250: d0f1 383e 9f4d c8be 3b74 003f 98ce a93e
00000260: 9260 a33e 8121 ddbd 4ee5 893e 9a76 86be
00000270: 0881 abbe 933c 9b3e 57fd 92bc 166a 143e
00000280: da1d 193e c1f1 f0be 2ecb a6be 92fa 103e
00000290: 1058 8e3e dc6b 343e 42bf b8be ce16 193f
000002a0: d893 853e a3bd 13be 18db 16bf 5037 2dbf
000002b0: 72aa a3be 6984 023e d692 653c 3710 a53e
000002c0: 17a8 ebbe 83ed b73e 7e8c 95bd efb5 0f3e
000002d0: 42f3 4f3e 509f 80be 27b9 a43d f98a 363e
000002e0: dc2d e13e 9510 eb3e 2e34 d73e 596c 8a3d
000002f0: e2d3 45be 7d4a c83e 78d7 06bf 4435 fb3e
00000300: 3679 553e 184f 883e 3280 223f dbfd 333d
00000310: 821a 07bf f45b 32bc ff9a ac3e 924f 86bf
00000320: e770 2c3f 7a86 363f fff1 7dbc 658e 8b3e
00000330: 0b8d 82be 4d4e 06bf 13e0 5c3f e6f7 c0be
00000340: 0bc0 813d f50d 873f 6bfd b53e 0184 13be
00000350: 4048 78bf 7394 683f 8a5e b2be 8202 fe3d
00000360: fae8 91be 863e 4cbd ffca bebe 7a0b c7be
00000370: a1a8 c83e 8240 ce3e b83d c3be 88f1 783f
00000380: 72b1 4abf e3d7 7bbe a558 c8be bf36 943e
00000390: 9020 af3e cef0 c73d 7f69 03bf afa4 123f
000003a0: 8942 10bf 2f6b 353e 75ed e33d 7e27 f6be
000003b0: cb9b 81be fc8b fa3e caee ac3e 204a 1cbf
000003c0: 9956 153f f8c8 7d3f a99d cdbe f75d e33e
000003d0: 824a 673f ab1f 2fbf b6cc 41be 4d22 163b
000003e0: a9c3 2bbf a310 613f 0a85 00bf a74a a33e
000003f0: 8c3c 2dbd 3306 de3e 03e9 50be 092b 2ebe

convs.0.att_dst f4 [1, 4, 64]
-0.16030535 -0.14295635 -0.06626752 -0.20752503 -0.1901762 0.32526967 0.0634791 -0.29428044
0.13333265 0.19542794 0.3442819 0.12246864 0.31534925 -0.07204018 0.21824427 0.32481256
-0.28614983 -0.29818827 0.09500877 0.123207 -0.1430705 0.0269248 -0.0043576937 -0.028675912
-0.23592599 0.1884469 0.19461733 -0.15504092 0.06049498 0.06230753 0.10666381 0.37440202
0.09257637 -0.010515932 0.30360237 -0.16554148 -0.13411117 0.058225386 -0.20804073 0.11937594
-0.13406707 0.17960928 0.09129296 0.028590942 -0.22825041 -0.012371729 0.18674658 0.3293967
-0.33847383 0.16626438 -0.18166827 0.00093166734 0.38456088 0.17145075 -0.15012762 0.23324464
0.13809967 0.047794674 0.353454 -0.06925592 -0.14485918 -0.16264474 0.092147894 0.022735856
0.43035614 -1.1327559 -0.17194623 0.5847986 -0.35745433 0.47292033 0.78626037 -0.25994253
0.9206461 0.21437168 -0.21514332 -0.20396309 -0.3370914 0.11340964 -0.09357953 -0.26659146
0.031250894 -0.5457123 0.12375753 0.109509826 0.30872634 -0.8789292 -0.8739408 -0.3524479
0.3506531 0.4730293 -0.1276438 0.02166406 -0.36000234 -0.49625978 0.94875723 0.7197175
0.89121103 -0.050149098 0.012033294 -0.10358116 1.3067983 -0.30596554 1.4420183 0.1636535
-0.14869815 -0.07910456 -0.49822274 0.7657018 -0.19120549 0.70402664 -0.4708794 -0.014831925
0.3321692 0.09216443 0.378401 -0.16735092 0.43045643 0.80236274 -0.47125322 -0.4767412
-0.37822115 0.1709144 -0.54427195 -0.7045049 -0.3233505 -0.38640922 -0.30200055 0.46724972
0.21723752 -0.0038465399 -0.052809536 0.18951398 -0.008897543 -0.61939716 -0.30799964 0.1151677
-0.46290684 -0.1729678 0.49617642 -0.15881613 0.07161541 -0.03055227 0.089658804 0.1749106
-0.072250746 0.12272357 -0.26753405 0.03735928 -0.10676568 -0.022668999 0.015414747 -0.38234743
-0.32648173 0.2445964 -0.24404207 0.06537926 0.3228586 -0.25386623 -0.50257266 -0.24386725
-0.8248176 0.055250853 -0.028547838 -0.5395019 -0.839647 -0.32340726 0.19075033 -0.04146545
-0.14006126 -0.35648772 0.058294702 -0.10102628 0.3290784 0.250039 -0.41417217 -0.3398267
0.2853273 -0.08380069 0.103856914 0.13074067 -0.51792556 0.092912935 0.10838409 -0.243611
-0.32959178 -0.31490183 0.20511645 -0.52741504 0.2851504 -0.5374768 0.09811675 -0.45065203
-0.27731985 0.24274258 -0.44809258 0.39096457 -0.23259303 -0.14609157 -0.21847636 -0.058598004
-0.19990934 0.106063776 -0.080888115 -0.4402468 -0.31448644 -0.36391804 0.08087964 0.36176404
-0.29454756 0.32845378 -0.356599 -0.36440215 0.07643495 -0.1784973 -0.41367528 -0.52202874
-0.5039485 -0.14781764 0.34954596 0.04636163 0.48767817 -0.21491294 -0.21731326 -0.21052025
0.09289314 -0.5271526 -0.07513479 0.040527612 -0.10103335 0.27693638 -0.09340605 0.50327903
0.3151356 0.43328768 -0.17554365 0.39658803 -0.05770343 -0.10226631 0.046133053 0.14825119
-0.0367335 0.019853571 -0.08902998 0.079839066 -0.023498148 -0.33477664 -0.2735068 -0.16419838
-0.16235149 -0.27436918 -0.004017221 -0.16256908 -0.44936433 -0.07671369 -0.28571856 -0.35147402
00000000: 1627 24be 2663 12be 44b7 87bd 7181 54be
00000010: 8dbd 42be bf89 a63e 5501 823d edab 96be
00000020: 5b88 083e 431e 483e b845 b03e d7d0 fa3d
00000030: 7575 a13e cd89 93bd 6d7b 5f3e d54d a63e
00000040: 3b82 92be 22ac 98be f593 c23d f453 fc3d
00000050: 1381 12be 6691 dc3c fcca 8ebb bfe9 eabc
00000060: 9596 71be 39f8 403e c449 473e 0cc3 1ebe
00000070: 96c9 773d 2e36 7f3d 8e72 da3d 9fb1 bf3e
00000080: ae98 bd3d 044b 2cbc c571 9b3e b583 29be
00000090: 7054 09be be7d 6e3d a108 55be 5f7b f43d
000000a0: e148 09be 7feb 373e cef7 ba3d 8d37 ea3c
000000b0: 7aba 69be cbb2 4abc 7f3a 3f3e afa6 a83e
000000c0: 714c adbe 3641 2a3e 3f07 3abe 233b 743a
000000d0: 2ae5 c43e c990 2f3e 0ebb 19be afd7 6e3e
000000e0: 006a 0d3e 59c4 433d ecf7 b43e 0cd6 8dbd
000000f0: f755 14be 588c 26be 09b8 bc3d 8c40 ba3c
00000100: a457 dc3e 25fe 90bf ac12 30be 5cb5 153f
00000110: 4104 b7be 9d22 f23e 5c48 493f 3017 85be
00000120: 76af 6b3f 4084 5b3e 884e 5cbe b3db 50be
00000130: 3e97 acbe 5043 e83d a0a6 bfbd ad7e 88be
00000140: f000 003d cdb3 0bbf 9674 fd3d b046 e03d
00000150: 6111 9e3e 8101 61bf 96ba 5fbf 0d74 b4be
00000160: ce88 b33e e530 f23e 0eb5 02be d478 b13c
00000170: 3a52 b8be c315 febe c1e1 723f 683f 383f
00000180: 6826 643f 2469 4dbd 4b27 453c 5c22 d4bd
00000190: 2b45 a73f 84a7 9cbe 0e94 b83f c894 273e
000001a0: 5444 18be 9201 a2bd 0d17 ffbe 0805 443f
000001b0: 5fcb 43be 173b 343f 1b17 f1be 9a01 73bc
000001c0: 1512 aa3e b4c0 bc3d c7bd c13e 0a5e 2bbe
000001d0: c964 dc3e a567 4d3f 1a48 f1be 6c17 f4be
000001e0: 34a6 c1be 2f04 2f3e 6855 0bbf 6f5a 34bf
000001f0: 328e a5be 6ed7 c5be d19f 9abe 5b3b ef3e
00000200: 8373 5e3e 3b16 7cbb d04e 58bd f40f 423e
00000210: 00c7 11bc d090 1ebf 21b2 9dbe 0bdd eb3d
00000220: 2002 edbe 791e 31be d60a fe3e b2a0 22be
00000230: 1aab 923d c148 fabc 099f b73d c41b 333e
00000240: 33f8 93bd 7f56 fb3d 39fa 88be 0b06 193d
00000250: f7a7 dabd 56b4 b9bc 238e 7c3c 0bc3 c3be
00000260: 9d28 a7be 7b77 7a3e 2ae6 79be 90e5 853d
00000270: b94d a53e c1fa 81be 9aa8 00bf 56b8 79be
00000280: 3f27 53bf b84e 623d 28dd e9bc cc1c 0abf
00000290: 1bf3 56bf a395 a5be 0e54 433e add7 29bd
000002a0: 386c 0fbe 8f85 b6be 6dc6 6e3d dee6 cebd
000002b0: f77c a83e 1d05 803e 600e d4be c4fd adbe
000002c0: 6b16 923e b29f abbd efb2 d43d e2e0 053e
000002d0: c596 04bf 2349 be3d 7af8 dd3d 2975 79be
000002e0: 41c0 a8be d03a a1be 0c0a 523e ac04 07bf
000002f0: 3cff 913e 1498 09bf 6ff1 c83d ddbb e6be
00000300: defc 8dbe 8391 783e 646c e5be 822c c83e
00000310: de2c 6ebe 0799 15be 44b8 5fbe 7604 70bd
00000320: 09b5 4cbe f737 d93d aba8 a5bd 0768 e1be
00000330: 5e04 a1be 7753 babe 3aa4 a53d 2339 b93e
00000340: f0ce 96be 182b a83e 2594 b6be eb92 babe
00000350: ed89 9c3d ffc7 36be 3fcd d3be ada3 05bf
00000360: c502 01bf 825d 17be b0f7 b23e b1e5 3d3d
00000370: f4b0 f93e 2312 5cbe 5e87 5ebe 9f92 57be
00000380: c23e be3d 79f3 06bf 45e0 99bd 4800 263d
00000390: 93ea cebd 9bca 8d3e ac4b bfbd e5d6 003f
000003a0: 7459 a13e e2d7 dd3e b7c1 33be 960d cb3e
000003b0: 6f5a 6cbd 0071 d1bd 03f6 3c3d 29cf 173e
000003c0: de75 16bd f5a3 a23c 5a55 b6bd aa82 a33d
000003d0: 307f c0bc d867 abbe 1509 8cbe 9f23 28be
000003e0: 783f 26be 1e7a 8cbe e4a2 83bb 8278 26be
000003f0: 1513 e6be 111c 9dbd b449 92be 67f4 b3be

convs.0.bias f4 [64]
-0.004584999 -0.11653089 0.06821061 -0.09794598 0.021314684 -0.01044604 0.06457317 -0.12446869
0.056478493 0.08486144 -0.1894773 -0.051108055 0.12090868 -0.06216268 -0.25626573 -0.19280677
0.03756449 -0.14940144 0.10201507 -0.12293366 -0.13379285 -0.04281816 0.015601257 -0.056421217
-0.075014174 -0.015507472 -0.14123803 0.14576155 -0.08547142 0.113244705 0.080688134 0.04365917
-0.060167667 0.12071499 0.1270409 -0.015987977 0.039814204 -0.02428111 -0.004143485 -0.29444572
-0.17185137 -0.1338074 0.05161756 -0.030197712 0.09146929 -0.08417728 -0.019776436 -0.11375923
-0.037868403 0.058270708 -0.0025423586 -0.0783087 0.020193852 0.015236141 0.11566366 0.06361453
-0.075877585 0.10814636 -0.04094616 -0.17164409 0.085963234 -0.105963096 0.08866074 -0.076443434
00000000: c23d 96bb bfa7 eebd 01b2 8b3d e797 c8bd
00000010: 229c ae3c de25 2bbc f03e 843d 71e9 febd
00000020: fe55 673d d6cb ad3d 5606 42be ae56 51bd
00000030: f89e f73d 4b9e 7ebd 4335 83be 236f 45be
00000040: 39dd 193d b1fc 18be 47ed d03d a5c4 fbbd
00000050: fe00 09be 1862 2fbd 6a9c 7f3c ef19 67bd
00000060: 08a1 99bd 0d13 7ebc b4a0 10be 8442 153e
00000070: a40b afbd d7ec e73d d23f a53d f5d3 323d
00000080: 5f72 76bd 6c39 f73d 0217 023e 38f9 82bc
00000090: 3814 233d 2ee9 c6bc 12c6 87bb 97c1 96be
000000a0: cef9 2fbe cf04 09be ef6c 533d 3161 f7bc
000000b0: 4054 bb3d 2365 acbd 3102 a2bc 99fa e8bd
000000c0: e61b 1bbd 44ad 6e3d b39d 26bb 5060 a0bd
000000d0: 946d a53c 02a1 793c 12e1 ec3d 5648 823d
000000e0: b565 9bbd d77b dd3d 29b7 27bd 78c3 2fbe
000000f0: 7e0d b03d 2e03 d9bd c393 b53d 608e 9cbd

convs.0.lin.weight f4 [256, 2]
-0.44684827 -0.1556418 -0.19175582 0.028471297 0.03518336 -0.6722873 0.3258742 0.018804941
-0.5466067 0.02347804 0.078459375 0.19882171 0.053963225 -0.62280554 0.43887138 -0.1008849
0.33693078 0.0143857915 0.3319479 -0.1582713 0.058780972 0.47780308 -0.51808816 0.054423563
-0.81083006 -0.019142082 -0.44203702 0.09260364 -0.45578155 0.09128401 0.1603767 -0.0759625
0.76969653 -0.2414557 0.55515534 0.4159593 0.4488846 -0.19500586 -0.46581063 0.17094459
0.4734796 0.18178998 0.11505292 -0.3738655 0.7004466 -0.22968097 -0.38506037 0.19757907
0.26296338 0.31176013 0.22352032 -0.4908929 -0.37976807 0.16734947 -0.9375332 -0.11597678
-0.47769123 -0.1549732 -0.07251936 -0.15928306 0.00287303 0.0328127 0.5407106 -0.33820963
-0.54704 0.13252321 -0.81359553 -0.09818654 -0.28871253 -0.20836048 0.16994004 0.16584001
0.48708194 -0.024491077 -0.20239785 0.014635939 -0.044597182 -0.15501767 0.085762784 0.30932045
0.22959381 0.051787023 0.38516814 -0.097070545 -0.25041664 -0.087149575 0.8501621 -0.17773362
-0.74164325 -0.07928279 0.3056954 -0.2894286 -0.5845293 -0.12823454 0.28385118 -0.058646724
0.40525544 0.1479255 0.25836357 -0.2579555 -0.37683243 0.008555729 0.7001309 -0.0909082
0.32725438 -0.34310558 -0.3996901 0.07398924 -0.59392864 -0.1357998 -0.33568963 -0.06947675
-0.38085312 0.021288484 0.1125783 -0.18162905 -0.17660403 -0.14932652 0.42081025 -0.7332865
-0.55877566 0.064074025 -0.80359995 0.21375857 -0.91179764 -0.1060331 -0.39926758 0.09968243
-0.0678669 -0.18591598 -0.028004847 0.31794035 -0.099792056 0.02861872 -0.051327728 -0.11118052
-0.25995144 -0.07446763 0.3032297 -0.2570413 -0.16546369 -0.5693175 0.21679364 0.31507272
-0.000563178 -0.40881768 0.22061963 -0.14014535 0.045309678 0.07920187 -0.25587776 -0.08977763
-0.4616642 -0.0327669 -0.19855642 -0.16736412 -0.03568958 0.04003875 0.05866161 0.08473865
0.27499542 0.004405089 -0.093045615 0.019765217 -0.01821533 -0.20244248 -0.03387069 -0.10564802
0.2737267 0.011755253 -0.1488477 0.26425365 0.020283759 0.3190319 -0.21466391 0.026612757
0.001966092 -0.5200977 0.014675954 -0.17083766 0.082265355 0.15532194 -0.7696382 0.012232901
0.032372084 0.15701169 -0.13148668 -0.12964793 0.07160219 -0.31524265 0.1971467 -0.24654728
0.13960655 -0.15942077 -0.55576503 -0.017823456 -0.57843786 -0.08500394 -0.068456516 -0.07454729
0.14510277 -0.7156229 0.19655818 0.21932225 0.07129012 -0.815799 0.17732394 0.009238041
0.0567309 0.12355131 0.14221306 0.18386509 -0.42209575 -0.02757665 0.18709965 -0.22863156
-0.4742284 -0.12939301 0.14689144 -0.4217862 -0.4579872 0.16718154 0.23177533 0.32896683
-0.06257787 -0.3955592 0.22538863 -0.12810484 -0.10017173 -0.42339984 0.21614343 0.19390456
0.18753394 -0.18087211 0.027904503 -0.40871018 -0.77099013 -0.010299446 -0.26198488 -0.055838384
-0.49701655 0.14020018 0.30531693 -0.21406415 -0.09387823 0.07300068 -0.10065722 0.28513607
-0.58701617 -0.014207105 0.0025297177 0.09505343 -0.5387686 -0.039966844 -0.13093615 -0.49799028
00000000: 4cc9 e4be 9060 1fbe a35b 44be a33c e93c
00000010: 6d1c 103d 051b 2cbf fcd8 a63e d20c 9a3c
00000020: 6bee 0bbf 0555 c03c 4faf a03d eb97 4b3e
00000030: 8b08 5d3d 2f70 1fbf c0b3 e03e be9c cebd
00000040: 3182 ac3e 62b2 6b3c 13f5 a93e df11 22be
00000050: 51c4 703d 9ba2 f43e 6da1 04bf 3eeb 5e3d
00000060: 8f92 4fbf dbcf 9cbc ad52 e2be faa6 bd3d
00000070: 335c e9be 1cf3 ba3d ca39 243e 3a92 9bbd
00000080: d50a 453f 2a40 77be a91e 0e3f 9ef8 d43e
00000090: 34d4 e53e 9eaf 47be bb7e eebe 190c 2f3e
000000a0: eb6b f23e 2727 3a3e dea0 eb3d 4c6b bfbe
000000b0: 7850 333f 7d31 6bbe a226 c5be 2b52 4a3e
000000c0: 23a3 863e 069f 9f3e 83e2 643e 5056 fbbe
000000d0: f670 c2be a95d 2b3e 2d02 70bf 3c85 edbd
000000e0: f293 f4be 4bb1 1ebe 0885 94bd 191b 23be
000000f0: 7249 3c3b 9c66 063d 036c 0a3f d029 adbe
00000100: d00a 0cbf 2ab4 073e cc47 50bf 0616 c9bd
00000110: 21d2 93be 735c 55be c304 2e3e f7d1 293e
00000120: ce62 f93e 83a1 c8bc 6241 4fbe 94cb 6f3c
00000130: 89ab 36bd f4bc 1ebe 66a4 af3d 405f 9e3e
00000140: a41a 6b3e a11e 543d c234 c53e eccc c6bd
00000150: 9c36 80be 7a7b b2bd 39a4 593f cdff 35be
00000160: 55dc 3dbf 045f a2bd 1c84 9c3e fc2f 94be
00000170: b6a3 15bf ea4f 03be f154 913e 8c37 70bd
00000180: a47d cf3e c879 173e 3b48 843e be12 84be
00000190: 2ef0 c0be 542d 0c3c c73b 333f 142e babd
000001a0: e38d a73e 89ab afbe 2ea4 ccbe ac87 973d
000001b0: b50b 18bf 1a0f 0bbe 83df abbe d449 8ebd
000001c0: 2eff c2be 3065 ae3c 748f e63d f7fc 39be
000001d0: b0d7 34be 0de9 18be 7174 d73e aab8 3bbf
000001e0: ec0b 0fbf 3e39 833d bab8 4dbf 87e3 5a3e
000001f0: 926b 69bf e227 d9bd cd6c ccbe 4d26 cc3d
00000200: cdfd 8abd c260 3ebe 6c6a e5bc 14c9 a23e
00000210: c75f ccbd ce71 ea3c 063d 52bd 9db2 e3bd
00000220: 5b18 85be 7c82 98bd ec40 9b3e eb9a 83be
00000230: 506f 29be cbbe 11bf 27ff 5d3e 3651 a13e
00000240: 3ca2 13ba 8d50 d1be 1dea 613e 4382 0fbe
00000250: a496 393d 9734 a23d 6902 83be 56dd b7bd
00000260: 405f ecbe 9636 06bd 6052 4bbe 8061 2bbe
00000270: 3d2f 12bd acff 233d 2847 703d 758b ad3d
00000280: 33cc 8c3e 9158 903b b38e bebd aaea a13c
00000290: 5138 95bc 154d 4fbe febb 0abd fd5d d8bd
000002a0: e825 8c3e 1b99 403c 886b 18be 414c 873e
000002b0: 202a a63c 2658 a33e dbd0 5bbe ff02 da3c
000002c0: 8dd9 003b 1f25 05bf 6a73 703c 11f0 2ebe
000002d0: bd7a a83d b70c 1f3e 0207 45bf 816c 483c
000002e0: 9798 043d acc7 203e 72a4 06be 6dc2 04be
000002f0: 2ba4 923d 7c67 a1be d3e0 493e e476 7cbe
00000300: 05f5 0e3e 333f 23be 9e46 0ebf 7f02 92bc
00000310: 8114 14bf 8c16 aebd ee32 8cbd 40ac 98bd
00000320: d295 143e 1033 37bf 8c46 493e 0396 603e
00000330: 8e00 923d 34d8 50bf 6894 353e 275b 173c
00000340: a95e 683d 7808 fd3d 4da0 113e 2147 3c3e
00000350: ef1c d8be 6de8 e1bc 0d97 3f3e 641e 6abe
00000360: 11ce f2be 9a7f 04be b66a 163e 5cf4 d7be
00000370: 4c7d eabe a331 2b3e 8356 6d3e 576e a83e
00000380: d428 80bd bc86 cabe 47cc 663e ea2d 03be
00000390: d626 cdbd ddc7 d8be b454 5d3e eb8e 463e
000003a0: e608 403e 8a36 39be fc97 e43c 7642 d1be
000003b0: 9c5f 45bf 02bf 28bc e222 86be cab6 64bd
000003c0: f478 febe a390 0f3e 8052 9c3e a233 5bbe
000003d0: 3b43 c0bd 6181 953d 5f25 cebd 5bfd 913e
000003e0: b146 16bf ebc4 68bc 9fc9 253b 5fab c23d
000003f0: bdec 09bf 46b4 23bd 2014 06be 95f8 febe

convs.1.att_src f4 [1, 4, 64]
0.31265083 0.46597612 -0.3026412 0.8471204 0.35622194 0.6910969 0.25816122 0.20036834
0.7088756 -0.41970804 0.29308367 0.40736446 -0.430365 0.46190405 0.18292403 0.8095401
0.5490142 -0.36106727 0.25046575 -0.16753483 0.44414386 -0.5100237 0.00069427566 0.45483038
0.6483069 -0.43971908 0.4185227 -0.99218136 -0.16749579 0.9393103 0.38408327 -0.204695
-0.20546338 -0.6721591 0.32217738 0.20522529 -0.08913278 0.39521712 -0.72499996 -0.33750734
-0.1820685 -0.07780258 0.11965472 0.49333045 0.01547377 0.31458133 0.0039474247 0.12763841
0.71032465 0.25949177 0.12947077 0.42141578 -0.8484395 0.34275785 -0.22758658 0.16567583
-0.18220884 0.20232286 0.47115985 -0.08000226 -0.22493911 0.5275506 -0.012075458 0.44269013
0.35715377 -0.7102262 0.049847778 -0.6106771 -0.099199064 -0.20023005 0.17911221 0.09925282
-0.295173 0.48596948 -0.25900975 -0.0056386916 0.7222178 0.538287 -0.2753727 -0.10011868
-0.14903529 0.25445423 -0.32439598 0.5484039 -0.4670748 -0.71844625 0.43681872 -0.038830604
-0.34914464 0.52536595 0.0050818697 -0.54758483 -0.41445914 0.06346759 -0.15077071 0.20834377
-0.48809454 -0.04311303 -0.32305303 0.4589419 -0.0706179 -0.00093447784 0.27006525 -0.40964782
-0.068213545 -0.4355521 -0.42537415 0.11305232 -0.011009495 -0.24626592 0.44033864 0.3510748
-0.29289076 -0.4687927 -0.061404213 0.08034571 -0.23242745 0.104933664 0.35632938 -0.11474409
-0.34793165 -0.28766274 0.25383568 -0.45498362 0.34916613 -0.4503912 0.07901212 0.32153186
0.57099205 -0.48026925 0.07844755 -0.01533159 0.08803555 -0.22925591 0.3436956 -0.109252416
0.39326605 0.22662944 0.061411165 0.41377935 -0.066961624 0.46250626 0.15523349 0.38397098
0.36804608 0.2927532 0.22259152 0.26635313 0.14299868 -0.104496896 -0.10956991 0.059582952
0.21070863 -0.22191633 -0.23693314 0.038107157 -0.4345397 0.15141019 0.31512257 -0.09242486
0.026734706 0.5464927 0.38257003 0.02218258 -0.09588297 0.00074474525 0.108626716 -0.2625962
-0.040374126 -0.22078979 0.16161036 0.19712089 0.17091253 0.23192139 -0.19788015 0.15511043
-0.5509988 0.5421406 0.12918004 0.057083257 -0.18901928 0.29839686 0.19334106 0.022882387
-0.18280354 -0.020704698 -0.19866273 0.17088124 0.14425151 0.39327663 0.39433962 0.1772643
0.26323497 0.647751 -0.31245196 -0.2352338 0.16616842 0.22697903 -0.13805342 0.3292795
-0.34939778 0.9691006 -0.0030354164 0.1223725 0.84803104 0.0019695263 -0.3286852 -0.01812026
0.4431779 0.31511524 -0.74713033 0.27925104 -0.26581377 0.8452804 0.053272635 -0.5328476
-0.15624024 -0.47878784 -0.055155344 -0.28642726 -0.37161922 -0.5336851 -0.055925336 -0.24055994
-0.48023516 0.43910378 -0.08259998 -0.5571521 0.43166524 0.28493634 -0.056411285 0.0021917922
0.34751502 -0.44041216 0.3427074 -0.35948545 -0.2992128 -0.38969323 -0.57692105 0.413629
0.49842823 -0.11346739 0.40330684 0.121890865 -0.017186487 0.041466027 0.2674347 -0.287297
-0.4691364 -0.15587318 -0.50135076 0.31771564 0.46741325 -0.50156313 -0.019771017 0.29351118
00000000: c513 a03e 6c94 ee3e caf3 9abe e2dc 583f
00000010: b962 b63e baeb 303f b52d 843e 5c2d 4d3e
00000020: df78 353f f9e3 d6be 100f 963e 1392 d03e
00000030: cd58 dcbe b07e ec3e 7050 3b3e 053e 4f3f
00000040: 328c 0c3f cfdd b8be 0c3d 803e 408e 2bbe
00000050: d366 e33e ea90 02bf 0d00 363a 87df e83e
00000060: 71f7 253f dc22 e1be 9b48 d63e 99ff 7dbf
00000070: 0484 2bbe a476 703f 90a6 c43e 919b 51be
00000080: fe64 52be 9e12 2cbf 6ff4 a43e 9426 523e
00000090: 3f8b b6bd e659 ca3e 9999 39bf c3cd acbe
000000a0: 2a70 3abe f656 9fbd 890d f53d cf95 fc3e
000000b0: b285 7d3c ce10 a13e 6659 813b a5b3 023e
000000c0: d6d7 353f 1bdc 843e fc93 043e cfc3 d73e
000000d0: 5533 59bf f57d af3e 750c 69be eda6 293e
000000e0: f494 3abe b92d 4f3e dd3b f13e 3ad8 a3bd
000000f0: 7056 66be 8e0d 073f 24d8 45bc 48a8 e23e
00000100: dcdc b63e 62d1 35bf 2f2d 4c3d 5655 1cbf
00000110: e128 cbbd 1b09 4dbe 3169 373e 1045 cb3d
00000120: ea20 97be fed0 f83e ed9c 84be c6c4 b8bb
00000130: 44e3 383f 2dcd 093f a7fd 8cbe 060b cdbd
00000140: b59c 18be d347 823e 3b17 a6be 3364 0c3f
00000150: 6e24 efbe 18ec 37bf b4a6 df3e d70c 1fbd
00000160: 16c3 b2be 627e 063f d085 a63b 852e 0cbf
00000170: fd33 d4be 4cfb 813d a363 1abe 1258 553e
00000180: 87e7 f9be 4a97 30bd 3567 a5be 6ffa ea3e
00000190: 1ea0 90bd bff7 74ba fe45 8a3e 5cbd d1be
000001a0: 8bb3 8bbd af00 dfbe a4ca d9be fa87 e73d
000001b0: 2b61 34bc 222d 7cbe 1174 e13e 14c0 b33e
000001c0: c7f5 95be 9905 f0be fc82 7bbd 4b8c a43d
000001d0: 7601 6ebe 76e7 d63d ce70 b63e f3fe eabd
000001e0: 1924 b2be 8848 93be c0f6 813e 9df3 e8be
000001f0: e7c5 b23e ad99 e6be 1bd1 a13d d39f a43e
00000200: 892c 123f dae5 f5be 1ca9 a03d 5931 7bbc
00000210: fc4b b43d 10c2 6abe dff8 af3e bbbf dfbd
00000220: 2b5a c93e 8c11 683e 468a 7b3d e3da d33e
00000230: 2d23 89bd 9fcd ec3e 87f5 1e3e d897 c43e
00000240: 8970 bc3e bfe3 953e 08ef 633e 705f 883e
00000250: 3f6e 123e 7802 d6bd 3066 e0bd 410d 743d
00000260: 01c4 573e 093e 63be 9a9e 72be 4016 1c3d
00000270: fd7b debe 460b 1b3e bf57 a13e 3f49 bdbd
00000280: be02 db3c f2e6 0b3f 38e0 c33e 3eb8 b53c
00000290: 4a5e c4bd 023b 433a af77 de3d 0273 86be
000002a0: 575f 25bd b816 62be 307d 253e 0fda 493e
000002b0: b203 2f3e cd7c 6d3e 18a1 4abe 45d5 1e3e
000002c0: 420e 0dbf bac9 0a3f c647 043e 22d0 693d
000002d0: 458e 41be 79c7 983e 33fb 453e d873 bb3c
000002e0: da30 3bbe e69c a9bc 3e6e 4bbe 7efb 2e3e
000002f0: abb6 133e 8e5b c93e e2e6 c93e c684 353e
00000300: bcc6 863e 02d3 253f b4f9 9fbe 21e1 70be
00000310: 0e28 2a3e 316d 683e e05d 0dbe 5397 a83e
00000320: 44e4 b2be fa16 783f d6ed 46bb 6f9e fa3d
00000330: 9018 593f 2b13 013b 6d49 a8be f170 94bc
00000340: 37e8 e23e c956 a13e ef43 3fbf fef9 8e3e
00000350: be18 88be 4c64 583f 6834 5a3d b368 08bf
00000360: 71fd 1fbe ae23 f5be 92ea 61bd 98a6 92be
00000370: e044 bebe 969f 08bf f711 65bd 5855 76be
00000380: 62e1 f5be 36d2 e03e 2e2a a9bd 85a1 0ebf
00000390: 3a03 dd3e 2de3 913e 850f 67bd 2ca4 0f3b
000003a0: 7ded b13e b47d e1be 5877 af3e 7a0e b8be
000003b0: 6c32 99be df85 c7be 19b1 13bf 2ec7 d33e
000003c0: fc31 ff3e 9761 e8bd 3c7e ce3e eba1 f93d
000003d0: adca 8cbc 48d8 293d 33ed 883e 9818 93be
000003e0: a532 f0be 389d 1fbe 8658 00bf a0ab a23e
000003f0: ca50 ef3e 7166 00bf d4f6 a1bc 1947 963e

convs.1.att_dst f4 [1, 4, 64]
0.35442147 0.25427666 0.12752877 0.08023753 0.0056920727 0.1177132 0.17877263 0.18737736
0.5467848 0.17844856 0.4506892 -0.13233341 0.18208644 0.71058553 0.23294123 0.8190431
0.9200755 0.16364717 -0.006800018 0.13401072 0.50994956 0.026937203 0.06195058 0.16388641
0.38830304 -0.2808685 0.34014675 -0.54003495 0.29401687 0.82930267 0.5790925 -0.124413
-0.063657396 0.42164478 0.16158915 0.39423335 0.73143035 0.45109263 0.5417654 0.04327652
0.8612959 0.16232562 -0.16334306 0.4907241 0.48343122 0.7502472 -0.47181174 0.613978
0.34917176 0.22775702 0.14343221 0.3529396 -0.09363878 0.40418705 0.52511007 0.03456035
0.20743789 0.6333405 -0.05424317 -0.43520734 0.4429955 0.32935998 -0.15748434 0.4540002
-0.31648475 -0.60813576 -0.8907175 0.7982696 -0.6596879 -1.0529164 0.33160302 -1.0890716
0.31828836 -0.111126095 -0.9180545 -0.34323078 -0.4858079 -0.15947688 -0.09884001 -0.77688473
-0.8986363 -0.7449345 -0.20481521 -0.635653 -1.0647296 -0.071351916 0.6599464 -1.5882113
-1.3277345 -0.5044019 -0.47547582 -0.42287335 0.19372496 -1.607356 -1.0482649 0.9505262
-1.033829 -0.9596075 -1.4153813 -0.5422754 -1.0675504 -0.611342 -1.1605945 -0.23238747
-0.96847034 -0.49139047 -1.115289 0.12396396 -0.6670339 -0.647737 -1.2164073 -0.74446803
-0.26939902 -0.24636292 -0.5845562 -0.7736946 -1.1835468 -0.72573143 -1.0529084 0.08627987
-0.8825829 -1.0599257 -1.4418164 0.16936989 -0.6908869 -0.6424729 -0.76490664 1.1755124
0.3285851 0.33627212 0.11789186 -0.027341003 0.292117 -0.15051472 -0.05632251 -0.38375863
-0.14402467 -0.51051164 -0.29036304 -0.051792305 0.54362243 0.010678291 -0.2361898 0.11002332
0.3350658 -0.3005659 0.097887024 -0.48041812 0.18055828 -0.51835996 -0.29002756 -0.20792142
0.07019106 -0.20745099 -0.21110594 -0.027623532 -0.03895389 0.061166443 -0.022354413 0.46126616
-0.028336385 0.043643072 0.15801868 -0.034251276 -0.34541634 0.44663358 0.27825335 0.3595445
0.12657945 -0.28395775 -0.38145187 -0.048503492 -0.50911003 0.1357531 -0.41611 -0.046657745
0.19519322 0.35568532 0.29416928 0.24142924 -0.26178032 -0.28070047 -0.4507557 -0.0046488834
0.5640867 -0.26995847 -0.30979875 0.38926655 0.27255353 0.1767064 -0.18400854 -0.1481715
-0.36999854 -1.7676518 -0.7376592 -1.5892787 -0.07558056 1.0674665 -0.33372194 0.77255744
-0.079331756 -0.5047869 -1.3471888 -1.1290085 -0.65326464 -0.7979209 -0.7524695 -1.4101783
0.4129112 -0.38648748 -0.7177504 -0.60599166 -0.9525811 -0.89941955 0.88626695 -0.63287497
-0.85983765 -1.2250485 -1.7440269 -0.4994193 1.1777469 -1.3400853 -0.40692097 1.3571202
-0.6229472 -0.8807457 -1.0572158 -1.4843333 -1.5645694 -1.1700441 -0.3018534 -1.6446021
-1.1675992 -0.23238482 0.80962306 -0.42655694 -1.2022618 -1.405756 0.65291536 -1.0993327
-0.8556198 -0.596023 -0.53396654 -0.64698833 1.0041145 -0.9688604 -1.1549221 -1.5955296
-1.3683605 -1.0654553 -0.7512204 -0.52479494 -1.0443889 -0.38839543 -1.1098047 -1.3398681
00000000: bb76 b53e 8d30 823e e796 023e 9353 a43d
00000010: 9184 ba3b 9e13 f13d 2c10 373e dadf 3f3e
00000020: 17fa 0b3f 38bb 363e bcc0 e63e 6982 07be
00000030: de74 3a3e efe8 353f 2588 6e3e cfac 513f
00000040: 118a 6b3f 2093 273e afd2 debb 1b3a 093e
00000050: 0e8c 023f 69ab dc3c e4bf 7d3d d7d1 273e
00000060: a8cf c63e ffcd 8fbe b727 ae3e bb3f 0abf
00000070: 6189 963e 2e4d 543f 683f 143f 3ecc febd
00000080: cf5e 82bd d3e1 d73e a077 253e f4d8 c93e
00000090: 053f 3b3f 9df5 e63e 23b1 0a3f b842 313d
000000a0: e37d 5c3f b038 263e 6743 27be 3040 fb3e
000000b0: 4c84 f73e 3310 403f 4f91 f1be aa2d 1d3f
000000c0: a4c6 b23e 2339 693e e5df 123e 80b4 b43e
000000d0: b0c5 bfbd 9bf1 ce3e 9d6d 063f 278f 0d3d
000000e0: 996a 543e 9a22 223f 162e 5ebd 7fd3 debe
000000f0: 4ed0 e23e dfa1 a83e 9343 21be b772 e83e
00000100: 4a0a a2be c9ae 1bbf 1006 64bf 665b 4c3f
00000110: 4ee1 28bf f7c5 86bf dfc7 a93e b366 8bbf
00000120: b1f6 a23e 1496 e3bd 9f05 6bbf f2bb afbe
00000130: d0bb f8be e84d 23be a26c cabd ebe1 46bf
00000140: 070d 66bf 07b4 3ebf 14bb 51be 28ba 22bf
00000150: 0f49 88bf f420 92bd 3ff2 283f 824a cbbf
00000160: 34f3 a9bf 7c20 01bf 9171 f3be db82 d8be
00000170: d65f 463e d7bd cdbf 8b2d 86bf af55 733f
00000180: 8254 84bf d6a8 75bf 372b b5bf 90d2 0abf
00000190: 7ea5 88bf e980 1cbf 5c8e 94bf fbf6 6dbe
000001a0: aced 77bf 8897 fbbe cac1 8ebf d1e0 fd3d
000001b0: bcc2 2abf 18d2 25bf 3cb3 9bbf 7595 3ebf
000001c0: abee 89be 9046 7cbe 7aa5 15bf d910 46bf
000001d0: 767e 97bf 89c9 39bf b4c5 86bf 80b3 b03d
000001e0: f4f0 61bf a5ab 87bf 718d b8bf 4d6f 2d3e
000001f0: f7dd 30bf 1b79 24bf ecd0 43bf 3177 963f
00000200: 4e3c a83e dc2b ac3e 4a71 f13d 3dfa dfbc
00000210: 5c90 953e 8820 1abe 6fb2 66bd 037c c4be
00000220: 347b 13be e4b0 02bf 77aa 94be 2b24 54bd
00000230: d72a 0b3f 00f4 2e3c bddb 71be e853 e13d
00000240: bf8d ab3e c6e3 99be fe78 c83d 5df9 f5be
00000250: 45e4 383e 3db3 04bf 7e7e 94be 5ae9 54be
00000260: 55c0 8f3d 086e 54be 282c 58be bf4a e2bc
00000270: 1d8e 1fbd aa89 7a3d 9a20 b7bc 142b ec3e
00000280: b521 e8bc 14c3 323d a6cf 213e 114b 0cbd
00000290: 69da b0be 28ad e43e 3977 8e3e 3716 b83e
000002a0: 0b9e 013e e962 91be a94d c3be 99ab 46bd
000002b0: 0955 02bf dc02 0b3e 5f0c d5be 311c 3fbd
000002c0: bbe0 473e 631c b63e 5b9d 963e 3a39 773e
000002d0: 1208 86be f9b7 8fbe 73c9 e6be a955 98bb
000002e0: fc67 103f ff37 8abe f19d 9ebe f24d c73e
000002f0: 238c 8b3e 86f2 343e bc6c 3cbe 45ba 17be
00000300: 7370 bdbe 6a42 e2bf 3cd7 3cbf 7c6d cbbf
00000310: fbc9 9abd bea2 883f 9add aabe 53c6 453f
00000320: b078 a2bd b739 01bf af70 acbf 5a83 90bf
00000330: 5a3c 27bf 8b44 4cbf d7a1 40bf b980 b4bf
00000340: 1969 d33e b0e1 c5be 7dbe 37bf 4522 1bbf
00000350: 5bdc 73bf 5c40 66bf 64e2 623f 1804 22bf
00000360: 521e 5cbf 64ce 9cbf 463c dfbf e3b3 ffbe
00000370: 69c0 963f ea87 abbf f257 d0be 1db6 ad3f
00000380: 7879 1fbf 8d78 61bf d952 87bf a2fe bdbf
00000390: cf43 c8bf 01c4 95bf 878c 9abe 5282 d2bf
000003a0: e473 95bf 49f6 6dbe 7543 4f3f ac65 dabe
000003b0: b7e3 99bf d0ef b3bf 7625 273f efb6 8cbf
000003c0: e609 5bbf f794 18bf 08b2 08bf 07a1 25bf
000003d0: d386 803f 3c07 78bf 7dd4 93bf 503a ccbf
000003e0: 7026 afbf d760 88bf fb4f 40bf f658 06bf
000003f0: 89ae 85bf c4db c6be 150e 8ebf cc80 abbf

convs.1.bias f4 [64]
0.19480862 0.0084582465 0.009183548 -0.13547085 0.09601466 -0.17962596 0.14901549 0.11123138
0.09459437 0.08948353 0.11409836 0.11746269 0.19808562 -0.079381585 0.11856692 0.14176294
-0.11853943 -0.06388693 0.11881894 0.21780631 0.058831427 -0.08317229 0.01220613 -0.07344773
0.08143189 0.033614665 -0.008039209 -0.054396477 -0.021551842 -0.033144888 0.16707529 0.0006902208
0.06872989 -0.032267272 0.065825716 -0.15946183 0.15072525 0.09883839 0.0032087613 -0.083637886
0.08138637 0.083942 0.03080665 0.15665027 0.08921358 0.09779946 -0.037167523 0.04593035
-0.071455434 0.058034897 0.1236609 0.10181508 -0.044281106 -0.102939755 0.08184706 -0.026093533
-0.13225298 0.110044494 0.05591802 -0.049500708 0.004657489 -0.17143545 -0.109336175 0.124995746
00000000: e97b 473e 7594 0a3c 9876 163c dfb8 0abe
00000010: 56a3 c43d deef 37be 8497 183e 47cd e33d
00000020: b1ba c13d 2443 b73d 67ac e93d 4790 f03d
00000030: f5d6 4a3e d092 a2bd 37d3 f23d 4e2a 113e
00000040: cdc4 f2bd 27d7 82bd 5857 f33d 9e08 5f3e
00000050: 39f9 703d 3c56 aabd 38fc 473c c36b 96bd
00000060: c3c5 a63d 88af 093d e3b6 03bc d7ce 5ebd
00000070: 7d8d b0bc efc2 07bd c915 2b3e efef 343a
00000080: 42c2 8c3d b02a 04bd a2cf 863d f649 23be
00000090: b857 1a3e c86b ca3d 154a 523b 574a abbd
000000a0: e6ad a63d c9e9 ab3d 3a5e fc3c ee68 203e
000000b0: 9cb5 b63d 154b c83d f93c 18bd 7621 3c3d
000000c0: 3a57 92bd 00b6 6d3d ed41 fd3d 6d84 d03d
000000d0: 1b60 35bd 14d2 d2bd 6e9f a73d 1bc2 d5bc
000000e0: 536d 07be 025f e13d 4b0a 653d 41c1 4abd
000000f0: d99d 983b c68c 2fbe a5eb dfbd c5fd ff3d

convs.1.lin.weight f4 [256, 64]
-0.40898988 -0.36671758 -0.21876606 -0.5439457 -0.12260574 0.11079622 -0.20839843 -0.5698017
-0.08174075 -0.03579857 -0.21119381 0.019793708 -0.057702217 -0.045803063 0.07248806 -0.36985666
-0.34668517 -0.5410542 -0.37963778 0.13887158 -0.639573 -0.08005902 -0.27647677 0.09759868
-0.29343 -0.33709148 -0.22910893 0.14087248 0.034618568 -0.3603769 0.07374579 -0.10947015
-0.30243236 -0.06973983 0.10439333 -0.077226095 -0.0917944 -0.22557667 -0.3334224 -0.27640718
-0.7002513 -0.32012323 -0.24857315 -0.6263715 -0.10929051 -0.15943848 -0.29811648 -0.2861184
-0.2097463 0.06551125 -0.3427527 -0.66297925 -0.13738953 -0.20774849 0.009174317 -0.27114746
-0.34786397 -0.075910985 0.18437178 0.036246333 0.034744807 -0.07159082 0.010153941 -0.2244186
0.007880784 -0.73468554 -0.025747705 -0.07398939 0.0734894 0.2952369 0.15046221 0.085089915
-0.13558947 -0.48210657 0.31518382 0.2988762 0.25222608 0.04589109 -0.107598364 0.073550865
-0.19228768 -0.04016053 0.029758483 0.25457793 -0.00867344 0.12477512 -0.16526784 0.0748645
0.1878451 -0.06597853 -0.19325817 0.14657712 -0.60728794 0.1583511 0.105837956 -0.42744324
0.3923122 0.00033430595 0.09282866 0.008783508 -0.07724082 -0.16558106 0.049231224 0.1172817
0.055476286 -0.1943869 0.15373509 -0.18699859 0.3378014 -0.44943458 0.235356 -0.10128677
0.4776418 -0.24785335 0.21807581 -0.25830942 -0.18031314 0.2898261 0.20210025 0.32311365
0.29689434 -0.4649222 -0.38327655 0.050837852 0.141255 0.12952235 -0.04099877 0.5893279
-0.13370048 -0.43860757 0.1880668 -0.2630296 -0.026135609 0.43045175 -0.033477124 -0.08734596
0.115810186 -0.04066087 -0.16015972 -0.062498946 -0.07835175 -0.17178462 0.18710789 -0.04504353
0.04533249 -0.23085476 0.1517997 -0.085549615 -0.4299405 -0.328094 -0.20564054 -0.07862129
0.015275248 -0.13827555 -0.30378014 0.16118248 -0.11387264 0.081121854 -0.083749145 0.09994846
-0.17107713 0.0331677 0.23991752 0.083690204 0.28216955 -0.15895051 0.07231964 -0.062421348
-0.29762256 -0.482 -0.08306893 -0.2983763 0.098613754 0.20856771 -0.07455698 -0.4519771
0.08883506 0.16642118 -0.23536547 -0.50176656 0.16334587 -0.04422879 -0.027504465 -0.17091216
-0.10886137 0.30097952 -0.1557262 -0.09631164 0.011250971 0.022819007 0.0339955 -0.0108687915
-0.3115319 -0.4007038 -0.15691705 -0.40689215 -0.058704108 -0.03740323 -0.2344413 -0.03791663
-0.37401113 -0.37505186 0.5800505 0.15157607 -0.095806755 0.15224035 -0.24491939 0.21319404
-0.8785802 -0.15090352 -0.33117583 0.10307465 -0.047803633 -0.22623506 -0.5049144 0.012481926
0.2824131 -0.57300085 0.19052702 0.15090889 -0.096657455 -0.27864748 0.0029606058 -0.56379014
-0.029014675 -0.062257867 -0.02052452 -0.08021991 -0.32218882 -0.31946447 -0.02166728 0.574051
0.07075605 -0.15169306 0.06332502 -0.4291516 0.22454621 -0.178509 0.062188216 -0.117066994
0.17411067 -0.4250184 -0.039233584 -0.3195357 -0.4515047 -0.21062599 -0.07597823 0.3860084
-0.006321836 -0.36334997 -0.22154996 -0.15053043 -0.00017336584 0.2563938 0.09142142 0.0067252847
00000000: 1f67 d1be 68c2 bbbe 3604 60be 0740 0bbf
00000010: b818 fbbd 21e9 e23d 6666 55be 86de 11bf
00000020: b267 a7bd 85a1 12bd 3143 58be 6a26 a23c
00000030: 2959 6cbd fe9b 3bbd 9f74 943d da5d bdbe
00000040: b880 b1be 8782 0abf e25f c2be 5a34 0e3e
00000050: 0ebb 23bf fcf5 a3bd 5d8e 8dbe d1e1 c73d
00000060: 753c 96be 4197 acbe 889b 6abe e040 103e
00000070: 33cc 0d3d 5283 b8be 0808 973d e331 e0bd
00000080: 6ad8 9abe c2d3 8ebd 2ccc d53d b728 9ebd
00000090: b4fe bbbd 92fd 66be 57b6 aabe 3e85 8dbe
000000a0: ab43 33bf 31e7 a3be f689 7ebe e259 20bf
000000b0: b4d3 dfbd d743 23be b9a2 98be 1c7e 92be
000000c0: bcc7 56be c32a 863d 487d afbe 02b9 29bf
000000d0: d7af 0cbe 05bc 54be e04f 163c d7d3 8abe
000000e0: 3a1b b2be 3877 9bbd f5cb 3c3e 0977 143d
000000f0: 9250 0e3d 359e 92bd b75c 263c fdcd 65be
00000100: 671e 013c 5a14 3cbf daec d2bc c087 97bd
00000110: 9c81 963d 4a29 973e c412 1a3e 9f43 ae3d
00000120: f7d7 0abe acd6 f6be c65f a13e 4d06 993e
00000130: c723 813e 4cf8 3b3d 885c dcbd d6a1 963d
00000140: 10e7 44be 5e7f 24bd 10c8 f33c 0a58 823e
00000150: 0b1b 0ebc 198a ff3d f93b 29be 8f52 993d
00000160: 775a 403e c01f 87bd 78e5 45be 5018 163e
00000170: 3977 1bbf ca26 223e 92c1 d83d d7d9 dabe
00000180: 25dd c83e c945 af39 f41c be3d b4e8 0f3c
00000190: 6f30 9ebd 158e 29be aea6 493d 6331 f03d
000001a0: 1a3b 633d 5c0d 47be bb6c 1d3e 8f7c 3fbe
000001b0: 4ef4 ac3e 4a1c e6be 2a01 713e 706f cfbd
000001c0: 778d f43e 45cd 7dbe 444f 5f3e 2241 84be
000001d0: 02a4 38be 1664 943e 5ef3 4e3e 276f a53e
000001e0: 8902 983e 480a eebe d33c c4be 5a3b 503d
000001f0: 27a5 103e 82a1 043e 54ee 27bd 31de 163f
00000200: c7e8 08be 2c91 e0be 9594 403e d1ab 86be
00000210: 581a d6bc 2c64 dc3e 4f1f 09bd 70e2 b2bd
00000220: e42d ed3d 038c 26bd e900 24be e5fe 7fbd
00000230: e276 a0bd 4fe8 2fbe 3699 3f3e 917f 38bd
00000240: 90ae 393d 3165 6cbe 6171 1b3e a334 afbd
00000250: 2921 dcbe f0fb a7be 6f93 52be 3304 a1bd
00000260: 0945 7a3c 1b98 0dbe 1289 9bbe 050d 253e
00000270: 0f36 e9bd 3723 a63d ac84 abbd c7b1 cc3d
00000280: d82e 2fbe dbda 073d f0ac 753e c565 ab3d
00000290: 8778 903e ecc3 22be 521c 943d 87ad 7fbd
000002a0: fc61 98be b4c8 f6be 0b20 aabd c7c4 98be
000002b0: 02f6 c93d c692 553e 54b1 98bd 8b69 e7be
000002c0: 28ef b53d 506a 2a3e a503 71be c673 00bf
000002d0: 2444 273e 3f29 35bd 0b51 e1bc 9903 2fbe
000002e0: b6f2 debd fd19 9a3e b076 1fbe 0a3f c5bd
000002f0: fe55 383c edee ba3c de3e 0b3d 0413 32bc
00000300: 1c81 9fbe 0c29 cdbe ddae 20be 2b54 d0be
00000310: b873 70bd 2134 19bd 6111 70be 784e 1bbd
00000320: 637e bfbe cc06 c0be 317e 143f c236 1b3e
00000330: 5536 c4bd e5e4 1b3e 26cc 7abe 8a4f 5a3e
00000340: a2ea 60bf 7486 1abe e18f a9be cd18 d33d
00000350: becd 43bd 2aaa 67be 1242 01bf fe80 4c3c
00000360: 7398 903e 2fb0 12bf 8419 433e dc87 1a3e
00000370: 58f4 c5bd e2aa 8ebe b906 423b 8d54 10bf
00000380: 2fb0 edbc 1b02 7fbd 0a23 a8bc 564a a4bd
00000390: eff5 a4be d990 a3be 947f b1bc 02f5 123f
000003a0: 8ce8 903d 6d55 1bbe 8cb0 813d c2b9 dbbe
000003b0: 71ef 653e 10cb 36be 12b9 7e3d d2c0 efbd
000003c0: 114a 323e 039c d9be 65b3 20bd 2f9a a3be
000003d0: a02b e7be 57ae 57be 799a 9bbd e5a2 c53e
000003e0: 6727 cfbb 0209 babe fedd 62be a624 1abe
000003f0: 8ac9 35b9 0c46 833e 273b bb3d c75f dc3b

proj.weight f4 [64, 64]
-0.08623365 -0.1791336 -0.13179193 0.014450549 0.18783878 -0.030326802 -0.10659282 0.3982226
0.2583385 0.07354359 0.1497214 -0.039715253 -0.34800753 -0.16471091 0.1395186 -0.054868825
0.053239457 0.27779528 -0.0138485115 -0.08810195 0.108763136 0.20302923 0.20670384 -0.15354308
-0.15868662 0.07559931 0.102034844 -0.05828212 -0.010170059 -0.24105774 0.10208763 0.086973116
-0.108524986 -0.06610895 -0.021629965 0.09935807 -0.26637107 0.37445027 0.25129953 0.01976017
-0.32984182 -0.34631053 0.12365711 0.24408238 0.005363064 0.11736246 0.14787593 0.19949158
0.16427523 0.34708214 0.18526658 -0.38933182 0.33424833 -0.15901473 -0.43594196 0.23061986
0.32932717 -0.12352984 -0.3221352 0.104370765 -0.20005387 -0.13502418 0.11181207 0.12760183
-0.13544962 0.009461949 -0.16032758 -0.13634586 -0.039992616 -0.058762617 -0.1681563 -0.32530594
-0.11624927 0.032925308 0.19162609 -0.060463563 0.16411884 -0.2245568 -0.34238464 0.09392673
-0.34590718 -0.35088488 -0.15643314 -0.055174697 -0.030621016 -0.048346765 -0.059610873 -0.07117089
-0.070454665 0.014538377 -0.18150264 -0.028598916 0.023951333 -0.10655038 -0.217535 0.03432257
-0.02486845 -0.25033247 -0.15477651 -0.16996849 -0.04248427 -0.18000504 -0.25348985 -0.15573438
-0.0976331 -0.1540247 0.14876251 -0.264031 0.030398546 0.20362936 -0.24881238 -0.12511154
-0.09404427 -0.17135413 -0.20998596 -0.04048496 0.050943486 -0.18542984 0.0015166606 -0.23090462
-0.21358535 0.26250663 0.2723621 -0.0661726 -0.082462765 -0.11025902 -0.26327696 -0.14921407
0.09969197 -0.098635025 0.077123754 0.020934328 0.094815925 0.10633439 0.061295718 0.15654093
0.043499712 0.40781432 0.09073315 0.020086743 0.5754379 0.23522635 0.07508564 -0.021768518
-0.06314294 0.27461427 0.18814556 0.70866805 0.033861797 -0.083072826 -0.07791209 0.013185118
-0.0021160187 -0.22225681 -0.13270564 -0.024641993 -0.077050686 -0.06977849 0.062764764 -0.03625516
0.18438743 0.06767786 0.029856155 0.18149263 0.05230571 0.22252423 -0.08009898 0.027556485
-0.26599017 0.0762876 0.086965315 0.20956945 -0.04014541 0.06729145 0.0059226113 0.0018301298
-0.21723412 0.017517712 0.09148794 -0.13386515 0.21139875 0.13776433 -0.19733322 0.23283416
0.039166685 0.06998843 -0.20969081 0.058370367 0.0017458951 0.14583875 0.14036918 0.30348727
-0.24244343 0.23902403 -0.0721619 0.02748457 -0.0009775262 -0.06095355 0.056870382 -0.06759097
-0.056799468 0.018153695 -0.09397696 0.18280299 0.05606852 0.0049246834 0.1431986 -0.13950023
0.07511089 -0.106298186 -0.13685058 -0.07454646 -0.07943966 -0.043920346 0.18244472 -0.08903302
0.04460909 0.04464206 -0.019667607 -0.008901268 -0.1510744 0.10324717 -0.1254465 0.020150885
-0.0688166 -0.07401647 0.21035606 -0.0135669755 0.02723288 0.21190894 0.12990658 0.16302063
0.010523491 0.061813753 0.0010421302 -0.031461522 0.18291561 -0.17128922 -0.1088718 -0.015958557
-0.016412228 -0.0972972 -0.05558354 -0.08282014 0.24268556 -0.004054641 0.20746045 0.011901787
0.15884037 -0.07146033 0.10904271 0.20620294 0.012476439 -0.10618847 -0.0019581597 -0.17570701
00000000: 459b b0bd cc6e 37be 77f4 06be ffc1 6c3c
00000010: cf58 403e ea6f f8bc 564d dabd d5e3 cb3e
00000020: f244 843e 069e 963d 9150 193e 76ac 22bd
00000030: 0b2e b2be faa9 28be f7dd 0e3e 22be 60bd
00000040: 9e11 5a3d 2f3b 8e3e dee4 62bc cc6e b4bd
00000050: 35bf de3d e5e6 4f3e 2caa 533e 663a 1dbe
00000060: bf7e 22be d0d3 9a3d a5f7 d03d 3bb9 6ebd
00000070: 52a0 26bc d7d7 76be 5213 d13d f61e b23d
00000080: 5942 debd 2164 87bd 5331 b1bc 3e7c cb3d
00000090: ca61 88be f2b7 bf3e 55aa 803e 14e0 a13c
000000a0: 07e1 a8be 9d4f b1be f03f fd3d bbf0 793e
000000b0: a4bc af3b bb5b f03d ca6c 173e 8547 4c3e
000000c0: c437 283e c0b4 b13e 86b6 3d3e 8056 c7be
000000d0: 9922 ab3e c2d4 22be c933 dfbe 9d27 6c3e
000000e0: 929d a83e 36fd fcbd e8ee a4be 57c0 d53d
000000f0: ecda 4cbe c743 0abe bafd e43d 0eaa 023e
00000100: 4eb3 0abe 4a06 1b3c ea2c 24be 409e 0bbe
00000110: 4ccf 23bd 12b1 70bd 2a31 2cbe 808e a6be
00000120: 1914 eebd b0dc 063d a139 443e a4a8 77bd
00000130: c50e 283e 38f2 65be 0a4d afbe a85c c03d
00000140: bf1a b1be 2fa7 b3be 0230 20be ddfe 61bd
00000150: edd8 fabc 4207 46bd 882a 74bd 0bc2 91bd
00000160: 894a 90bd 5f32 6e3c d4db 39be 4648 eabc
00000170: 9635 c43c 1637 dabd 7fc1 5ebe d395 0c3d
00000180: ebb8 cbbc 942b 80be bc7d 1ebe 380c 2ebe
00000190: fc03 2ebd 3e53 38be 6cc9 81be d578 1fbe
000001a0: ddf3 c7bd a7b8 1dbe 3355 183e 122f 87be
000001b0: 5f06 f93c 3784 503e acc8 7ebe 3d1d 00be
000001c0: 489a c0bd 7577 2fbe 8f06 57be 8fd3 25bd
000001d0: 1eaa 503d 52e1 3dbe afca c63a 4372 6cbe
000001e0: 1eb6 5abe 4567 863e 0c73 8b3e 8085 87bd
000001f0: 3de2 a8bd 7bcf e1bd 3dcc 86be 93cb 18be
00000200: 4e2b cc3d 2901 cabd 0ff3 9d3d 787e ab3c
00000210: da2e c23d d8c5 d93d 3811 7b3d 444c 203e
00000220: c12c 323d 0acd d03e 4dd2 b93d f48c a43c
00000230: e64f 133f 2ddf 703e 80c6 993d e453 b2bc
00000240: 1651 81bd 3e9a 8c3e 3ba9 403e 456b 353f
00000250: abb2 0a3d 1622 aabd 6090 9fbd 6506 583c
00000260: e7ac 0abb 4a97 63be fde3 07be 01de c9bc
00000270: c0cc 9dbd 06e8 8ebd d08a 803d 4a80 14bd
00000280: 0fd0 3c3e b19a 8a3d e594 f43c 34d9 393e
00000290: 833e 563d 64dd 633e ef0a a4bd 23be e13c
000002a0: dd2f 88be ac3c 9c3d df1a b23d 6099 563e
000002b0: 836f 24bd 1ad0 893d 7712 c23b f7e0 ef3a
000002c0: 9f72 5ebe 4e81 8f3c 075e bb3d f213 09be
000002d0: ea78 583e 1812 0d3e b811 4abe 146c 6e3e
000002e0: 3f6d 203d 1856 8f3d 30b9 56be c415 6f3d
000002f0: 85d6 e43a c156 153e f0bc 0f3e af62 9b3e
00000300: 1743 78be b7c2 743e 9ec9 93bd 5227 e13c
00000310: 5620 80ba 6eaa 79bd ebf0 683d 226d 8abd
00000320: 8fa6 68bd 0fb7 943c fe76 c0bd b530 3b3e
00000330: 1ba8 653d 3d5f a13b a7a2 123e 26d9 0ebe
00000340: bdd3 993d ddb2 d9bd 8f22 0cbe d0ab 98bd
00000350: 43b1 a2bd d2e5 33bd cad2 3a3e f256 b6bd
00000360: 05b8 363d 98da 363d f61d a1bc a0d6 11bc
00000370: 3fb3 1abe 4173 d33d 0c75 00be 7813 a53c
00000380: b8ef 8cbd f295 97bd 9467 573e 0548 5ebc
00000390: 7d17 df3c a8fe 583e 3b06 053e e1ee 263e
000003a0: b86a 2c3c 6b30 7d3d 1698 883a ccdd 00bd
000003b0: 3b4e 3b3e 7166 2fbe 2ef8 debd 85bb 82bc
000003c0: f072 86bc c143 c7bd 91ab 63bd 9b9d a9bd
000003d0: 9082 783e cbdc 84bb 8370 543e b6ff 423c
000003e0: 0da7 223e cb59 92bd c951 df3d dd26 533e
000003f0: fa69 4c3c 5779 d9bd 7854 00bb 8aec 33be

proj.bias f4 [64]
-0.04055557 0.07133783 -0.12227269 0.018002026 -0.110261716 -0.14467318 -0.050683912 0.111498386
-0.118445545 -0.091873944 0.13605368 -0.078541934 -0.020495107 -0.0908073 -0.04369765 0.05878659
-0.052511882 0.014244434 -0.05011564 0.018122034 0.0131535325 0.093428075 -0.030153899 -0.02789875
0.056794778 -0.17651682 0.10764063 -0.047372904 -0.042573884 -0.015761157 -0.017801872 -0.18970767
0.03917513 -0.01241136 -0.02455841 -0.16619283 0.0015091663 -0.14076222 -0.071374014 -0.15302369
0.2666874 -0.025844693 0.027929237 0.05575118 0.13785127 -0.018404063 0.1428849 -0.051917575
0.18881752 -0.08625664 0.031901702 -0.092281066 -0.050098233 -0.03166396 -0.04035513 0.053915065
0.017970795 0.07676968 -0.032298807 -0.023011835 0.095323734 -0.0016568935 0.06185026 0.0875345
00000000: 991d 26bd 9119 923d 1b6a fabd fc78 933c
00000010: e5d0 e1bd 3525 14be ef99 4fbd 4459 e43d
00000020: 9493 f2bd 6828 bcbd a851 0b3e 98da a0bd
00000030: 5be5 a7bc 2df9 b9bd 4ffc 32bd 35ca 703d
00000040: b316 57bd 7d61 693c 0f46 4dbd a974 943c
00000050: ea81 573c 3857 bf3d 4f05 f7bc eb8b e4bc
00000060: a4a1 683d d3c0 34be b172 dc3d 170a 42bd
00000070: f461 2ebd 8b1d 81bc 3bd5 91bc ba42 42be
00000080: 1a76 203d 0459 4bbc b82e c9bc 742e 2abe
00000090: 38cf c53a f923 10be 8a2c 92bd 3eb2 1cbe
000000a0: 408b 883e 40b8 d3bc dbcb e43c 595b 643d
000000b0: e228 0d3e 1ec4 96bc 6b50 123e 86a7 54bd
000000c0: 6159 413e 52a7 b0bd 5cab 023d dbfd bcbd
000000d0: ce33 4dbd 12b2 01bd 6c4b 25bd 0bd6 5c3d
000000e0: 7d37 933c 6c39 9d3d c14b 04bd 5183 bcbc
000000f0: 1739 c33d 1f2c d9ba b356 7d3d 4a45 b33d
