checkpoints/curve50_gat_v2.pt (torch, 109922 bytes, 11 tensors)

convs.0.att_src f4 [1, 4, 64]
0	0x3f015c4c	0.5053146
1	0x3c6a00b8	0.014282398
2	0x3f051f2b	0.52000684
3	0xbdf5f63a	-0.120098546
4	0x3d246579	0.040135834
5	0xbb2f61a4	-0.002676108
6	0x3ee79855	0.45233408
7	0x3daa6b67	0.083212666
8	0x3cc99611	0.02460769
9	0xbe37a930	-0.17935634
10	0xbecc1b0c	-0.39864385
11	0x3ecb4d44	0.39707386
12	0x3b8b0782	0.0042428384
13	0xbe88cf7d	-0.267208
14	0xbd284864	-0.041084662
15	0xbde3c7a1	-0.111220606
16	0x3cc3501d	0.023841912
17	0x3e916bdd	0.28402606
18	0x3d83440b	0.064094625
19	0x3d0b0418	0.03393945
20	0xbec9ff80	-0.39452744
21	0x3d0b7139	0.034043524
22	0xbd21d7be	-0.03951239
23	0xbde6bfa1	-0.11267019
24	0x3ca729b9	0.020405637
25	0xbda6a16a	-0.08136256
26	0x3e3514c0	0.17683697
27	0xbd76acc1	-0.060223345
28	0xbe193612	-0.14962032
29	0xbcc20a08	-0.023686424
30	0xbbd22e2d	-0.006414196
31	0x3e2a3395	0.1662124
32	0xba4d129e	-0.00078229036
33	0xbe763b00	-0.24045944
34	0x3da1adc7	0.078944735
35	0x3c6a43ba	0.014298374
36	0xbe76de79	-0.24108304
37	0x3e23677a	0.15957442
38	0x3e4e3c04	0.20140082
39	0x3edf847e	0.4365577
40	0xbd27a09b	-0.04092465
41	0x3ccac4c9	0.024752038
42	0xbd09d225	-0.033647675
43	0x3e8d2fe4	0.275756
44	0x3d5b74e7	0.053578284
45	0x3e31c11c	0.17358822
46	0x3e98a007	0.2980959
47	0xbe170838	-0.14749229
48	0x3d9b9871	0.07597435
49	0x3eb24d9d	0.3482484
50	0xbdca72d5	-0.09885184
51	0x3eba599f	0.363965
52	0x3dbf97fc	0.093551606
53	0x3d480c3d	0.048839796
54	0xbdd77950	-0.105211854
55	0xbce51a10	-0.02796653
56	0x3cc7136c	0.024301253
57	0x3c4aaf83	0.012370947
58	0xbd99c626	-0.07508497
59	0xba2c2716	-0.00065671036
60	0x3d4e91db	0.050432067
61	0x3d00ef1d	0.031478036
62	0x3d81418d	0.06311331
63	0xbbf273eb	-0.0073990724
64	0xbee3b112	-0.4447103
65	0xbba49939	-0.0050231484
66	0xbecc8ec4	-0.39952672
67	0x3ea39a40	0.3195362
68	0xbeee726f	-0.4657168
69	0xba83080a	-0.0009996903
70	0x3e8b3cfe	0.2719497
71	0x3e907a13	0.28218135
72	0xbf1e5ff7	-0.6186518
73	0x3e55fc4f	0.2089703
74	0x3e7dfab1	0.24802662
75	0xbb95dd97	-0.0045735347
76	0xbeeddddd	-0.4645833
77	0xbc8747cf	-0.016513733
78	0xbea8600c	-0.32885778
79	0x3d89da21	0.06731058
80	0xb9c4a8da	-0.00037509837
81	0x3e351463	0.17683558
82	0xbeb941a1	-0.36182883
83	0xbe1667c2	-0.14688018
84	0xbcc74835	-0.024326423
85	0xbe3a902c	-0.1821906
86	0xbb90ad04	-0.0044151563
87	0xbf413a01	-0.7547913
88	0xbf527eb0	-0.8222456
89	0x3f4251c0	0.7590599
90	0x3e715097	0.23565899
91	0x3c2b7b11	0.010466353
92	0x3f615519	0.88020474
93	0x3e8d1878	0.2755773
94	0xbd2c079f	-0.041999456
95	0xbd2d05c9	-0.042241845
96	0xbb90720c	-0.0044081267
97	0xbe82167c	-0.2540778
98	0xbe804efd	-0.25060263
99	0x3d34fd19	0.044186685
100	0x3c018962	0.00790629
101	0x3bb4c056	0.0055160923
102	0x3ea4412c	0.32080972
103	0xbe043527	-0.12910901
104	0x3d479edf	0.048735496
105	0x3f7a36e4	0.97740006
106	0xbe983845	-0.2973043
107	0x3ef42838	0.47686934
108	0xbead0406	-0.33792132
109	0xbe78128d	-0.24225827
110	0xbdfb2b3b	-0.12264105
111	0x3eff55f3	0.49870262
112	0xbf53dd32	-0.8275939
113	0x3eff6820	0.4988413
114	0xbec132ee	-0.3773417
115	0x3d88ad76	0.0667371
116	0xbed67d33	-0.41892394
117	0xbe3ad735	-0.18246157
118	0xbe4d3e0c	-0.200432
119	0xbea98bc9	-0.3311446
120	0xbf0609c1	-0.52358633
121	0xbd06a95e	-0.032876365
122	0xbd154eed	-0.036452223
123	0xbe8b0cda	-0.27158242
124	0xbe9d33ca	-0.30703574
125	0xbf2cbcd8	-0.6747565
126	0xbd82ac93	-0.06380572
127	0xbb9d6d94	-0.0048043225
128	0x3e87e52d	0.26542035
129	0xbe0c66bc	-0.13711065
130	0x3e074cfa	0.13212958
131	0x3efa7efe	0.48925012
132	0x3f2be56d	0.6714695
133	0x3e8b3e63	0.27196035
134	0xbe9cbda1	-0.30613425
135	0xbe090075	-0.1337908
136	0x3e0ffcb9	0.1406125
137	0xbea5816c	-0.32325304
138	0x3ec7a8b0	0.38995886
139	0x3e90acc3	0.28256807
140	0x3edc8a23	0.4307414
141	0xbc4e9f93	-0.012611288
142	0xbcf6a99b	-0.030110171
143	0xbc2321fe	-0.009956835
144	0xbd0b67cb	-0.03403453
145	0x3da591d5	0.08084456
146	0x3e151822	0.14559987
147	0x3ea66d01	0.32505038
148	0xbecaa7f3	-0.3958126
149	0x3b03bf1c	0.0020102924
150	0x3eaa2343	0.33230028
151	0x3e905fa8	0.2819798
152	0x3d29b43b	0.041431647
153	0x3f102305	0.56303436
154	0xbd163dc9	-0.036680017
155	0x3e865a51	0.2624078
156	0xbda98503	-0.08277323
157	0xbdb692e2	-0.089147344
158	0xbd626793	-0.055274557
159	0xbf2816b6	-0.65659654
160	0x3c496423	0.012291941
161	0x3e3fc328	0.1872679
162	0x3ed3c40f	0.41360518
163	0xbb364110	-0.0027809776
164	0x3dbb4403	0.091438316
165	0x3ec81b79	0.3908346
166	0xbdb5b7f2	-0.088729754
167	0x3ead2b26	0.33821982
168	0xbc793dcf	-0.01521249
169	0xbf1873d0	-0.59551716
170	0x3bfb89f6	0.0076763583
171	0xbefadcc6	-0.48996562
172	0x3e82ed49	0.2557166
173	0xbc03cf05	-0.008044963
174	0x3e8a5730	0.27019644
175	0xbeca1858	-0.39471698
176	0x3b091a93	0.002092038
177	0xbf190ffd	-0.5979002
178	0x3d36803d	0.04455589
179	0x3f0e99c5	0.55703384
180	0x3ea8b367	0.32949373
181	0xbd69f0f9	-0.057114575
182	0x3b54b919	0.003245896
183	0x3bca1083	0.006166519
184	0xbcb750d4	-0.022377409
185	0xbe7a7e9f	-0.24462365
186	0x3f06a4b6	0.5259508
187	0xbb0329f4	-0.002001402
188	0x3ecc165d	0.39860812
189	0x3eaf768e	0.34270138
190	0x3be75708	0.0070599355
191	0x3ecda104	0.40161908
192	0x3edeaecd	0.43492737
193	0xbe261813	-0.16220121
194	0x3f273b14	0.6532452
195	0xbdad46ba	-0.08460756
196	0xbe342503	-0.17592244
197	0x3e0f1202	0.13971713
198	0x3e82ccbd	0.25546828
199	0xbe97f44c	-0.2967857
200	0xbbc61d69	-0.0060459864
201	0xbd97ea02	-0.0741768
202	0xbe640c36	-0.22270283
203	0x3e5f11a5	0.21784075
204	0x3d99953e	0.07499169
205	0xbe340e16	-0.17583498
206	0x3ee6464c	0.44975507
207	0x3cc648da	0.02420466
208	0x3d6e49e9	0.058175955
209	0x3e04829a	0.12940446
210	0x3e557530	0.20845485
211	0xbdb68a3e	-0.08913086
212	0xbd77f346	-0.060534738
213	0x3a897277	0.0010486384
214	0x3e1cf016	0.1532596
215	0x3e8d2de4	0.27574074
216	0x3d0f3618	0.034963697
217	0xbcd72ade	-0.026265558
218	0xba922d1d	-0.0011152361
219	0xbda897a1	-0.08232046
220	0x3e68bd74	0.2272852
221	0x3ec09d2c	0.37619913
222	0x3d1dbc1f	0.038509484
223	0x3e53f347	0.20698272
224	0x3d239cf8	0.03994462
225	0xbd911a61	-0.070851095
226	0xbd001877	-0.03127333
227	0xbe210aa9	-0.15726723
228	0x3ba5ce0c	0.005059963
229	0xbd8bc979	-0.06825537
230	0xbe602b56	-0.21891531
231	0x3f3dbf23	0.74119776
232	0x3c013878	0.007886998
233	0x3d8da389	0.069159575
234	0x3d4c319b	0.049851995
235	0xbeb4e4f9	-0.35330942
236	0x3a93dead	0.0011281573
237	0xbd8ac9de	-0.06776784
238	0xbe85e189	-0.26148632
239	0x3dd1ca62	0.102436796
240	0x3e94810d	0.29004708
241	0x3ef7d5d8	0.48405337
242	0xbddde9f5	-0.108356394
243	0x3e931430	0.2872634
244	0x3ed75400	0.42056274
245	0xbdc8f905	-0.09813122
246	0xbd94a82e	-0.0725864
247	0xbde6d01e	-0.11270164
248	0x3d99fa81	0.07518483
249	0x3e678636	0.22609791
250	0xbc007fd4	-0.007842977
251	0x3d367f0d	0.04455476
252	0x3e2a2090	0.16613984
253	0xbbf93e8c	-0.007606333
254	0x3d5563d2	0.05209715
255	0x3dca79af	0.098864906

convs.0.att_dst f4 [1, 4, 64]
0	0xbe38adb3	-0.18035011
1	0xbf0bcf33	-0.54613036
2	0x3df80411	0.121101506
3	0x3eb4129d	0.3517045
4	0xbf4c2458	-0.79742956
5	0x3e6ebbd9	0.23313846
6	0x3f803cc7	1.0018548
7	0x3de94ebd	0.11391971
8	0xbf0d6589	-0.55233055
9	0x3f2dda6c	0.6791141
10	0x3e2976fc	0.16549295
11	0x3be0ab8e	0.0068563884
12	0xbedd7b7a	-0.43258268
13	0xbf817aa6	-1.0115554
14	0x3f10cb05	0.56559783
15	0x3f25f874	0.64832234
16	0x3ea13e84	0.31493008
17	0x3e7bc440	0.24586582
18	0x3f595294	0.8489163
19	0xbedf7050	-0.43640375
20	0x3d1d4737	0.038397994
21	0xbf0a67ad	-0.54064447
22	0x3f043519	0.5164352
23	0x3e6186db	0.220241
24	0xbf01df67	-0.5073151
25	0x3e471a75	0.19443686
26	0x3e1bd02b	0.15216129
27	0xbf65314e	-0.8952836
28	0xbf09647f	-0.5366897
29	0x3ee08367	0.43850252
30	0x3dd56677	0.10419934
31	0x3f4466ad	0.7671917
32	0xbf5b4ba4	-0.85662293
33	0xbf3c4dc6	-0.7355617
34	0xbe72c355	-0.23707326
35	0x3e95917b	0.29212555
36	0xbf3c9b7e	-0.7367476
37	0xbf681601	-0.90658575
38	0x3ef6a012	0.48169
39	0xbdff42bd	-0.12463901
40	0xbf5b62b7	-0.856975
41	0xbd509c4e	-0.050930314
42	0xbf0dbdbb	-0.5536763
43	0xbf5d00f6	-0.8632959
44	0xbf5af254	-0.85526013
45	0xbf513061	-0.81714445
46	0x3f6b1201	0.91824347
47	0x3f984f0e	1.1899126
48	0xbf54bf39	-0.8310428
49	0x3f86b3fa	1.0523674
50	0xbf5fe5bc	-0.8745992
51	0x3f520138	0.8203311
52	0x3ce446cf	0.027865795
53	0x3e8f363d	0.27971068
54	0xbfb70e74	-1.4301286
55	0x3e9cb3ad	0.30605832
56	0xbf0ea37c	-0.5571821
57	0x3eaf5f82	0.34252554
58	0x3ecc9b33	0.39962158
59	0xbe71bdc1	-0.23607542
60	0xbec11744	-0.37713063
61	0xbf47a2ea	-0.7798296
62	0xbea3ba5b	-0.31978115
63	0x3ec7c557	0.39017746
64	0xbe07d5ba	-0.13265124
65	0xbe11adea	-0.14226499
66	0xbea67811	-0.32513478
67	0x3e406297	0.18787609
68	0xbefd110a	-0.49427062
69	0x3d1d9e38	0.038480967
70	0x3da1c4b1	0.07898844
71	0x3d19504e	0.0374301
72	0xbdff9ba8	-0.12480861
73	0x3df5753e	0.11985253
74	0x3e395dac	0.18102139
75	0xbe4fa71a	-0.20278588
76	0xbeb81983	-0.35956964
77	0x3ec23222	0.37928873
78	0xbd8b3bd9	-0.067985244
79	0xbe0a9fea	-0.13537565
80	0xbd80bfc6	-0.06286578
81	0x3baa8785	0.0052041435
82	0xbf06d454	-0.52667737
83	0xbe054399	-0.13014068
84	0x3e683246	0.22675428
85	0xbeed724e	-0.4637627
86	0xbe9e9280	-0.30971146
87	0xbedee2a1	-0.4353228
88	0x3d0f4e33	0.034986686
89	0x3eebedbd	0.46079817
90	0x3e39c70f	0.18142341
91	0x3eb08a12	0.3448034
92	0x3d85861d	0.06519721
93	0xbeb4a464	-0.3528167
94	0x3e340d8c	0.17583293
95	0x3c87bb82	0.016568903
96	0x3e885a55	0.26631418
97	0xbcd21807	-0.025646223
98	0x3c950a83	0.018193489
99	0x3e96d8cb	0.29462275
100	0x3e9ef37a	0.31045133
101	0xbe655cba	-0.22398654
102	0x3ec7532c	0.38930643
103	0xbef9a3d3	-0.487578
104	0x3e492148	0.19641602
105	0x3e2f334a	0.17109409
106	0xbef125fd	-0.47099295
107	0x3de72f71	0.112883456
108	0xbe985719	-0.2975395
109	0xbeb86d58	-0.36020923
110	0xbe259d3e	-0.16173264
111	0x3e2fa646	0.17153272
112	0xbbb413cf	-0.0054955254
113	0x3d0bf843	0.034172308
114	0x3e2873b9	0.16450395
115	0x3e17e315	0.14832719
116	0xbe75552c	-0.23958272
117	0x3ce09c5b	0.027418306
118	0xbecb787c	-0.3974036
119	0xbe92df6d	-0.28686085
120	0xbea31e83	-0.31859216
121	0xbe8c1177	-0.27357075
122	0xbea1a48d	-0.31570855
123	0xbe0bdf53	-0.1365941
124	0xbecfafb4	-0.40563738
125	0xbec40e94	-0.38292372
126	0xbe852493	-0.26004466
127	0xbe5f3ebb	-0.21801274
128	0xbac688a6	-0.0015146926
129	0xbd925187	-0.07144456
130	0x3dce3688	0.10068995
131	0x3e50a455	0.20375188
132	0x3e2d81cf	0.1694405
133	0xbdf5860f	-0.1198846
134	0xbde33a2f	-0.11095082
135	0xbe17ce4b	-0.14824788
136	0xbd5e47e8	-0.054267794
137	0xbd7590e6	-0.05995264
138	0xbb79a789	-0.0038094244
139	0x3e8f57b0	0.27996588
140	0x3e4fc1e8	0.20288813
141	0x3e0b034d	0.13575478
142	0x3e090a23	0.13382773
143	0xbe410fad	-0.18853636
144	0x3e88ef40	0.26745033
145	0xbe36e3ac	-0.17860287
146	0x3dc4d768	0.09611398
147	0x3dddf7b5	0.10838262
148	0xbe828412	-0.25491387
149	0xbdb2e88e	-0.087357625
150	0x3eaf0141	0.34180644
151	0x3e795b96	0.24351344
152	0xbd0f88c2	-0.03504253
153	0x3ef037fd	0.46917716
154	0xbebfc755	-0.37456766
155	0x3e3e544d	0.18586846
156	0x3e6b30ea	0.22967878
157	0x3d0cca47	0.034372594
158	0xbe77b57c	-0.24190325
159	0x3c69d9b8	0.0142731
160	0xbd504c2f	-0.050853904
161	0x3e129999	0.14316405
162	0x3da67696	0.08128087
163	0xbe84b4a0	-0.25919056
164	0xbe5fb5e8	-0.21846735
165	0xbd7e3bb2	-0.06206865
166	0x3e526081	0.20544626
167	0x3e4f0014	0.20214874
168	0xbea731df	-0.32655236
169	0xbe8d8a11	-0.276444
170	0x3e11dadb	0.14243643
171	0xbe89f25d	-0.2694272
172	0x3ec3044c	0.38089216
173	0x3e694f3d	0.22784133
174	0x3d7b3ee1	0.061339263
175	0xbea5c018	-0.32373118
176	0x3e6c49b3	0.23074989
177	0x3cc63f7f	0.0242002
178	0x3e9667ce	0.29376072
179	0xbd912535	-0.07087175
180	0xbe3f9ae8	-0.18711436
181	0x3e04d478	0.12971675
182	0x3c1a4ed9	0.009418213
183	0xbe384cfb	-0.17998116
184	0xbe0539b5	-0.13010295
185	0xbe6cc710	-0.23122811
186	0x3ec61f75	0.38695875
187	0xbd99a438	-0.07502025
188	0x3ebcdfa8	0.36889386
189	0x3ec77660	0.389575
190	0x3deca0ae	0.11554085
191	0x3db9aa43	0.09065678
192	0x3d8b5622	0.06803538
193	0x3f05806d	0.5214909
194	0x3cad60a9	0.021164255
195	0x3ec481ef	0.3838038
196	0xbe92a786	-0.28643435
197	0xbf5581f2	-0.83401406
198	0x3f4a1275	0.78934413
199	0xbf8bd2c5	-1.0923697
200	0x3e16d6d1	0.14730383
201	0x3fb0b406	1.3804939
202	0xbe86672a	-0.26250583
203	0xbef3f12d	-0.4764494
204	0xbeecead2	-0.46272904
205	0xbeb6866b	-0.35649428
206	0x3ee33282	0.44374472
207	0x3ee9d82b	0.45672736
208	0xbd1693a1	-0.036761884
209	0x3f12b829	0.57312256
210	0xbea79c10	-0.32736254
211	0xbef341dd	-0.47511187
212	0xbf09a48e	-0.53766716
213	0xbbb82ce5	-0.005620586
214	0xbf566f1a	-0.8376328
215	0xbf24b86e	-0.6434392
216	0xbf9119c0	-1.1335983
217	0xbe4479d4	-0.19187099
218	0xbd1f07d0	-0.03882581
219	0x3eecd021	0.4625254
220	0x3ec41959	0.3830059
221	0x3f383c74	0.71967244
222	0x3cdf5c22	0.027265612
223	0x3f2ae353	0.6675312
224	0xbea4d7cf	-0.321959
225	0xbf182804	-0.5943606
226	0xbe17723f	-0.14789675
227	0x3f3277ff	0.6971435
228	0x3dc5c7fc	0.096572846
229	0x3e651a77	0.22373377
230	0x3dce82f1	0.10083569
231	0x3ee6664b	0.44999918
232	0xbe465434	-0.19368058
233	0x3ed13034	0.4085709
234	0xbe4a4662	-0.19753411
235	0xbe21e22b	-0.15808932
236	0xbd9bcab2	-0.076070204
237	0x3d84ba78	0.064808786
238	0x3f5a883d	0.85364133
239	0x3dc39988	0.09550768
240	0x3be05f19	0.006847274
241	0x3f8b9c47	1.0907067
242	0x3f1ccd2c	0.6125057
243	0x3f718513	0.9434368
244	0x3ea5c05a	0.32373315
245	0xbe98de47	-0.29857084
246	0x3ce43b79	0.02786039
247	0x3f153b35	0.5829347
248	0xbf256a6e	-0.64615524
249	0xbd6cef67	-0.0578455
250	0x3ca1e3bd	0.019761914
251	0x3e2327d8	0.15933168
252	0xbf2b7247	-0.6697125
253	0x3cda5efe	0.026656624
254	0xbe0586a7	-0.13039647
255	0xbf114025	-0.567385

convs.0.bias f4 [64]
0	0x3da468a4	0.08027771
1	0xbe2fba2f	-0.17160867
2	0x3da4d47f	0.08048343
3	0x3d3c2489	0.04593328
4	0x3d8d98a1	0.06913877
5	0xbe76bdf7	-0.24095903
6	0x3e0cee0b	0.13762681
7	0xbf152955	-0.5826619
8	0xbe0b7afe	-0.13621137
9	0x3dc68b92	0.0969459
10	0xbed7db5a	-0.4215954
11	0xbdb2392c	-0.08702311
12	0x3eb5e2d5	0.35524622
13	0xbf00069f	-0.50010103
14	0xbe81567c	-0.25261295
15	0xbe47f53f	-0.19527148
16	0xbeb75153	-0.35804233
17	0xbe9debd9	-0.30844
18	0xbd11e3e4	-0.035617724
19	0x3da4e6ba	0.0805182
20	0xbe1d39a7	-0.15354024
21	0xbe78bc3a	-0.24290553
22	0xbead3637	-0.33830425
23	0xbdc557af	-0.09635865
24	0xbe621685	-0.22078903
25	0xbd99fb84	-0.07518676
26	0xbe888b6f	-0.2666888
27	0xbe3d8fa7	-0.1851183
28	0xbd7a1e56	-0.061064087
29	0xbc24e8af	-0.010065242
30	0xbe713aa3	-0.23557524
31	0x3d2199d5	0.039453346
32	0xbe737701	-0.23775865
33	0x3dfa44fd	0.1222019
34	0x3dbf7a61	0.09349514
35	0xbec6bced	-0.38816014
36	0xbeb72bc7	-0.35775587
37	0xbe44cf07	-0.192196
38	0xbed853c9	-0.42251423
39	0x3d816abc	0.06319186
40	0xbebbc9ad	-0.36677304
41	0xbe26ec7f	-0.16301154
42	0x3d4848bb	0.048897486
43	0xbe98230e	-0.29714245
44	0xbda7f571	-0.08201111
45	0xbe51fd71	-0.20506836
46	0x3c613476	0.013745418
47	0xbd933cd8	-0.071893394
48	0xbe34c3c5	-0.17652805
49	0x3e17dc40	0.14830112
50	0xbdace32c	-0.08441767
51	0xbdfcce1d	-0.123440005
52	0x3ca7b774	0.02047322
53	0xbcdcf406	-0.026971828
54	0xbdfd9185	-0.12381271
55	0xbe78221a	-0.24231759
56	0xbe5f076a	-0.21780172
57	0x3c12f0c1	0.008968533
58	0xbdd2334c	-0.1026369
59	0xbdea1826	-0.11430387
60	0xbdc5fae8	-0.09666997
61	0xbd89147c	-0.0669336
62	0xbe424910	-0.18973184
63	0xbe1a14aa	-0.15046945

convs.0.lin.weight f4 [256, 2]
0	0xbe1aa192	-0.15100697
1	0xbf60c418	-0.87799215
2	0xbda320c0	-0.07965231
3	0xbe9154f1	-0.28385118
4	0xbd8b2e19	-0.06795902
5	0xbf8c4eef	-1.0961589
6	0x3e905632	0.28190762
7	0xbe1962a9	-0.14979042
8	0xbf0feb5f	-0.5621852
9	0xbc1aaffc	-0.009441372
10	0xbd96af30	-0.07357633
11	0x3e012f39	0.1261567
12	0x3d789c9a	0.060696222
13	0xbf5ca54e	-0.86189735
14	0x3d1f7a50	0.038935006
15	0x3cacec0d	0.021108652
16	0xbd6861a7	-0.056733754
17	0xbe84165a	-0.25798303
18	0x3e8f653f	0.28006932
19	0xbeec5cc8	-0.46164536
20	0xbddd70cc	-0.1081253
21	0x3e807f57	0.25097153
22	0xbc7a5c35	-0.015280773
23	0xbef79ae3	-0.48360357
24	0xbfbeb8a1	-1.4900094
25	0x3dc1931d	0.09451888
26	0xbee3a46f	-0.4446139
27	0x3da2007d	0.079102494
28	0x3df9c889	0.12196452
29	0x3e3afee7	0.182613
30	0x3e181b7e	0.14854237
31	0x3d3a80d6	0.045533024
32	0xbd93040f	-0.071785085
33	0x3dd9c860	0.106339216
34	0x3e6e84d9	0.23292865
35	0x3e68152f	0.22664331
36	0x3ee76ae4	0.4519874
37	0xbe658dd0	-0.22417378
38	0xbec7fbc3	-0.39059266
39	0xbee2cdba	-0.44297582
40	0x3eb9939f	0.36245438
41	0x3eecf12c	0.4627775
42	0xbdd29681	-0.102826126
43	0xbe832bef	-0.25619456
44	0x3dd65950	0.10466254
45	0x3e3b4d52	0.18291214
46	0x3e893209	0.26795986
47	0xbe2a24bf	-0.1661558
48	0xbda5a51a	-0.08088131
49	0xbe8a72bd	-0.27040663
50	0x3c847341	0.016168239
51	0x3de5b699	0.11216468
52	0x3cabfadd	0.020993644
53	0xbf0ad818	-0.5423598
54	0xbe33cb24	-0.17557961
55	0xbe1ada21	-0.15122272
56	0xbf2cdd8a	-0.6752554
57	0xbf4347a2	-0.7628118
58	0x3da679e0	0.081287146
59	0xbf2d9220	-0.67801094
60	0x3c7027ff	0.014657973
61	0x3d42c6e1	0.047552947
62	0x3e7c597a	0.24643508
63	0xbe4c2af5	-0.19938262
64	0xbe65176a	-0.22372213
65	0xbe52bbeb	-0.20579498
66	0xbf3fdd15	-0.7494672
67	0xbeac1c64	-0.3361541
68	0xbe315e1d	-0.17321058
69	0xbeba8600	-0.3643036
70	0xbd8f9cf6	-0.0701236
71	0x3e1769e7	0.14786492
72	0xbece28c5	-0.4026548
73	0x3e61ea31	0.22061993
74	0xbeb1deea	-0.34740382
75	0xbe823252	-0.25429016
76	0x3ed6a20a	0.419205
77	0xbd923a93	-0.071400784
78	0x3dc09a92	0.09404482
79	0xbee0eff4	-0.4393307
80	0xbe99d4ff	-0.30045316
81	0xbdff3b1c	-0.12462446
82	0x3db0d502	0.08634378
83	0x3cca062b	0.024661144
84	0xbe757a9c	-0.23972553
85	0xbe1d005b	-0.15332167
86	0xbdc1012e	-0.09424053
87	0x3de383e0	0.111091375
88	0xbed473e1	-0.4149466
89	0xbf0cf4fb	-0.5506131
90	0xbef3774d	-0.47551957
91	0xbf16a589	-0.58846337
92	0x3eddee8a	0.43346053
93	0xbf0d4871	-0.5518866
94	0x3dfa36d0	0.12217486
95	0xbd9f9f0f	-0.0779401
96	0xbe6d98d5	-0.23202832
97	0xbeb83adb	-0.35982403
98	0x3e907570	0.28214598
99	0xbed702dc	-0.4199437
100	0xbecb21dd	-0.39674273
101	0xbe7b790c	-0.24557894
102	0x3ec9bc5a	0.39401513
103	0xbf345831	-0.7044707
104	0x3e0013b1	0.12507512
105	0xbe0728cb	-0.13199155
106	0x3e3fbcec	0.18724412
107	0x3ded8779	0.11598105
108	0xbf031a74	-0.5121224
109	0x3de4395d	0.11143754
110	0x3c22f4c0	0.009946048
111	0x3e46c77a	0.19412032
112	0xbd81ee0b	-0.06344231
113	0xbe80e1b1	-0.2517219
114	0x3cbbb224	0.022912093
115	0x3e596550	0.21230054
116	0x3d409785	0.0470195
117	0x3e0fa135	0.1402634
118	0x3d9271c4	0.07150605
119	0xbdfd1e94	-0.12359348
120	0xbe269f7c	-0.16271776
121	0x3c55449a	0.013016844
122	0xbe2a2d9e	-0.16618964
123	0xbec6b54a	-0.38810188
124	0xbc5615b4	-0.013066698
125	0xbf066a8a	-0.52506316
126	0x3c323008	0.010875709
127	0x3da60303	0.08106043
128	0xbda32e56	-0.07967822
129	0xbf3fb403	-0.7488405
130	0xbed6626a	-0.4187196
131	0xbed408a9	-0.41412857
132	0xbdfa9d79	-0.12237067
133	0xbf162fba	-0.58666575
134	0x3f3d3fc3	0.7392542
135	0xbe7a590e	-0.24448034
136	0xbeb3738a	-0.35049087
137	0xbed08f98	-0.40734553
138	0x3b102933	0.0021997213
139	0x3b92eec0	0.0044840276
140	0x3e4cf7fb	0.20016472
141	0xbe8d83c8	-0.27639604
142	0x3daddeb8	0.08489746
143	0x3e93ed72	0.28892094
144	0xbea5624d	-0.3230156
145	0xbefb6713	-0.49102077
146	0xbc785e83	-0.015159252
147	0xbde42d7a	-0.111414865
148	0x3e24d8b0	0.16098285
149	0x3eb9ab1a	0.36263353
150	0xbe98d17f	-0.29847333
151	0xbe94f52c	-0.290933
152	0xbf8e24bf	-1.1104964
153	0x3e57ad1a	0.21062127
154	0x3e105aa6	0.1409708
155	0x3dd1e3ef	0.10248553
156	0xbe4d76b6	-0.20064816
157	0xbefd5590	-0.49479342
158	0xbe09afcf	-0.13445972
159	0x3a91b19c	0.0011115554
160	0xbd00d092	-0.03144891
161	0xbcffef88	-0.031242147
162	0xbeb65988	-0.35615182
163	0x3e8e8d20	0.27842045
164	0xbed81b4e	-0.42208332
165	0xbef00d13	-0.46884975
166	0xbed7830a	-0.42092162
167	0xbe4d70c2	-0.20062545
168	0xbe0185bf	-0.12648676
169	0xbe879163	-0.2647811
170	0xbec31ee8	-0.38109517
171	0xbec79be4	-0.38986123
172	0xbe926958	-0.28595996
173	0xbe8eaf28	-0.2786801
174	0xbec88bff	-0.3916931
175	0xbef68895	-0.4815108
176	0xbeb167af	-0.34649417
177	0xbeec78f3	-0.46186027
178	0x3f296d50	0.6618242
179	0x3e72a480	0.23695564
180	0x3e8e38d6	0.27777737
181	0x3eb9eb4a	0.36312324
182	0x3dadc4c6	0.08484797
183	0x3daac204	0.08337787
184	0x3e89780b	0.26849398
185	0xbd1430ae	-0.036179237
186	0xbd575523	-0.052571427
187	0x3e0684b6	0.13136563
188	0x3d36b305	0.04460432
189	0xbd21b49e	-0.03947889
190	0xbe077c45	-0.13230999
191	0xbef657c4	-0.48113835
192	0xbe914382	-0.28371817
193	0xbe8d8b02	-0.27645117
194	0xbee67b06	-0.45015734
195	0xbe62c647	-0.2214595
196	0xbf26a0b8	-0.6508899
197	0xbe85d57a	-0.26139432
198	0xbe11b682	-0.14229777
199	0xbd56c6f5	-0.052435834
200	0x3dc058a0	0.09391904
201	0x3dacb8f5	0.08433715
202	0xbe156a2a	-0.1459128
203	0xbe037899	-0.12838973
204	0x3f4237c9	0.7586637
205	0xbda0c8b8	-0.07850784
206	0xbed7cd96	-0.42149037
207	0xbecefaa5	-0.40425602
208	0xbe11fcf8	-0.14256656
209	0xbd35c3ba	-0.044376113
210	0x3ec92734	0.39287722
211	0xbddfbfb0	-0.10925233
212	0xbef441cb	-0.47706446
213	0xbee86ff5	-0.45397916
214	0x3c00dae1	0.007864685
215	0x3c3cf669	0.011533358
216	0xbef4eda1	-0.47837546
217	0xbef0049d	-0.4687852
218	0xbec4b9b5	-0.38422933
219	0xbed32a88	-0.41243386
220	0x3ea053bc	0.31313884
221	0xbe5622aa	-0.20911661
222	0xbe202a09	-0.15641035
223	0x3ecdaaa2	0.40169245
224	0xbed556fb	-0.41667923
225	0xbf0237eb	-0.50866574
226	0x3eaf040e	0.3418278
227	0xbedd796b	-0.43256697
228	0xbee34366	-0.44387358
229	0xbf0dd10d	-0.5539711
230	0xbc16a6c8	-0.009195037
231	0x3e786b62	0.24259713
232	0xbf04d542	-0.51887906
233	0xbf56b5c7	-0.8387112
234	0xbef1a87e	-0.47198862
235	0xbf05be18	-0.52243185
236	0xbec7907d	-0.38977423
237	0xbee0cb3e	-0.4390506
238	0xbebe5f82	-0.37182242
239	0xbec89a73	-0.39180335
240	0xbecefe99	-0.40428618
241	0xbee48b6c	-0.4463762
242	0xbe242c8c	-0.16032618
243	0xbe504f8e	-0.20342848
244	0xbee0dc57	-0.43918106
245	0xbeda6957	-0.42658493
246	0xbea1550d	-0.315102
247	0xbeb26cdd	-0.3484868
248	0xbebf61d6	-0.3737933
249	0xbee41af0	-0.44551802
250	0xbef88bb7	-0.48544094
251	0xbf05cbd1	-0.52264124
252	0xbed60d02	-0.418068
253	0xbecdc4a7	-0.40189096
254	0xbebb0422	-0.3652659
255	0xbeb8a55f	-0.36063668

convs.1.att_src f4 [1, 4, 64]
0	0x3e04f402	0.12983707
1	0xbc485382	-0.012226941
2	0x3d322263	0.043489825
3	0x3f0ff2eb	0.5623004
4	0xbd924b47	-0.07143264
5	0x3e863ff4	0.26220667
6	0xbe8d70bf	-0.2762508
7	0x3d97fc0a	0.074211195
8	0x3e94f6bf	0.29094502
9	0xbeb3ef0c	-0.35143316
10	0xbeb812ce	-0.35951847
11	0x3deac970	0.114642024
12	0xbd8b2bc6	-0.067954585
13	0x3d415e02	0.047208793
14	0x3e3475d1	0.17623068
15	0x3e6424c0	0.22279644
16	0x3cf5ca29	0.030003624
17	0x3d162bc5	0.036662836
18	0xbe492a11	-0.19644953
19	0x3def43f3	0.11682882
20	0xbe49048c	-0.19630641
21	0x3d99ec79	0.07515807
22	0x3cdb77ad	0.026790464
23	0x3eab651c	0.33475578
24	0x3da4decb	0.08050307
25	0x3a8972f4	0.0010486529
26	0x3f3f10be	0.7463492
27	0xbe35954a	-0.1773273
28	0xbda426f9	-0.08015246
29	0x3e9e729e	0.3094682
30	0xbdd92c23	-0.106041215
31	0xbda9e53d	-0.08295677
32	0x3d030238	0.031984538
33	0xbef1ce7c	-0.47227848
34	0x3d48266f	0.048864778
35	0x3e12d831	0.14340283
36	0x3e80c1df	0.25147912
37	0x3e7d6e79	0.24749173
38	0x3d518f14	0.05116184
39	0x3eef0219	0.46681288
40	0x3dcea845	0.100906886
41	0xbde3efe0	-0.11129737
42	0xbe2e059b	-0.16994326
43	0xbcc62721	-0.02418858
44	0xbe96a5ec	-0.29423463
45	0xbd592d0e	-0.053021483
46	0xbd95b0de	-0.07309125
47	0x3d9600ff	0.07324409
48	0x3d300a0a	0.042978324
49	0xbdd2913c	-0.102816075
50	0xbe11d6a2	-0.14242032
51	0x3f1ed6fd	0.62046796
52	0xbe8dad5d	-0.27671328
53	0xbdc204e4	-0.09473589
54	0x3f19927e	0.59989154
55	0x3e0e9f7d	0.13928027
56	0xbd2d3cec	-0.042294428
57	0x3d4ae994	0.049539164
58	0x3c83e0aa	0.01609834
59	0xbd9a190a	-0.07524307
60	0x3ecd1cda	0.40061074
61	0x3ee849e5	0.45368877
62	0xbd52a778	-0.051429242
63	0xbd0ef6cd	-0.034903336
64	0xbcc0900e	-0.02350619
65	0xbf989cea	-1.1922886
66	0xbde06371	-0.10956467
67	0xbf5af770	-0.8553381
68	0xbe2f0c2c	-0.17094487
69	0xbf018388	-0.50591326
70	0xbe6c2d02	-0.23064044
71	0xbe87b49b	-0.2650498
72	0xbf8d1611	-1.1022359
73	0x3e5f5950	0.21811414
74	0xbefdaa67	-0.4954407
75	0xbeb0a048	-0.34497285
76	0xbe40f951	-0.18845107
77	0x3ec1be90	0.378407
78	0xbe8c3361	-0.2738295
79	0x3e374f2a	0.17901292
80	0xbf811e34	-1.0087342
81	0x3fbf4920	1.4944191
82	0xbf5cbefe	-0.8622893
83	0x3f34a043	0.7055704
84	0xbf4e19fc	-0.805084
85	0xbe8f9bf0	-0.28048658
86	0x3f3b9781	0.7327805
87	0x3f5a4c68	0.85272837
88	0xbea25123	-0.31702527
89	0x3f4a6412	0.79058945
90	0xbe069058	-0.13141
91	0xbe70428f	-0.2346289
92	0xbf8b2c1f	-1.087284
93	0x3e8bf37b	0.27334198
94	0xbdc7c3ea	-0.097541645
95	0xbef7a97c	-0.48371494
96	0xbf303913	-0.6883709
97	0x3e23afe6	0.15985069
98	0xbe864051	-0.26220945
99	0x3f6c04eb	0.92195004
100	0x3f0d0637	0.5508761
101	0x3e7017a8	0.23446524
102	0x3e635ccf	0.22203372
103	0xbec3b2af	-0.38222262
104	0xbdb9eef3	-0.09078779
105	0xbf99919c	-1.1997561
106	0xbf21da7f	-0.63224024
107	0xbdb93f4c	-0.09045276
108	0x3ed5c11f	0.41748902
109	0xbd87824a	-0.066166475
110	0x3f940761	1.1564752
111	0x3ed7957c	0.42106235
112	0x3e43c1f5	0.19116957
113	0xbf0f2f9c	-0.5593202
114	0x3e520203	0.2050858
115	0x3f108de2	0.56466496
116	0x3c935b52	0.01798788
117	0x3e0d6c69	0.13810886
118	0x3fc3b323	1.5289043
119	0xba3c2d77	-0.00071784056
120	0xbf00442b	-0.50104016
121	0xbeabb768	-0.33538365
122	0x3f74e2ff	0.9565887
123	0xbeeb1dd2	-0.4592119
124	0x3f59b6a6	0.85044324
125	0xbfa325e5	-1.274594
126	0x3dfea838	0.12434429
127	0xbe8db208	-0.2767489
128	0x3d4df6da	0.050284244
129	0xbde3eedb	-0.111295424
130	0xbe08d7b5	-0.13363536
131	0x3d2d296e	0.04227584
132	0xbd590c82	-0.052990444
133	0x3c81031c	0.015748553
134	0xbd391e1f	-0.04519474
135	0xbe3c7fe8	-0.18408167
136	0x3d56ee43	0.052473318
137	0x3ebc3077	0.36755726
138	0x3d0d3dc6	0.03448274
139	0x3e11b411	0.14228846
140	0xbd900fa7	-0.070342354
141	0xbd43b48d	-0.04777961
142	0x3e2a9d2c	0.16661519
143	0x3d25bd01	0.04046345
144	0xbc13ca82	-0.00902045
145	0xbb828c1b	-0.003983987
146	0xbd65f29c	-0.056139573
147	0x3ebef825	0.37298694
148	0xbe9b2f31	-0.30309442
149	0x3d3183ec	0.0433387
150	0x3daa0847	0.0830236
151	0x3e4ec444	0.20192057
152	0xbeaaebb7	-0.3338296
153	0x3e13aa72	0.14420488
154	0xbe48e329	-0.19617905
155	0x3dcba69c	0.099438876
156	0x3da03575	0.07822696
157	0x3e6aae58	0.2291807
158	0xbc4369cd	-0.01192708
159	0x3da654ce	0.08121644
160	0x3d891917	0.06694239
161	0x3eade6e4	0.33965218
162	0x3cf8a965	0.030354211
163	0x3e788f84	0.24273497
164	0x3e4f78d0	0.2026093
165	0xbd5b5d4c	-0.05355577
166	0x3c53892e	0.012911124
167	0xbe1e70fd	-0.15472789
168	0xbca3309d	-0.019920642
169	0xbe39ebaf	-0.18156312
170	0x3deda006	0.11602788
171	0x3b8253f5	0.0039772936
172	0x3e886f06	0.26647204
173	0xb90534e7	-0.00012703576
174	0xbe6ef30a	-0.233349
175	0x3c724bed	0.01478861
176	0xbc104764	-0.008806083
177	0xbdc0b9d6	-0.094104454
178	0xbd925fe9	-0.071472
179	0x379f6d58	1.9005194e-05
180	0xbc8ffbf9	-0.017576205
181	0x3e8a0623	0.26957807
182	0x3e0aad3d	0.13542648
183	0xbda93b38	-0.08263248
184	0x3d21b5a9	0.039479885
185	0x3ca702b4	0.020387031
186	0x3d81c06c	0.0633553
187	0xbe856428	-0.26052976
188	0x3e0315c8	0.12801278
189	0xbc34fb08	-0.011046179
190	0x3c3774a6	0.011197245
191	0x3d48be01	0.049009327
192	0x3f3e7d04	0.7440951
193	0x3f279b15	0.6547101
194	0xbdcfdb37	-0.10149234
195	0x3f32533d	0.6965826
196	0xbebf8420	-0.3740549
197	0x3e61af6b	0.22039573
198	0xbd780e57	-0.06056055
199	0x3f2d79b7	0.6776385
200	0xbe690959	-0.22757472
201	0x3f1f5ad3	0.6224796
202	0x3f3f6cba	0.7477528
203	0x3e356440	0.17714024
204	0xbdc73dc4	-0.09728578
205	0x3cbcbf9a	0.023040581
206	0x3e5de618	0.21669805
207	0x3c1d4c02	0.009600641
208	0x3f3b0a51	0.73062617
209	0x3df54ebf	0.1197791
210	0x3e970891	0.29498723
211	0x3f3a8b61	0.72868925
212	0xbed7ba42	-0.4213429
213	0x3f405704	0.75132775
214	0x3ca24b06	0.019811165
215	0x3d43386f	0.04766124
216	0x3f00868b	0.50205296
217	0x3e14051c	0.14455074
218	0x3e264c95	0.16240151
219	0x3f1b6a25	0.6070884
220	0x3eb29c9f	0.34885117
221	0x3e5962c8	0.21229088
222	0xbf379201	-0.7170716
223	0x3e0e9113	0.13922529
224	0x3e37b181	0.17938806
225	0x3f1f716b	0.6228244
226	0xbe1f2b83	-0.15543942
227	0x3df4d95d	0.11955521
228	0x3ec2333f	0.37929723
229	0x3f4b37da	0.793821
230	0x3e991a0f	0.29902694
231	0x3f363564	0.7117522
232	0x3f4d7aae	0.8026532
233	0x3e7f1291	0.24909426
234	0xbe96791d	-0.29389277
235	0x3ebc5cc8	0.36789536
236	0xbf2d37ad	-0.6766308
237	0x3e90d065	0.28283992
238	0x3d482ca9	0.048870716
239	0x3e36c7d4	0.17849666
240	0x3e8bdbbb	0.2731608
241	0xbf040373	-0.51567763
242	0x3f3aa9c3	0.72915286
243	0xbf20a3ac	-0.62749743
244	0xbd08324a	-0.033251084
245	0x3f1cac0d	0.6120003
246	0xbeeca97b	-0.46223053
247	0x3f02e9e5	0.51138145
248	0x3eaaa3a4	0.33327973
249	0x3e996c2c	0.2996534
250	0xbc89ccd5	-0.016821304
251	0x3f020b29	0.5079828
252	0xbd9aa5c7	-0.07551151
253	0xbdb792ab	-0.089635216
254	0x3ee89b17	0.45430824
255	0x3f525076	0.82154024

convs.1.att_dst f4 [1, 4, 64]
0	0xc01b7c85	-2.429475
1	0x3f5a0aed	0.8517292
2	0xbff6d1c4	-1.9282765
3	0xbfefb45e	-1.8726919
4	0xbfefcddb	-1.8734697
5	0xbf9bcd61	-1.2172052
6	0xbf4187dc	-0.7559793
7	0xc0021a67	-2.0328615
8	0xbf58b197	-0.8464598
9	0xbfac49d5	-1.3460032
10	0x3ec098b5	0.37616506
11	0xbff904ef	-1.9454631
12	0xbfba6e99	-1.4565002
13	0xbf07d1ee	-0.530547
14	0xbfbd9a22	-1.4812663
15	0x3e69e071	0.22839524
16	0x3fc7b9cb	1.5603575
17	0xbfef5676	-1.8698261
18	0xbff4f6a8	-1.9137774
19	0xbff5d925	-1.9206892
20	0x3dc1caf1	0.09462536
21	0x3ec7b45f	0.390048
22	0xbfcc82ee	-1.5977457
23	0xbf5ebff5	-0.87011653
24	0xbf08f9d9	-0.5350624
25	0xbffc0a11	-1.9690572
26	0xbfad7ced	-1.3553749
27	0xc0091e86	-2.142488
28	0xbf6a3bbe	-0.9149741
29	0xbfab7220	-1.3394203
30	0x3fd376c9	1.6520625
31	0xbf7cda37	-0.9877047
32	0xbfcfe754	-1.6242471
33	0xbc890356	-0.016725224
34	0xbf356bd1	-0.7086764
35	0xbf0902c1	-0.5351983
36	0xbf1b1266	-0.6057495
37	0xbf473575	-0.77815944
38	0xbf98313a	-1.1890023
39	0xbff3bd3b	-1.9042124
40	0x3fd1382f	1.6345271
41	0xbf02f562	-0.51155674
42	0xbfd44817	-1.65845
43	0xbfe37244	-1.7769246
44	0x3fb091ab	1.3794454
45	0xbfb05d5c	-1.3778491
46	0xc01a6ac0	-2.4127655
47	0xbfc725cc	-1.555841
48	0xbfdaa346	-1.7081077
49	0x3f7141de	0.9424113
50	0xbf8ba624	-1.0910077
51	0xc00608ce	-2.0942874
52	0xbf8d19b5	-1.102347
53	0xbf40d7e1	-0.75329405
54	0xbfdac8cf	-1.7092532
55	0xc00f2790	-2.2367897
56	0x3d8e332a	0.069433525
57	0xbf1ee7cd	-0.6207245
58	0xc00a3dc5	-2.16002
59	0x3e5adbed	0.21372958
60	0xbef52d0f	-0.4788594
61	0xbfb91a00	-1.446106
62	0xbf85dea1	-1.0458566
63	0xbfc2659c	-1.5187259
64	0x402df015	2.7177784
65	0xbf5839bd	-0.844631
66	0xc055bc66	-3.339624
67	0x3fb9b881	1.4509431
68	0xc055bac8	-3.3395252
69	0xc05968bf	-3.3970182
70	0xbfcb5e4a	-1.588815
71	0xc072713d	-3.7881615
72	0x3d1e7b30	0.0386917
73	0xc02f0b0d	-2.7350495
74	0x3f56889f	0.8380222
75	0xbfa2aad5	-1.2708384
76	0xbf68aa8b	-0.9088523
77	0xc00b4634	-2.1761599
78	0xbf6771fa	-0.9040829
79	0xc0071ba3	-2.1110618
80	0xbf3113b4	-0.6917069
81	0xbfac1c64	-1.3446164
82	0xc01eb1a1	-2.4795916
83	0x3fdc69a9	1.7219745
84	0x3e7237e1	0.23654129
85	0xc03e5de9	-2.9744818
86	0xbfe50cb8	-1.7894506
87	0xc03731b2	-2.8624082
88	0xbfe34158	-1.7754316
89	0xbf6f34db	-0.93440026
90	0x402385b3	2.5550354
91	0xc034bda5	-2.824075
92	0xbf861978	-1.0476522
93	0xc0469a32	-3.1031613
94	0xc04060d4	-3.00591
95	0xbf5f10a9	-0.87134796
96	0xc03876a7	-2.882242
97	0xc0238f75	-2.555631
98	0xc06579f5	-3.5855687
99	0xbff315cc	-1.8991027
100	0xbfe936b6	-1.8219821
101	0xc02c5973	-2.6929595
102	0xc04c5570	-3.1927147
103	0xc062a8e0	-3.5415573
104	0xc051c1f6	-3.2774634
105	0x3bebfdf2	0.0072019035
106	0xbfc18eae	-1.5121667
107	0xc015e8a6	-2.3423247
108	0xbfa51cd1	-1.2899419
109	0xc036f7f6	-2.8588843
110	0xbf87084b	-1.0549406
111	0xc023f223	-2.5616539
112	0xc0498306	-3.148622
113	0xbfcca12d	-1.5986687
114	0xc015c8f0	-2.3403893
115	0xbfacdf83	-1.350571
116	0xbfc92338	-1.5713873
117	0xc05e2cb8	-3.4714794
118	0xbf4d52bc	-0.8020437
119	0xc0445426	-3.067636
120	0xc04c5a33	-3.1930053
121	0xc05d086d	-3.4536393
122	0xbfbc3722	-1.4704325
123	0x3d3b9bec	0.045802996
124	0xbeacaadb	-0.33724102
125	0x3f369741	0.71324545
126	0xc01530bc	-2.3310995
127	0xc02a8c46	-2.6648116
128	0x3f85be45	1.0448691
129	0xbfb4fba1	-1.4139291
130	0xbe19e772	-0.15029696
131	0x3e9e3909	0.3090289
132	0x3f2b9200	0.67019653
133	0xbfa481e9	-1.2852145
134	0x3d107ac8	0.035273343
135	0xbee4a0b2	-0.4465385
136	0xbe45d796	-0.19320521
137	0x3f26be38	0.65134
138	0xbf0c7d47	-0.5487866
139	0xbf122763	-0.5709135
140	0x3f60b8ad	0.8778179
141	0x3f3c6329	0.73588806
142	0xbf781319	-0.9690414
143	0x3f8924b2	1.0714324
144	0x3fb98cce	1.4496095
145	0xbde3e2b3	-0.11127224
146	0xbeb34526	-0.35013694
147	0xbf05b359	-0.5222679
148	0x3e697ec4	0.22802263
149	0xbf03b2be	-0.51444614
150	0xbf57b948	-0.8426709
151	0x3da6c99a	0.08143921
152	0x3ed739d9	0.42036322
153	0xbf19b246	-0.6003765
154	0xbf90098a	-1.1252911
155	0xbe87ea0c	-0.2654575
156	0xbf85244c	-1.0401702
157	0x3db24946	0.08705382
158	0xbe6adfe6	-0.22936973
159	0xbd1668bd	-0.03672098
160	0x3e4cadec	0.19988221
161	0x3f410e14	0.75412107
162	0x3f7e9047	0.994389
163	0x3db581e6	0.08862667
164	0xbe7d6e47	-0.24749099
165	0x3ee35386	0.4439966
166	0x3f5e4132	0.8681823
167	0xbe264b4b	-0.1623966
168	0xbf40bee8	-0.752913
169	0xbf5e2967	-0.86781925
170	0xbec79b2c	-0.38985574
171	0xbd9ab93f	-0.07554864
172	0xbf57891c	-0.8419359
173	0xbc4cd599	-0.0125020975
174	0xbf083464	-0.5320494
175	0x3ee27a69	0.44234017
176	0xbea8e880	-0.32989883
177	0x3f3011fc	0.6877744
178	0x3f33b7fb	0.70202607
179	0xbf4613f9	-0.77374226
180	0xbec82433	-0.39090118
181	0xbdc74816	-0.09730546
182	0xbf269517	-0.65071243
183	0xbdc4ebe8	-0.09615308
184	0x3f9c3408	1.2203379
185	0xbf26132a	-0.6487299
186	0xbf13cb35	-0.57731944
187	0x3f3ca91d	0.73695546
188	0x3fa045d6	1.2521312
189	0x3f8e04dc	1.1095233
190	0xbe8dcc39	-0.27694872
191	0xbe4ca32f	-0.19984125
192	0x3f384a0c	0.71987987
193	0xbe363617	-0.17794071
194	0x3e79d249	0.24396624
195	0x3ea5ef77	0.3240926
196	0xbe2574c7	-0.16157828
197	0x3f849ff2	1.0361311
198	0x3ec0428c	0.3755077
199	0x3f814d4e	1.0101717
200	0x3f2dd6f5	0.67906123
201	0x3f140987	0.5782704
202	0x3f29bb6c	0.6630161
203	0x3f2dfc7a	0.67963374
204	0x3e457f48	0.19286835
205	0x3e9fa6fd	0.3118209
206	0x3e8ed7d3	0.27899036
207	0xbee492bb	-0.44643196
208	0x3f80d5d9	1.0065261
209	0x3f494921	0.7862721
210	0xbf03027c	-0.51175666
211	0x3f0f3685	0.55942565
212	0xbdfac881	-0.12245274
213	0x3db07557	0.08616131
214	0x3f3398b3	0.70154876
215	0x3eb8e00e	0.3610844
216	0x3e8d17c7	0.27557203
217	0x3f2295b8	0.635097
218	0x3c3dc753	0.011583167
219	0x3e6ee38f	0.23328994
220	0x3f49097a	0.78530085
221	0x3d0488a1	0.032356862
222	0x3de572bb	0.11203524
223	0x3f5a3c12	0.8524791
224	0x3f52f75d	0.82408696
225	0x3f1d7d6d	0.6151951
226	0xbc0c0bd6	-0.008547744
227	0xbf18e880	-0.59729767
228	0x3e9ab2c3	0.3021451
229	0x3f0c3801	0.54772955
230	0x3ec72e82	0.3890267
231	0x3dd0f7d4	0.102035195
232	0x3df3cac3	0.11903908
233	0x3f650be7	0.89471287
234	0xbf2f5a44	-0.6849711
235	0x3f079b52	0.52971375
236	0xbdeab341	-0.11459971
237	0x3e2d7497	0.16939007
238	0x3eca6be0	0.39535427
239	0x3ede4577	0.43412372
240	0x3f40ab5a	0.7526146
241	0xbeded99c	-0.43525398
242	0x3f14ed41	0.5817452
243	0x3f041825	0.5159934
244	0x3db8b2ca	0.09018476
245	0x3f754949	0.9581495
246	0xbdf0516d	-0.11734281
247	0xbe2453f6	-0.16047654
248	0x3e9d06f9	0.30669382
249	0x3f00cfcc	0.5031707
250	0x3f04af17	0.51829666
251	0x3f52defb	0.8237149
252	0x3e7c79a8	0.24655783
253	0x3ef44381	0.4770775
254	0x3f2e3487	0.680489
255	0x3e939f69	0.28832558

convs.1.bias f4 [64]
0	0xbebc1750	-0.36736536
1	0x3d1542af	0.036440548
2	0xbe4a1601	-0.19734956
3	0xbb11c044	-0.0022239843
4	0xbe4589ee	-0.19290897
5	0xbdba6c9c	-0.09102747
6	0xbdd52634	-0.10407677
7	0x3e1c5f6d	0.15270777
8	0x3def6903	0.11689951
9	0x3da743ad	0.08167205
10	0x3d44b947	0.048028257
11	0x3dd9e94d	0.10640202
12	0xbdf4a50a	-0.11945541
13	0xbe8db8f0	-0.2768016
14	0x3e05233c	0.13001722
15	0x3e34734e	0.1762211
16	0xbded42af	-0.115849845
17	0xbcbc5909	-0.022991674
18	0x3b837906	0.00401223
19	0x3dd451c9	0.10367162
20	0xbc4b20e6	-0.01239798
21	0xbdc08a58	-0.09401387
22	0xbe9fe9b0	-0.31232977
23	0x3e00d976	0.12582955
24	0x3de09b2b	0.10967096
25	0xbed447c0	-0.4146099
26	0x3d8f16c7	0.06986766
27	0x3dcedd2a	0.101007774
28	0xbe863478	-0.26211905
29	0x3e6fb5d8	0.23409212
30	0xbdd27e7f	-0.102780335
31	0x3e377f58	0.17919672
32	0x3daf8686	0.0857058
33	0xbc61490a	-0.013750324
34	0xbe675c8e	-0.225939
35	0xbd8b3a8e	-0.06798278
36	0x3e3148f1	0.17312981
37	0xbe8c4030	-0.2739272
38	0xbd621fb6	-0.055206023
39	0x3e3a216c	0.18176812
40	0xbe651d2c	-0.2237441
41	0x3e532830	0.20620799
42	0xbdf00379	-0.11719412
43	0x3dfbc8cb	0.122941576
44	0xbd1d1021	-0.03834546
45	0xbde548c8	-0.111955225
46	0x3e89f197	0.2694213
47	0xbd29e6f3	-0.041480016
48	0xbe52972e	-0.20565483
49	0xbe164119	-0.1467327
50	0xbca276cf	-0.019832043
51	0x3dd0bb32	0.10191955
52	0xbca7010e	-0.020386245
53	0xbd3f7589	-0.04674295
54	0x3e7bdb65	0.24595411
55	0x3e0ff0d8	0.14056718
56	0xbe4bd096	-0.19903788
57	0xbe000bea	-0.12504545
58	0x3e386b14	0.18009597
59	0xbd4fd474	-0.05073972
60	0xbcd20568	-0.025637344
61	0xbe4aa822	-0.197907
62	0xbe9d03a5	-0.30666843
63	0x3d1f72b0	0.038927734

convs.1.lin.weight f4 [256, 64]
0	0x3e11ac58	0.142259
1	0xbf269fd5	-0.65087634
2	0x3e40c5af	0.1882541
3	0xbe8eaaf1	-0.27864793
4	0xbece7612	-0.40324455
5	0x3e9023f7	0.2815244
6	0x3df1307d	0.117768265
7	0xbed67c58	-0.41891742
8	0x3f0ff504	0.5623324
9	0xbd2f0058	-0.042724937
10	0xbe96f1be	-0.2948131
11	0xbdd6850b	-0.10474595
12	0xbee6ff59	-0.4511669
13	0xbea7a13d	-0.32740203
14	0xbda44c6d	-0.080223896
15	0xbe26b58a	-0.16280189
16	0xbe6a779f	-0.22897194
17	0x3cb13cd3	0.021635449
18	0xbe92cbd4	-0.28671134
19	0xbe8c7dd4	-0.2743975
20	0x3e360565	0.17775495
21	0x3e127905	0.14303978
22	0x3e059a41	0.13047124
23	0xbe2e30db	-0.17010824
24	0xbe175baa	-0.14781061
25	0xbea52c09	-0.3226016
26	0xbf25213a	-0.64503825
27	0x3e20bcdf	0.15697049
28	0xbf4a7d52	-0.79097474
29	0xbec312ba	-0.38100225
30	0xbbae21b0	-0.0053140745
31	0xbf091faf	-0.5356397
32	0x3e6ae3de	0.22938487
33	0xbefda1f3	-0.4953762
34	0xbe974eb2	-0.29552227
35	0x3d63d807	0.05562594
36	0x3edc88aa	0.43073016
37	0x3dba863e	0.09107636
38	0xbdbad6d3	-0.09123006
39	0xbe4e7646	-0.20162305
40	0xbe586032	-0.21130446
41	0xbe89d527	-0.26920435
42	0xbe9afb24	-0.3026973
43	0xbd213e90	-0.039366305
44	0xbe781b11	-0.24229075
45	0x3dc2087b	0.09474274
46	0x3e1abe02	0.15111545
47	0xbe86f5d6	-0.26359433
48	0xbc19c153	-0.009384471
49	0xbc4fda88	-0.012686379
50	0xbf183095	-0.5944913
51	0xbf4d33c2	-0.801571
52	0xbded2b8a	-0.1158057
53	0x3ebad5cd	0.36491242
54	0x3eb48d39	0.35263994
55	0x3da07538	0.07834858
56	0x3d3d3077	0.046188798
57	0xbf00ad6b	-0.50264615
58	0xbed94d33	-0.4244171
59	0xbc7211c6	-0.014774745
60	0x3e0ae81a	0.13565102
61	0xbd891d78	-0.06695074
62	0x3ca7784a	0.0204431
63	0xbcf9c840	-0.030490994
64	0x3f586f7c	0.8454511
65	0xbe8d0089	-0.2753947
66	0x3f47f963	0.7811491
67	0xbc1c3772	-0.009534704
68	0x3d015969	0.03157941
69	0x3e0efd90	0.13963914
70	0x3ea6458b	0.32474932
71	0xbf2c06fb	-0.6719815
72	0x3ef525ed	0.47880498
73	0x3de8eb36	0.11372988
74	0x3e422bec	0.18962067
75	0x3df54e8c	0.11977872
76	0x3de415a8	0.11136943
77	0xbd86e7ea	-0.06587203
78	0x3e8794a6	0.26480597
79	0xbd409eed	-0.047026563
80	0x3e57a2a6	0.21058139
81	0x3e685f19	0.22692527
82	0x3e96ff6d	0.2949175
83	0xbde89cfb	-0.11358067
84	0xbdbd80c6	-0.09253077
85	0x3d7eacaf	0.062176403
86	0xbd5dff8a	-0.05419878
87	0x3e845fd9	0.25854376
88	0xbe77a93b	-0.2418565
89	0xbd8a289c	-0.06746027
90	0x3e9b043d	0.3027667
91	0xbe583077	-0.21112238
92	0x3d13d47f	0.036091324
93	0x3dfd97ef	0.12382495
94	0xbe2c1be1	-0.1680751
95	0x3e99e2d0	0.30055857
96	0x3e40cb59	0.18827571
97	0xbe09bce5	-0.13450964
98	0x3c2685ff	0.010163783
99	0xbb2f8ba1	-0.0026786106
100	0xbea22a58	-0.3167293
101	0x3ea4d232	0.32191616
102	0x3e15a908	0.14615262
103	0x3f4a490d	0.79017717
104	0xbda50b1d	-0.0805876
105	0x3ea5eaa2	0.32405573
106	0xbe380d40	-0.17973804
107	0xbe894c14	-0.26815856
108	0x3e338b6e	0.17533657
109	0xbe073b70	-0.13206267
110	0xbd93a0b9	-0.0720839
111	0x3bfd0d7e	0.0077225557
112	0xbda0b167	-0.07846337
113	0xbefb0753	-0.49029025
114	0x3ef47a96	0.47749776
115	0xbf238fc7	-0.6389126
116	0x3f92876d	1.1447579
117	0xbd413f6b	-0.04717962
118	0x3e0d0f49	0.13775362
119	0xbe379ff7	-0.17932115
120	0xbaa07886	-0.001224295
121	0xbef2358f	-0.47306487
122	0xbe4fb5ba	-0.20284167
123	0xbcc10fe3	-0.023567146
124	0xbea42d63	-0.32065877
125	0x3f083a89	0.5321432
126	0xbe5ec528	-0.21754897
127	0x3f02d26c	0.5110233
128	0xbd9cc55a	-0.07654829
129	0xbdc44549	-0.095835276
130	0x3e1fd205	0.1560746
131	0xbd947626	-0.072490975
132	0x3e73340a	0.2375032
133	0x3da3945e	0.07987283
134	0x3c858c6c	0.01630231
135	0xbd2234b0	-0.039601028
136	0xbe6b07e7	-0.22952233
137	0xbe27a16c	-0.16370171
138	0xbe980d5f	-0.296977
139	0xbc192bf7	-0.009348861
140	0xbea5fd28	-0.32419705
141	0xbed94e83	-0.42442712
142	0xbcbb3c07	-0.022855772
143	0xbe7d2e37	-0.24724661
144	0xbf1503dc	-0.58209014
145	0xbf3d50ef	-0.7395162
146	0xbe664edb	-0.22491018
147	0xbea13c5f	-0.31491372
148	0xbf6aaeb7	-0.91672844
149	0xbc152fde	-0.009105651
150	0xbe8ab1a1	-0.27088645
151	0x3e18fc26	0.14939937
152	0x3daa859a	0.08326264
153	0xbf630792	-0.88683426
154	0xbeb42698	-0.35185695
155	0x3d3be332	0.045870967
156	0xbfb33847	-1.400155
157	0xbdf4789a	-0.119370654
158	0xbddacd45	-0.10683683
159	0xbf148c9a	-0.5802704
160	0x3ea2aa2f	0.31770465
161	0x3dbb08b7	0.091325216
162	0x3d5e75e5	0.05431165
163	0xbed9c0d3	-0.42529926
164	0x3f21ffd5	0.63280994
165	0x3dd1eec0	0.10250616
166	0x3f141680	0.5784683
167	0x3eae3996	0.3402831
168	0xbe6643b0	-0.22486758
169	0xbedb4d41	-0.42832378
170	0x3db2b81e	0.08726524
171	0x3e6de2d3	0.23231058
172	0x3f0beedc	0.54661345
173	0xbd54663b	-0.051855307
174	0x3e210a49	0.1572658
175	0xbe65b06c	-0.22430581
176	0xbe4ac813	-0.19802885
177	0x3bb127cb	0.005406355
178	0xbd816a4d	-0.063191034
179	0xbe0cf6e6	-0.1376606
180	0xbe739d35	-0.23790438
181	0x3eccd7ec	0.40008485
182	0xbdb71566	-0.08939628
183	0x3e1fb2ed	0.15595599
184	0x3e0b8426	0.1362463
185	0x3dde054d	0.10840855
186	0xbd8afd60	-0.06786609
187	0x3c2fc57f	0.010728239
188	0xbe8e0078	-0.27734733
189	0xbe4f17c5	-0.20223911
190	0xbd17ea68	-0.03708878
191	0x3e14836c	0.14503258
192	0xbd3ed613	-0.046590876
193	0xbe935688	-0.28776956
194	0xbd3c5ef3	-0.045988988
195	0xbeabcf7e	-0.3355674
196	0xbf031131	-0.51198107
197	0x3c88e74f	0.016711859
198	0xbe80fa66	-0.2519104
199	0x3ea7e354	0.32790625
200	0x3ee21a98	0.44160914
201	0xbee8b938	-0.4545381
202	0xbe01a875	-0.12661918
203	0x3b5e77e3	0.003394597
204	0xbf865d80	-1.0497284
205	0x3d85d10f	0.065340154
206	0xbd18db0e	-0.03731828
207	0x3cfc6ad2	0.030812655
208	0xbd9257e4	-0.0714567
209	0xbf04ea4b	-0.5192
210	0xbd9d1c17	-0.07671373
211	0xbe83a66b	-0.25712904
212	0xbf357f19	-0.7089706
213	0x3dc663a1	0.096869715
214	0xbe818522	-0.25296885
215	0x3e4fbe5f	0.20287465
216	0x3f16aeeb	0.58860654
217	0xbed41ba4	-0.41427338
218	0x3e27ff7c	0.16406053
219	0xbe28f85f	-0.16500996
220	0xbf55e069	-0.8354555
221	0xbf1155ec	-0.5677173
222	0x3d97dec0	0.07415533
223	0xbe90fd4a	-0.28318244
224	0x3e9bdd1f	0.3044214
225	0xbf4747fa	-0.778442
226	0xbea9d35a	-0.3316906
227	0x3e39f451	0.18159606
228	0x3ea8344c	0.328524
229	0xbcf32ac6	-0.029683482
230	0xbe87c730	-0.26519156
231	0x3e97cdff	0.2964935
232	0x3e3a50a1	0.1819482
233	0xbec1fd94	-0.37888777
234	0xbec72b17	-0.38900062
235	0x3e564f62	0.2092872
236	0x3e60fba6	0.21970996
237	0x3e3354d6	0.17512831
238	0x3b74e66e	0.0037368792
239	0xbed77f02	-0.42089087
240	0x3e965ff4	0.2937008
241	0xbedf3bce	-0.43600315
242	0xbe043609	-0.12911238
243	0xbf11f204	-0.5700991
244	0x3e6a4400	0.22877502
245	0x3f333bb5	0.7001298
246	0x3e6afd85	0.22948273
247	0x3e372c03	0.17887883
248	0x3e94c22e	0.29054397
249	0xbec2568b	-0.37956652
250	0xbdeab6ff	-0.11460685
251	0xbdf0bcf5	-0.11754791
252	0xbe26279e	-0.1622605
253	0x3dead068	0.114655316
254	0x3cf9acb8	0.030477867
255	0xbd08d628	-0.03340736

proj.weight f4 [64, 64]
0	0x3e6ab27d	0.2291965
1	0xbd62a63a	-0.055334307
2	0x3d46f724	0.048575535
3	0x3e5fcf8f	0.21856521
4	0xbdc54fc5	-0.096343555
5	0xbe5b8e00	-0.21440887
6	0x3b5c95d2	0.0033658636
7	0x3e789ac3	0.24277787
8	0x3d9987a0	0.074965715
9	0x3cc13173	0.02358315
10	0x3e29e0df	0.16589688
11	0xbe8aade5	-0.27085796
12	0xbe00737e	-0.12544057
13	0xbecfa978	-0.40558982
14	0x3e16d940	0.14731312
15	0x3da11e22	0.078670755
16	0xbb231bb4	-0.0024888339
17	0xbda56267	-0.080754094
18	0x3cd1bd53	0.025602972
19	0x3f12424e	0.5713242
20	0x3eab0384	0.3340112
21	0xbb0e7c2d	-0.0021741495
22	0x3e5a20b6	0.2130154
23	0xbdf22976	-0.11824314
24	0xbd9e6de3	-0.07735803
25	0xbd881622	-0.066448465
26	0x3e00472d	0.12527151
27	0x3ded06a6	0.11573534
28	0x3e7098ff	0.23495863
29	0xbca55a95	-0.020184794
30	0x3f0397f2	0.51403725
31	0xbe844b07	-0.2583849
32	0xbddb401e	-0.10705589
33	0xbe33e2db	-0.17567007
34	0x3e302ee9	0.17205395
35	0x3e04e2b6	0.12977108
36	0x3e1428fe	0.14468762
37	0x3ce3556c	0.027750693
38	0xbd274fdc	-0.040847644
39	0xbca8b39e	-0.02059346
40	0xbcdabadd	-0.026700431
41	0xbd564c09	-0.052318607
42	0xbe354127	-0.17700635
43	0x3d62be64	0.055357352
44	0x3e291d42	0.16515067
45	0x3e41bd8a	0.1891996
46	0x3e9aba5b	0.30220303
47	0x3e288cc7	0.16459952
48	0x3d74b557	0.05974325
49	0x3e2a85de	0.16652629
50	0xbd4ddccc	-0.050259396
51	0x3c9151d8	0.017739221
52	0xbc68ad03	-0.014201405
53	0x3ee08a1b	0.43855366
54	0xbe971ab5	-0.29512563
55	0x3d0900f1	0.033448163
56	0x3e0358c6	0.12826833
57	0xbe25c902	-0.1618996
58	0xbeab14b4	-0.33414233
59	0xbd159500	-0.03651905
60	0xbe29cf37	-0.16582952
61	0xbea1123e	-0.3145923
62	0x3d8d8480	0.06910038
63	0xbdffebde	-0.1249616
64	0x3f12b5be	0.57308567
65	0x3da13cba	0.07872911
66	0x3e40ca3e	0.1882715
67	0x3e0b2bea	0.1359097
68	0xbda1045a	-0.07862158
69	0x3ed33aeb	0.41255888
70	0x3dd7719d	0.10519717
71	0xbf4ad2ac	-0.7922771
72	0xbe84d837	-0.2594621
73	0x3de93253	0.11386552
74	0x3ebd23ee	0.36941475
75	0x3e29f107	0.16595851
76	0x3dffb996	0.124865696
77	0x3e0a4968	0.13504565
78	0x3dabdbfa	0.083915666
79	0xbd6f6f56	-0.058455788
80	0x3bfd3d6a	0.0077282684
81	0x3e917f2d	0.2841734
82	0xbe29f801	-0.16598512
83	0xbdc3036e	-0.095221385
84	0x3d87b10f	0.06625568
85	0x3dd0f504	0.10202983
86	0xbe17350d	-0.14766331
87	0x3dc1ec2d	0.09468875
88	0x3d8bcf3c	0.06826636
89	0x3e0a0956	0.13480124
90	0x3de36d2e	0.11104809
91	0x3df583e0	0.11988044
92	0xbee3c855	-0.4448878
93	0x3e235384	0.15949827
94	0xbe690a4d	-0.22757836
95	0x3d74dfb4	0.059783652
96	0xbdffbfa3	-0.12487724
97	0xbea0b4c7	-0.31387922
98	0x3d6d14a4	0.057881013
99	0x3dce3605	0.10068897
100	0xbe1b2445	-0.15150554
101	0xbdf5503f	-0.11978196
102	0x3d85c73c	0.065321416
103	0x3c3da977	0.011576048
104	0xbdccd2bd	-0.10001133
105	0xbe181828	-0.14852965
106	0xbc68df3b	-0.014213379
107	0xbe4fdccb	-0.2029907
108	0x3d35c040	0.044372797
109	0x3d532773	0.051551294
110	0x3d834299	0.06409187
111	0xbd403269	-0.046923075
112	0xbe6c93bd	-0.23103233
113	0xbc5ad975	-0.01335751
114	0xbef0d28c	-0.47035635
115	0xbe11f970	-0.14255309
116	0x3d074ed5	0.033034164
117	0x3f0cf7c6	0.5506557
118	0x3dc2dfba	0.09515329
119	0xbdb16b41	-0.08663035
120	0x3e425ff6	0.18981919
121	0x3cb13b24	0.021634646
122	0x3d04d9f3	0.032434415
123	0x3d4b5977	0.049645867
124	0x3cc90144	0.024536736
125	0xbdad1942	-0.08452083
126	0xbd49748c	-0.049183413
127	0x3e3e7c22	0.1860204
128	0x3e3e353e	0.18574998
129	0x3e093e24	0.13402611
130	0xbe404065	-0.18774565
131	0xbe81eb6e	-0.2537493
132	0x3daacb4f	0.08339559
133	0xbd82ea8d	-0.06392393
134	0x3d44561c	0.047933683
135	0x3f4732f2	0.7781211
136	0x3e987bee	0.2978205
137	0xbe9d3ef8	-0.30712104
138	0xbe2a59c6	-0.16635808
139	0xbe5b88a7	-0.21438847
140	0x3d814cd6	0.063134834
141	0xbeb187b6	-0.34673852
142	0x3edd396a	0.43207866
143	0xbdea958c	-0.11454305
144	0xbe5878b2	-0.21139792
145	0xbe45fc16	-0.19334444
146	0xbd338417	-0.043827143
147	0xbead5cdd	-0.33859912
148	0x3edda4c7	0.43289778
149	0xbe35c5d9	-0.17751254
150	0x3db20e78	0.08694166
151	0x3e4e3a7b	0.20139496
152	0x3da1b95a	0.07896681
153	0x3dcee12c	0.10101542
154	0x3db0bd4f	0.08629858
155	0x3dd64df6	0.104640886
156	0x3dc79410	0.097450376
157	0x3e3e07ec	0.1855771
158	0x3efea339	0.49733904
159	0xbe82bbba	-0.2553385
160	0xbd00c79f	-0.031440374
161	0xbe93ad58	-0.28843188
162	0xbe1e9bd9	-0.15489139
163	0x3e99641b	0.29959187
164	0xbe81bff3	-0.25341758
165	0xbcc11a9b	-0.023572257
166	0x3de5d5f3	0.11222448
167	0x3eadb47e	0.33926767
168	0xbc61c8ac	-0.013780754
169	0xbe2506d0	-0.1611588
170	0xbe7cd980	-0.24692345
171	0x3e67b7db	0.22628729
172	0x3df2bb0f	0.11852085
173	0xbe0aa1c4	-0.13538271
174	0x3ef5699d	0.4793214
175	0xbed7fa60	-0.42183208
176	0x3da1d76a	0.07902415
177	0x3e40a64b	0.18813436
178	0xbcf32fb7	-0.029685838
179	0x3eb651f7	0.3560941
180	0xbe1ca05a	-0.15295544
181	0xbf3521f4	-0.70754933
182	0xbe9ced26	-0.3064968
183	0x3e93f5ca	0.2889846
184	0xbe12bf1d	-0.14330716
185	0x3e11b9a0	0.14230967
186	0xbcdfba94	-0.027310647
187	0x3db4ca0a	0.088275984
188	0x3ba5c05b	0.005058331
189	0xbe4e6fe2	-0.20159867
190	0x3d605985	0.054772872
191	0xbe709e62	-0.23497918
192	0x3e317de6	0.17333183
193	0x3ce56a7f	0.028004883
194	0xbd931d64	-0.0718334
195	0x3ec0db64	0.37667382
196	0xbd1c8074	-0.03820844
197	0x3ddf6be1	0.10909248
198	0x3d5b0746	0.053473733
199	0xbef3a230	-0.47584677
200	0xbe5eb7a2	-0.21749738
201	0x3e36ad7f	0.17839621
202	0x3cd9f057	0.02660386
203	0x3d02bbb8	0.031917304
204	0x3d2bb8ca	0.041924275
205	0xbe8f3b6a	-0.27975017
206	0xbe35f071	-0.17767502
207	0xbe689c38	-0.22715843
208	0x3d8623cd	0.06549797
209	0x3c24d929	0.010061541
210	0x3d606883	0.05478717
211	0xbdff6e0d	-0.124721624
212	0xbb2e8458	-0.0026629176
213	0xbd08af1c	-0.033370122
214	0xbdd62d5a	-0.10457869
215	0xbddf1971	-0.108935244
216	0xbdb9fa82	-0.09080984
217	0xbdd73a74	-0.10509196
218	0xbdc38cfd	-0.09548376
219	0x3d86a158	0.06573743
220	0xbe2a6c3a	-0.16642848
221	0x3de9d320	0.11417222
222	0x3e1c9807	0.15292369
223	0xbdfc8fd6	-0.12332122
224	0x3e1201bf	0.14258479
225	0xbe67d268	-0.22638857
226	0xbe5ebb03	-0.21751027
227	0x3e279c43	0.16368203
228	0x3e9ce7c7	0.30645582
229	0xbd63544f	-0.055500325
230	0x3e4dccb3	0.20097618
231	0xbce326db	-0.027728489
232	0xbe1351b9	-0.14386643
233	0xbddd7ed5	-0.10815207
234	0xbdead42b	-0.11466249
235	0xbdce8d81	-0.100855835
236	0xbd0c90bc	-0.034317717
237	0x3cbf6e71	0.023368092
238	0x3e922ce6	0.2854988
239	0x3eafc25e	0.34327978
240	0xbea62804	-0.32452404
241	0xbe943baf	-0.28951785
242	0xbf0c1ec5	-0.5473445
243	0xbed6902d	-0.41906872
244	0xbd42f3dd	-0.047595847
245	0x3e96f683	0.2948495
246	0x3e5440bb	0.20727818
247	0xbe391742	-0.18075278
248	0x3e2fd069	0.17169346
249	0x3cab265e	0.020892318
250	0x3a5c20c3	0.0008397216
251	0x3d651c5d	0.055935252
252	0x3e1b1d70	0.15147948
253	0xbe28d3a0	-0.16486979
254	0xbeaf5a1c	-0.34248435
255	0x3dc07955	0.09398142
