checkpoints/curve50_gcn.pt (torch, 54320 bytes, 7 tensors)

convs.0.bias f4 [64]
00000000: a360 783e b59e 40bd 90c2 f03b 0000 0000
00000010: 0000 0000 b8b0 a3bd d902 65bd 03f2 4c3e
00000020: d211 6fbd ad01 95be 7bba 4f3d 036d 15bd
00000030: 0000 0000 2224 953d 076d babd 146e 853e
00000040: 6bc4 26be 0000 0000 dea5 77bd 6344 b8be
00000050: e1b2 38bd 0000 0000 f93c d7bd 0000 0000
00000060: 4866 733e e01c b03c 89b6 a0be 47ef 95bd
00000070: 95ff 2bbe b64c 6c3e 759f 1a3e 0000 0000
00000080: 820c 49be 0000 0000 181c 08bc 729d 15be
00000090: 0000 0000 dd5e 7bbe 0000 0000 0000 0000
000000a0: 0b17 d5bc ac67 49be 0000 0000 a68f 9abe
000000b0: eca2 ad3d a274 da3d 6134 0cbe 0000 0000
000000c0: 8d73 b9bd c5a9 453d 0000 0000 0e71 163e
000000d0: 9fd3 75be 182d c23d 0000 0000 0000 0000
000000e0: 3b4a 213d 0000 0000 0000 0000 f3ff cd3d
000000f0: b0e8 1d3e 0000 0000 0000 0000 0000 0000
0.24255614 -0.047026355 0.0073474124 0.0 0.0 -0.07992691 -0.05591092 0.20014195
-0.058366604 -0.2910284 0.05071495 -0.036480915 0.0 0.072822824 -0.091028266 0.26060545
-0.16285865 0.0 -0.060460918 -0.35989675 -0.045092467 0.0 -0.105096765 0.0
0.23769486 0.021498144 -0.31389263 -0.07321029 -0.16796716 0.23076138 0.1509989 0.0
-0.19633678 0.0 -0.008307479 -0.14610842 0.0 -0.24547906 0.0 0.0
-0.026011964 -0.19668454 0.0 -0.3018772 0.084783405 0.10666777 -0.13691856 0.0
-0.09055243 0.048257608 0.0 0.14691564 -0.24006508 0.09481257 0.0 0.0
0.039377432 0.0 0.0 0.10058584 0.15420794 0.0 0.0 0.0

convs.0.lin.weight f4 [64, 2]
00000000: 7ac0 603e 575a b0be b555 033f 2bd0 42bd
00000010: 1b0c 6fbf 5576 053e 8ee6 a9bd b8b3 ecbd
00000020: 2224 80be ed78 99be ba12 563d dbc9 41be
00000030: 3c2d 773d f963 9cbe 8e20 933e d182 babe
00000040: c552 9fbd f782 fc3b 6155 c13d bec1 853e
00000050: 19d7 de3e 8854 09bf 958c 273d e2ab 2dbe
00000060: 1056 07bd 3418 67be 1f93 ac3e 8f75 03bf
00000070: 3518 593d 7ba6 61bd b09b 743e b095 bdbe
00000080: 5e8c c43d a712 2dbe 88de 1e3d ec0a 88be
00000090: 479f 113d 6bb6 26be 506c 6dbd 897b cf3e
000000a0: b192 2c3d 7d6c 57be e944 1cbe 60e9 6bbc
000000b0: c303 703d f03e 46be e429 30be f474 d3bd
000000c0: 79b3 eebe d6af 88be 6cdb fa3e f071 e0be
000000d0: c0fb c23d 2e8b ea3d af2f 343d 9d0d f9bd
000000e0: 5505 ce3e 0e8c 5dbc 11bd 5c3e 2189 adbe
000000f0: 8f9a 55be c4b3 6ebe 882a 5abd a403 b8bd
00000100: 7c2d 3f3e 649e 203e 8085 f4bc 5841 8abd
00000110: 9510 80bb 2c83 d7bc 7ab1 b03c e648 37bd
00000120: 0836 8cbe 0ae1 e3bd 910d d03e e490 723c
00000130: a0b3 75bc 4e25 3abe b4e4 3cbe 6f48 8abe
00000140: 4e75 9bbe 5863 6c3b 981a b93e a790 c6bb
00000150: 3375 88be 52ab 39be ad97 f33c 40f1 a93e
00000160: 99c5 68bd 0589 64be 3d52 743e 6682 94be
00000170: fb38 72bf dc23 5b3e 5a63 0cbe 1493 77bd
00000180: 511d 80bf 8413 80bc 4cee 883e d2ef 80bd
00000190: 2148 57be 905b 98be 6b6e 8bbf 4851 5f3e
000001a0: 10e4 693e 7da2 ce3d dfa0 943e 7d8a 5bbe
000001b0: 8080 41bb efcd 6abe 6043 84be b164 90be
000001c0: 5a89 933e e38a cfbe 888b 78bd 96af 31be
000001d0: 5c0b 61bd ae4e 59be 204b febe 4d79 3bbe
000001e0: 3685 babe 14bd 45be 1019 c6bd b57c 62be
000001f0: 80e6 59bd 24aa 15be e0ea bcbd 94f6 92be
0.21948424 -0.34443924 0.51302654 -0.047561806 -0.93377846 0.13033421 -0.08295928 -0.11557716
-0.25027567 -0.29975072 0.052263953 -0.18924658 0.060345873 -0.30545023 0.28735775 -0.3642793
-0.07779459 0.007706042 0.09440113 0.26124376 0.4352348 -0.5364461 0.040905554 -0.169601
-0.03304106 -0.22567827 0.33705994 -0.51351255 0.0530016 -0.05509041 0.23887515 -0.37028265
0.095970854 -0.16901647 0.03878644 -0.26570833 0.03555229 -0.16280524 -0.057964623 0.40523937
0.042132083 -0.21037479 -0.15260662 -0.014398903 0.058597337 -0.19359946 -0.1720348 -0.103250414
-0.46621302 -0.26696652 0.4899553 -0.43836927 0.09520674 0.11452328 0.043990787 -0.121608
0.40238443 -0.013522161 0.21556498 -0.33893684 -0.2085974 -0.23310763 -0.053263217 -0.089850694
0.18669695 0.15685421 -0.029848814 -0.067507446 -0.0039082267 -0.026307665 0.021569002 -0.044747256
-0.27384973 -0.11126907 0.4063535 0.014805052 -0.014996439 -0.18178293 -0.18446618 -0.27008387
-0.30362934 0.0036069956 0.36153102 -0.0060597244 -0.26651916 -0.1813176 0.02973541 0.33191872
-0.05682907 -0.22317894 0.23859496 -0.29005736 -0.94618195 0.21400398 -0.13709775 -0.060443
-1.0008947 -0.015634306 0.26744306 -0.06295742 -0.21023609 -0.29757357 -1.0893072 0.2180835
0.22840905 0.10089586 0.29028985 -0.21439548 -0.0029526055 -0.2293012 -0.25832653 -0.2820182
0.28815728 -0.4053565 -0.060679942 -0.17352137 -0.054942474 -0.2122142 -0.4966669 -0.18307991
-0.36429757 -0.19310409 -0.09672749 -0.22117884 -0.053198338 -0.14615685 -0.09224486 -0.2870375

convs.1.bias f4 [64]
00000000: 9c22 9ebd 726a 803e 0dad af3d af59 9bbd
00000010: 6757 e2bc 0dde d6bd c08a a9bd 4331 11bd
00000020: a8a9 293e 697b 53be 5e64 e7bd 0c2a 87bd
00000030: a6ed 24be b188 473e 79d7 aebd d6c1 90bd
00000040: a6fc 92bd 4c4e d2bd 145d 7a3e f6f6 eebd
00000050: 02ba d93d d1b1 ccbd 20a0 6e3c 44b8 663e
00000060: 1543 613c d286 c1bd 5d84 eebb 3aff 6cbd
00000070: 3983 a3bd 6413 2a3e 7c9f 063e 76e1 8d3d
00000080: 2262 813e 5880 ffbc b88a dabd cc38 b63d
00000090: 2887 e9bd f32e c9bd aca3 cbbd 7297 9c3e
000000a0: e047 ffbd ec99 cabd 929b cabc 0324 b63e
000000b0: 95be 35bd a914 aebd 11c8 9ebd ca86 783d
000000c0: e5be 4cbe 6ed1 283e 773b debd 8813 823c
000000d0: 39ad afbd 71b0 dcbd fffd 87bd 8d97 50bc
000000e0: 72c3 a1bc 60a2 873e 7e26 07be ad51 d2bd
000000f0: 2a11 853e 0e99 cb3c e074 2ebe 7f98 f7bd
-0.07721445 0.2508121 0.08577929 -0.07585465 -0.027629567 -0.104915716 -0.082784176 -0.03544737
0.16568625 -0.20652546 -0.112984404 -0.06599817 -0.1610628 0.19485737 -0.08537192 -0.07068221
-0.07177095 -0.1026884 0.24449569 -0.11668198 0.10631181 -0.09994853 0.014564544 0.2253123
0.013748904 -0.09449543 -0.0072789625 -0.05786059 -0.07984013 0.1660896 0.13146776 0.06927769
0.25270182 -0.031189129 -0.1067099 0.08897552 -0.11402732 -0.09823408 -0.09943327 0.30584294
-0.12464881 -0.098926395 -0.024732385 0.3557435 -0.044371206 -0.08500034 -0.077530034 0.06067542
-0.19994695 0.16486141 -0.10851186 0.015878454 -0.085779615 -0.10775841 -0.06640243 -0.012731445
-0.019746516 0.2649107 -0.13198277 -0.10269485 0.25989658 0.024853256 -0.17036772 -0.12089633

convs.1.lin.weight f4 [64, 64]
00000000: d2be cbbc 8357 363d 875f 6cbb 66d2 20be
00000010: 869e b33d f761 c03d d6e8 e6bd 2030 30be
00000020: 35a9 32be b4f9 fcbd ea7e 13bd 489d 843c
00000030: 8027 c8ba 67ed a5bd d21b d63d d4cc 1cbd
00000040: 1bbe 1abe bcb1 6abd abcd 0dbe 43c0 f5bd
00000050: 0c22 51be dcf3 1a3d f8d0 34be 667e ab3d
00000060: 3d72 e43d 3cee 24be b274 3abe de2c 2fbe
00000070: 2db4 08bc 3a44 11bc fdfc 05be 1ded 053e
00000080: 2492 9e3c 1651 48be b0f3 40bc 1cb6 03be
00000090: 9cc3 19bd 0ed6 603d 68c5 bebc b5f9 19be
000000a0: 5c0e e63d 6ea5 6abe a847 98bd 0eaa 2d3c
000000b0: df75 2c3e a9f2 eb3d 97e6 72bd 76f6 933d
000000c0: 0327 5bbe f35e c0bd 8cec 89bd c4ed c63c
000000d0: 769f 1ebe bb09 d8bb 1a14 e53d 83c8 2c3e
000000e0: 76b5 94bd 7d8c 4a3e 4277 51be cc17 c9bd
000000f0: 2010 363d cc66 633d ead0 d03d c41d 13be
00000100: b830 81bf 9013 2dbe 0894 e8bd d03d 71bc
00000110: b162 57be 7eed 4fbe 24bc 30be e386 58bf
00000120: 6884 023d 4898 18bb ec6d 5fbe e583 32be
00000130: 1663 51be e792 ccbe 6460 78be ed4a 55bf
00000140: 3516 79be a463 6fbd e9d2 89be 55d5 cf3d
00000150: b2d7 4ebc adee 16be b63d 043e 0de0 3a3e
00000160: a533 eebd 5769 703d 134a aebc 2945 82bd
00000170: bb1e 0fbe a958 34bf c9d5 4f3e ef67 083e
00000180: 78af 183d 7aeb 06be b0a9 5bbe 2f48 663c
00000190: fec2 26be 55a5 c0bd a01a 0ebe e630 5bbe
000001a0: 0357 2dbe e60f 9d3c f6ad f73d fe3b d93d
000001b0: 85a1 31bc c05b 8ebf 6802 a1bd 208f 8a3b
000001c0: 158f 71bd 3604 dfbd c016 0ebe 4376 f1bd
000001d0: 41d6 d5bd ee25 79bf 37b8 213e 07e6 1dbe
000001e0: 5494 023e 82e5 08be 10c7 c4bc ff2e 24bd
000001f0: 34f2 bfbd c526 56be 5269 a4bd 3885 ed3c
00000200: ed51 8cbe 2c43 65bf c0cd 5ebd b763 243e
00000210: 2aaa 05be de6e 2a3d 2701 143e abf6 4dbe
00000220: e5b5 44be c1ed 3ebf 8bdc 94be 7eea 833d
00000230: 6464 b8bd eecf 11bd cf35 dcbc edd9 5dbe
00000240: 65ee 58be 4b1a 53be 1b27 debd 9988 b2bc
00000250: bc46 70be 9801 89bc b00f 153e cc1b 7dbd
00000260: 2bc4 cabd b9fd bfbd a0d1 75bf c33a 8b3d
00000270: 683a 10bf bb85 bebe 086f 70be 90d0 e1bc
00000280: 61c9 43bf 8ab3 f73d a102 02be 7adf 3cbe
00000290: 4b5e 20be 70a8 76bf 43e1 d7bd a51a 2f3e
000002a0: 854a 1abe 71f0 68bf 92bb 34be d96c a3be
000002b0: 9389 e23d f3f8 0ebf f6e9 b9bd 02d8 953d
000002c0: c8d4 b2bd 40cb 2bbe 847e 4b3d fc01 2a3e
000002d0: eeb5 88bf 04dc a4bc 55f1 253e 1af8 d33d
000002e0: f3c0 ce3e 7d79 14be fa7b 14be 385b fdbb
000002f0: 13f3 193d 7f12 483e 38ed e6bc 7805 23bd
00000300: 4807 1abd 3d10 01be 289e 7b3d 472b e2bd
00000310: 687b 91bd d35d 27bd 4450 ec3d a6c6 65be
00000320: f16f 93bd dd45 823d ea10 433d bd8f 273e
00000330: 5e32 96bd 5c51 2bbe 2398 59be 7e71 63be
00000340: dae8 97be eabc db3d 1832 2a3d 2671 aebe
00000350: 596a 483e 5479 7c3d 2673 a33d 80d4 babd
00000360: c1d0 903d b518 1dbe 2a32 113e 703a e1bc
00000370: 2fe3 c9bc 8f83 2ebe a1c9 c83d 7def 39be
00000380: 5a06 4dbe 4c5d 6fbd 6892 04be 7b52 1dbe
00000390: e8d7 78bd af67 87bd a35d 1d3e 20ba 11bd
000003a0: 3ccf 153e 00e6 59be 8045 e4bd c1f8 a8bd
000003b0: 4622 6dbd 1ca9 7cbd c8e6 813d 46d1 973d
000003c0: ea65 81be 0b22 20be 782d 30bd e4e8 bbbe
000003d0: 18db 033d ac02 b73b fe37 dc3d 007b 8cbb
000003e0: 58df 823b cda4 cfbd a809 c5bc 9d6e 5a3d
000003f0: 4176 8fbe 7ce0 0d3d fbaa 22be 3082 72bd
-0.024871264 0.04451705 -0.003606768 -0.1570526 0.0877047 0.09393685 -0.11274879 -0.17205858
-0.1744736 -0.123523146 -0.036009707 0.016188279 -0.0015270561 -0.081019215 0.10454525 -0.038281277
-0.15111582 -0.057298407 -0.13847987 -0.11999562 -0.20423144 0.03783022 -0.1765784 0.08373718
0.11154602 -0.16106504 -0.18208578 -0.17106959 -0.0083437385 -0.008866364 -0.13084789 0.13078733
0.019356795 -0.19562182 -0.01177685 -0.12862438 -0.037540063 0.05489164 -0.02328749 -0.15036662
0.112332076 -0.22914669 -0.07435542 0.010599626 0.16841839 0.11520893 -0.05930194 0.07224743
-0.214016 -0.0939311 -0.06734571 0.024283297 -0.15490517 -0.006592957 0.11185475 0.16873364
-0.072611734 0.19780155 -0.2045565 -0.09818992 0.04444897 0.055517957 0.10196097 -0.14366823
-1.0092993 -0.16901994 -0.1135636 -0.01472421 -0.21033742 -0.2030544 -0.1725927 -0.8458082
0.031864554 -0.0023284126 -0.21819276 -0.17433126 -0.20447955 -0.39955828 -0.2425552 -0.8331745
-0.24324878 -0.058444634 -0.26918724 0.10148112 -0.012624668 -0.14739485 0.12914166 0.18249531
-0.11630944 0.05869421 -0.021275556 -0.063608475 -0.13976566 -0.70447785 0.20296396 0.13320898
0.037276715 -0.13175765 -0.2145145 0.014055296 -0.16285321 -0.094065346 -0.13877344 -0.21405372
-0.16927724 0.01917262 0.12093727 0.10607146 -0.010841732 -1.112175 -0.07861787 0.0042284876
-0.058974344 -0.10889475 -0.13875866 -0.11790135 -0.10441256 -0.973235 0.15792929 -0.1541978
0.12751895 -0.133688 -0.024020702 -0.04008388 -0.093723685 -0.20913227 -0.08027901 0.028994188
-0.27406254 -0.8955562 -0.054395437 0.16053663 -0.13053194 0.041609637 0.14453565 -0.20113628
-0.19210012 -0.74581534 -0.2907451 0.0644121 -0.09003523 -0.035598688 -0.026881127 -0.21665163
-0.2118469 -0.20615499 -0.108473025 -0.02179365 -0.23464483 -0.016724393 0.14556766 -0.061794087
-0.09900697 -0.09374566 -0.9602299 0.06798317 -0.5633912 -0.37211403 -0.23479855 -0.02756527
-0.76479155 0.12094791 -0.12696315 -0.18444625 -0.1566097 -0.96350765 -0.10541012 0.17100008
-0.1506749 -0.90991884 -0.17649677 -0.31918982 0.110613964 -0.55848616 -0.09077828 0.07316591
-0.08731991 -0.16776752 0.0496812 0.1660232 -1.068052 -0.020124443 0.16205342 0.10350056
0.40381584 -0.14499469 -0.14500418 -0.0077318214 0.03758533 0.19538306 -0.028189287 -0.039800137
-0.0376046 -0.1260385 0.061430126 -0.11043411 -0.07103616 -0.040860962 0.11538747 -0.2243906
-0.071990855 0.063609816 0.047623552 0.16363426 -0.073338255 -0.16730255 -0.21249442 -0.22211263
-0.2966984 0.10729392 0.04155168 -0.340707 0.19571818 0.061639145 0.07980947 -0.091225624
0.07071067 -0.15341456 0.14179292 -0.027493685 -0.024644462 -0.17042373 0.09804083 -0.18157764
-0.20021954 -0.058438584 -0.12946475 -0.15363495 -0.06075278 -0.06611573 0.15367751 -0.035577893
0.14629835 -0.21279144 -0.111460686 -0.08250571 -0.057894014 -0.061684713 0.06342846 0.074129626
-0.25273067 -0.15637986 -0.043012112 -0.3670112 0.032191366 0.0055850353 0.10752867 -0.0042871237
0.00399391 -0.10138855 -0.024052456 0.053328145 -0.28019908 0.034637913 -0.15885536 -0.059206188

proj.weight f4 [64, 64]
00000000: 95d5 1ebd 674b 663d 610d 1a3e 1531 433d
00000010: d200 8bbe 21db 49be 19b4 b8bd 6464 003f
00000020: 3986 5abe 573f 63be af78 013b 1740 52bd
00000030: 1c3d a53d 9d57 12be 8534 f93b cfc0 47bd
00000040: 42c7 123e a803 efbd 2feb 2fbe 23b3 183d
00000050: 0bbe fbbd c5a0 8abc 7b9e 68be a2c3 8dbd
00000060: ea92 5ebd 877a 233d e9ed 7abb bebf 89be
00000070: 3371 703d c2f2 113e c8ae 3fbe 5403 773e
00000080: 97fe abbd 8c91 913e 0587 813c 441e 10be
00000090: 367c e43c 5819 873d 5b47 843d a8e4 39be
000000a0: 1d85 37bc 92b6 db3c 698f 273d 2a11 a83e
000000b0: 2857 b4bd 1895 70bd a000 cf3d 7221 8abe
000000c0: 35a9 6c3e 5167 a03d 1232 1d3e 9248 9bbb
000000d0: 53e8 cd3d bd79 383e 0fb6 143d 1ba9 49be
000000e0: 3bd8 6f3d 78a9 7c3d e157 513c e37a 823d
000000f0: 3987 0abe 6bb2 42bd 843d 15be 3a91 fb3d
00000100: 974a efba ca7c 4c3e ace5 5b3c 3f99 1fbe
00000110: 44ac b03e b6e3 343d 99b9 773c 39c6 0cbe
00000120: 55d0 533e ec78 ff3d 0042 cfbd 1c66 b03b
00000130: 0c3b 97be 1826 5abe b037 31bd 1708 b8bc
00000140: 57ef 963d 8d0b 443d 4ee0 f7be 93b6 a1bd
00000150: 409c f13d b381 963a 7951 72bd d147 c63d
00000160: cdb7 41bd 72e3 72bd 1f9f 663e c987 89be
00000170: b18b 02bd 2905 07be a7af 81bc 35da 4dbe
00000180: 9867 3ebd 26f8 11be 5459 bfbd 5ec8 96bb
00000190: d1e9 e1bd 0000 10bd 1d80 df3d 919d 99be
000001a0: 13f5 813d 8728 bcbd ecc5 4dbe 2bb6 e2bd
000001b0: abcc e1bc b8a9 013d 1538 16be e118 e5b9
000001c0: 8d16 b83e 5b08 7d3e 5a1c f83d 43f4 99bd
000001d0: ae1e 253d 6140 393e 78e0 b63d 99d2 3ebe
000001e0: 3a90 35bd a8ed 863d 9142 19bd 416e aabd
000001f0: 4ab7 56be dcb4 57bd 3367 d83d 2e6c db3d
00000200: 6bee bf3c e348 8ebe fe33 c0bd 5ce2 b9bd
00000210: 0a75 24be 8aa3 263d f7bf eebb 3a7b 7dbc
00000220: 5a35 9d3c 0b1f 763e 2598 aabc 877c 0b3e
00000230: c9e7 873d 756e dcbd 59d3 3b3e 679a ec3d
00000240: 48fe 913c c4cf 5c3e 2593 40bc b270 6a3d
00000250: 2da7 c03e 1c24 1a3d e756 143e c84e 8dbd
00000260: 64aa 373c 92ec cebd 1827 03bd 9472 213e
00000270: 2662 dd3b 5c1e 533e fea6 56be 9cc1 683c
00000280: 8ec4 72bd 467a 413c 39c1 a2bd f0ed 2ebd
00000290: f3c3 12be c287 0d3e 1adb 5dbd 4388 ab3e
000002a0: 840f 1fbe 7a2b 10be c141 2fbe 72bd bcbe
000002b0: 7c64 b33d 586f d23d eb65 c93d 9a6a 01be
000002c0: 050d 133e 9389 b9be 9ebf b2bb 2324 a83e
000002d0: 7f91 263d 2562 81bd bd81 07bd eeb3 ac3e
000002e0: 7efd 293f c9d5 b4be 4729 583c 4d4c 81bd
000002f0: 4529 67be 9ba2 413e 004b a63d 0114 ad3c
00000300: 1175 4f3d b4f2 1c3e 07d6 aabd 4821 3d3d
00000310: c9c4 593e 9c00 f4bd a1fa aabd ee8c 09bf
00000320: 9e03 563e e01d c5bd 7d4e 7abd 62bb 30bd
00000330: ed25 89be b06d 4e3d 9e89 433d 273c 103e
00000340: f3cd 3abe 766f 7bbd 29da 3ebb 42a6 e7bd
00000350: 0f9c 1ebd 73e9 bfbd a0c9 533e 8739 003d
00000360: 5eae 763d 0dbe 8cbd 2a14 bebc a354 123c
00000370: dc11 973d 87a9 4b3e 55b4 693e 16a7 09be
00000380: 10a8 43be ea3a a5bd 4691 6dbd 6110 3e3d
00000390: 429e dfbd 39c1 fb3d 46ba 92bc aa5f d13d
000003a0: 1772 87bd 3c6e ef3d d2e7 76bd 26d3 5abe
000003b0: 4981 08be 7093 dd3d d655 3f3d d034 18be
000003c0: 5a6b d8bd 39af 013d 3831 d2bd 9adf cb3c
000003d0: 9de2 eb3d ebe5 063d 5d6c 3b3d 7bd0 6a3e
000003e0: add4 573e 15d0 2a3c baf1 8f3d ad5f 92bd
000003f0: 9cb2 cbbc 26c1 0bbe 8008 fc3d 0818 13bb
-0.038777906 0.056224253 0.15044166 0.04765423 -0.27149063 -0.19712497 -0.09018726 0.50153184
-0.21340264 -0.22192131 0.001975577 -0.051330652 0.08068296 -0.14291234 0.007605138 -0.04876786
0.14333823 -0.11670619 -0.17179559 0.037280213 -0.12292107 -0.016922364 -0.22716706 -0.069220796
-0.054339327 0.039911773 -0.0038288778 -0.269041 0.058701705 0.14252761 -0.18719018 0.24122363
-0.083981685 0.28431356 0.015811453 -0.14074045 0.02789126 0.06596631 0.064589225 -0.18153632
-0.01120117 0.026820455 0.04090825 0.32825595 -0.08805686 -0.058735937 0.10107541 -0.26978642
0.23111422 0.07832206 0.15351132 -0.0047388757 0.10054078 0.1801519 0.036306437 -0.19693415
0.058555823 0.061685055 0.0127773 0.06371095 -0.13528146 -0.047533434 -0.14574248 0.12283559
-0.0018256482 0.19969478 0.013421457 -0.15585802 0.34506428 0.044162475 0.0151199335 -0.13747491
0.20684941 0.12474236 -0.101200104 0.005383266 -0.29537237 -0.21303594 -0.043266 -0.022464795
0.07369869 0.04786258 -0.48413318 -0.078961514 0.117973804 0.0011482745 -0.05915973 0.09681667
-0.047294427 -0.05929894 0.22521637 -0.26861408 -0.0318715 -0.13185562 -0.015830828 -0.2010277
-0.046485513 -0.14254817 -0.0934321 -0.0046015223 -0.11030925 -0.03515625 0.109131075 -0.30003026
0.06345572 -0.091874175 -0.20095032 -0.11069902 -0.027563414 0.031655997 -0.14669831 -0.0004369682
0.35954705 0.24710219 0.12114783 -0.07517292 0.04031246 0.18090965 0.08929533 -0.18635024
-0.044327 0.06588298 -0.037417 -0.083218105 -0.20968357 -0.052662715 0.10566559 0.10713993
0.023429116 -0.27789983 -0.09384917 -0.09076378 -0.16060272 0.040683307 -0.0072860676 -0.015471274
0.01919048 0.2403528 -0.020824501 0.13621722 0.066360064 -0.107632555 0.18342341 0.115528874
0.017821446 0.21563631 -0.011753832 0.05723638 0.37627545 0.037632093 0.14486276 -0.06899792
0.011210058 -0.10103716 -0.032019705 0.15766364 0.006756085 0.2061705 -0.2096214 0.014206316
-0.05926948 0.011808937 -0.079470105 -0.042707384 -0.14332561 0.13821319 -0.05416403 0.33502397
-0.15533262 -0.14079085 -0.17114927 -0.36863285 0.087594 0.102751434 0.098338924 -0.12638322
0.14360435 -0.36237773 -0.0054549715 0.3284007 0.0406661 -0.06317548 -0.033082712 0.33731025
0.66402423 -0.35319355 0.013193435 -0.06313381 -0.22574337 0.18909685 0.08119774 0.021127703
0.050648753 0.15326959 -0.08341604 0.046174318 0.21266474 -0.11914179 -0.08348585 -0.53730667
0.20899817 -0.09624839 -0.06111001 -0.043147452 -0.26786748 0.050397575 0.047738664 0.14085446
-0.18242626 -0.061385594 -0.0029121733 -0.11311008 -0.038723048 -0.09370699 0.20682383 0.031304862
0.060224883 -0.06872187 -0.023202974 0.008931312 0.07376453 0.19888888 0.22822697 -0.13442644
-0.1910708 -0.080678776 -0.05799987 0.04640234 -0.10918857 0.12292714 -0.017911088 0.102233246
-0.06613558 0.116909474 -0.060279675 -0.21369609 -0.13330568 0.10819137 0.04671272 -0.14863896
-0.10567351 0.031661246 -0.10263294 0.024886895 0.115178324 0.03293411 0.04575764 0.22931091
0.21077223 0.010425587 0.070285276 -0.07147155 -0.024865441 -0.13647899 0.12306309 -0.0022444744

proj.bias f4 [64]
00000000: 81f6 a53c a096 363d d1bd 0b3d 0b93 87bb
00000010: 85fc d3bc 8689 47bd 5545 07bd 7cdb 5bbd
00000020: 9748 92bd 27ba 063c f51c 81bd 27b4 c6bd
00000030: 8b89 10bc 8fe9 2e3e fffa 48bd 70e3 633d
00000040: d665 0cba 0fb9 32bc acae 8abe 57a4 ea3b
00000050: 1dbd 57be ab1b dcbc ce23 fbbb 5b80 76bc
00000060: 61f1 29bd a356 943d bb45 c03d 5923 16be
00000070: ebe9 68bc 57d4 74bd bcad 1b3e ed3c 3dbd
00000080: 4f83 023b b76e 09bb 4e71 32bb a7c1 4b3c
00000090: c1d4 953c f27d 003d bc9a 44bd aaac e2b9
000000a0: e036 0cbd 56d9 04bc e9ce 103d e965 b2bd
000000b0: be13 5abd 75bc 823d 4391 1a3b 8321 23bc
000000c0: 822f 233c d4ed a7bc 985a b8bd 6a20 623c
000000d0: 34b9 1abd 7659 dfbc fef1 06bc 3425 b1bc
000000e0: d0e3 4b3d 3601 23be 6592 82bd e317 8abc
000000f0: 4269 4dbc 44cd d3bc 459e d13c 2825 ea3c
0.020259144 0.04457724 0.03411657 -0.004137402 -0.025877247 -0.048715137 -0.033025105 -0.053676113
-0.07142752 0.008223093 -0.06304351 -0.0970233 -0.008821855 0.17081283 -0.049067494 0.055636823
-0.0005355751 -0.010908379 -0.2708639 0.007160704 -0.21068235 -0.026868662 -0.0076641804 -0.015045251
-0.041489962 0.07243087 0.093883 -0.14661922 -0.014215927 -0.059772816 0.15202993 -0.04620068
0.0019914692 -0.0020970532 -0.002722818 0.012436307 0.018289926 0.03137011 -0.04799913 -0.00043234724
-0.03423202 -0.008108458 0.035353575 -0.08710844 -0.053241484 0.063836016 0.0023585118 -0.00995672
0.009960057 -0.020499147 -0.090016544 0.013801673 -0.03777428 -0.027264338 -0.008236406 -0.021624185
0.049777806 -0.1591843 -0.06375579 -0.016857093 -0.012537302 -0.025854714 0.025588164 0.02858217

scorer.bilin.weight f4 [1, 64, 64]
00000000: c1d4 293e 3bff 883e a069 29bd 54a7 07bd
00000010: 777d 143d 6518 b1bd 64ee 11be 2503 7c3c
00000020: d526 27be 2513 ba3c 3113 bfbe 7edc 01be
00000030: 8c52 60bd 6f7e ccbd f6d3 19be b879 a63e
00000040: 5e60 e83d 1231 01be 0b05 203d 5be7 94bd
00000050: 2f7c f9bd ce92 273c 47ba 093e 5a2f f0ba
00000060: 145d 02be a441 623d ff29 903e f27e 0bbe
00000070: 5260 3b3e d113 aabd df38 8c3e 2d19 9abd
00000080: 4c3c 0fbe 3795 b13d d14f d33d 3440 fabd
00000090: 448c e4bd bd98 d33d 910e 4ebe b37c d2bd
000000a0: 944d 1a3e d1d1 41bd 03f5 b3bc b5c8 68be
000000b0: 1e0f a3be e761 533e 20ca 7e3e f106 0f3e
000000c0: 4cd8 cabc dc26 9f3d 0685 d73d 8154 203c
000000d0: 6a14 c33d 3a84 ccbd 0ebc 253e d5eb 53bc
000000e0: b5c4 ab3d b5f2 6bbe cfad b9bd d216 243e
000000f0: c777 91bd 20ff 09bd 3376 aebb ee1e babd
00000100: faf4 0fbe 004a 6b3e 2f9a acbd 2dec c5bd
00000110: 7c6c 883c e5d3 17bd ca1e eabd b938 d8bd
00000120: 001b 52be c2a3 cc3d 0b45 a7be e54c 1ebb
00000130: 30c6 603e 7959 04bb ccad d3bd 501c 0e3e
00000140: e6f0 5a3e 2f88 b4bd 2dc5 1c3e 48f3 46be
00000150: 0383 a4bd 6e27 583d e21e 083e a9ef 823c
00000160: ec89 f83c 1057 8fbd e62a 713c 3962 af3b
00000170: 0a53 a23e 0561 47be 340a 113c b226 9fbd
00000180: 9025 61bd ab81 013e 3011 6a3e 8f34 0a3b
00000190: 43d0 e03d b3ee 873c aac3 bb3d 3b7c c8bc
000001a0: 41f3 00bc 458c 3a3e d8af d2be acb3 8fbe
000001b0: ac70 b7bd 55d2 1b3e 6101 533e 9b05 b33d
000001c0: d0b5 49be 806d ad3b 7b44 a4bd 96d9 bcbd
000001d0: ff22 f53c ace5 63bd 1b29 7d3d b9aa b9be
000001e0: 78b6 823d 5ad9 343c 9808 38bd 1af5 b63d
000001f0: c5bc b5bc 49e0 b93e 0ab8 f9bd 2ffa 603e
00000200: b240 28be da5b 80be 95b5 b13e 2a5d dc3d
00000210: 403c f13d 065b 9dbc 7928 583e f523 f7bd
00000220: b199 55be 4821 3abe 0a09 6a3e 27cc 09bc
00000230: 8a69 b1bc d96f 6abd 50eb b6bd 07c3 313d
00000240: bd05 1dbb 389f 503e 59cb 393e 0460 ca3d
00000250: 4eaf 3f3e 09d8 143d fa58 ea3d 3b40 bfbc
00000260: 2454 8fbc 28b9 03bd 7279 713e 1d72 23be
00000270: 67d7 0bbe 4a47 823d 5d40 423d 0159 a8bd
00000280: 0c7c 553c c4ab ccbc 9c76 db3b 9555 acbe
00000290: 9d8a 8fbd 73a5 303e 1648 8a3d 07f0 7abd
000002a0: 60f9 c6bd 3441 913d b6f1 fb3d 0541 663e
000002b0: e5e5 033d b5d0 3bbe b1d6 dabc 5764 43be
000002c0: 6399 4ebd e4fb c1bd 6977 1c3d 8889 2f3e
000002d0: b1a6 3ebe d5e5 833d 2bc9 b63c 375b f43c
000002e0: 0688 d4bd 8de1 3bbe 9d5c 1dbe 3589 b5bd
000002f0: e20a 0cbe 5ec7 5ebd bc3f 46be d298 273e
00000300: 4037 0dbe fa02 07be 1231 aa3d fce7 edbb
00000310: ff26 1ebe 3154 19be ac94 64bd ecf1 223e
00000320: 30f0 00bd d62f 8fbd 7091 0b3e 9818 0d3e
00000330: 8fdd 3f3d 382a 93bd 3fc4 993d 7540 eb3d
00000340: 49b4 1d3e 23d1 fb3d 5c91 533e 5f07 ed3d
00000350: 31bc 9e3c 5cd0 c4bd 9c9b 0cbe 71c2 003e
00000360: af9f 233d a870 3bbd 7046 dabd 2e32 d93c
00000370: 78f6 bc3d d0c6 0d3e 5a61 95bd 2384 9f3d
00000380: ff4a 08bd 7783 643e ef4a a8bc 6ce9 ecbc
00000390: 7c20 bfbd 20bc 40bb 78f2 873d aa48 13be
000003a0: 61df 04bd 14fb ce3d 522d b13d 1f1c 753e
000003b0: adac e73d 4e3f d0bd 1238 c7be 525c 57be
000003c0: dcf7 c6bb 5f39 08be c81b d1bd 0ea6 f43b
000003d0: b305 98bc bf71 573d 3e18 383e 41b1 103e
000003e0: 04ab 593d 9953 503c 5d71 f33d b778 4abe
000003f0: afe2 69bd 931f c03d 8c95 b03d aae1 463d
0.16585065 0.26757225 -0.041360497 -0.03311856 0.036252465 -0.08647231 -0.14251095 0.015381609
-0.16323407 0.022714207 -0.3731933 -0.12681767 -0.054766223 -0.09985053 -0.15022263 0.3251474
0.113465056 -0.12616375 0.03906731 -0.0727069 -0.12181889 0.010227872 0.13449965 -0.0018324659
-0.12730819 0.05523838 0.2815704 -0.13622645 0.18298462 -0.08304561 0.2738714 -0.07524333
-0.13987845 0.086710386 0.10317958 -0.12219277 -0.11159566 0.10331867 -0.20122744 -0.10277691
0.15068656 -0.047319237 -0.021967417 -0.22732814 -0.3184747 0.20642816 0.24881792 0.13967492
-0.024761342 0.07771084 0.10523419 0.009785772 0.09525378 -0.09986158 0.16185018 -0.012934645
0.08387128 -0.23041804 -0.090663545 0.1602433 -0.07102924 -0.03369057 -0.005324149 -0.090879306
-0.14058295 0.22977448 -0.08427846 -0.096641876 0.016653292 -0.037067313 -0.11431654 -0.10557694
-0.20518112 0.09992172 -0.32669863 -0.002415472 0.21950603 -0.0020194931 -0.103358835 0.13877988
0.21380958 -0.088150375 0.15309592 -0.19428742 -0.08032801 0.052771978 0.13293031 0.01598342
0.030339204 -0.06999028 0.0147197 0.005352285 0.3170398 -0.19470604 0.00885253 -0.077710524
-0.054967463 0.1264712 0.22858119 0.0021088456 0.10977223 0.016593313 0.09168179 -0.0244733
-0.007870496 0.18217571 -0.41149783 -0.28066766 -0.08957037 0.15216954 0.20605995 0.087413035
-0.19698262 0.0052925944 -0.08020874 -0.09221189 0.029923914 -0.055638954 0.06180678 -0.36263064
0.063824594 0.011038149 -0.04493007 0.08933468 -0.022184739 0.36303928 -0.12193306 0.21970437
-0.1643093 -0.25070077 0.3470885 0.10759957 0.1177907 -0.019208442 0.21109189 -0.12067405
-0.2085941 -0.18176758 0.2285501 -0.00841049 -0.02165677 -0.057235572 -0.08931601 0.043398883
-0.002395972 0.20373237 0.18143977 0.09881595 0.18719217 0.03633884 0.11442752 -0.023346057
-0.017496176 -0.032159 0.23581484 -0.159615 -0.13656388 0.063612536 0.047424663 -0.08220101
0.013030063 -0.024984248 0.006697489 -0.33659044 -0.0700886 0.17250614 0.067520306 -0.061264064
-0.09715533 0.07092515 0.12301962 0.2248574 0.032201666 -0.18341334 -0.026713701 -0.19081245
-0.05043925 -0.094718724 0.038199816 0.17142308 -0.18618275 0.06440321 0.022312721 0.02982865
-0.10377507 -0.1834776 -0.1536736 -0.08864061 -0.13676026 -0.05438935 -0.1936025 0.1636689
-0.13790607 -0.13184729 0.08310141 -0.0072603207 -0.15444563 -0.14973523 -0.055805847 0.15912598
-0.03147906 -0.06991546 0.13629699 0.13778913 0.046842154 -0.07185787 0.07508134 0.114869036
0.15400805 0.12295749 0.20660919 0.115736715 0.019376846 -0.09610054 -0.13731235 0.12574174
0.039947208 -0.045761734 -0.10657966 0.026513185 0.09226698 0.13845372 -0.07293959 0.07788875
-0.033274647 0.22315775 -0.020543544 -0.028919898 -0.09332368 -0.0029409006 0.06638044 -0.14383188
-0.032439593 0.10106483 0.08651222 0.23936509 0.11312232 -0.101683244 -0.38909966 -0.21031311
-0.0060720276 -0.13303135 -0.10210377 0.0074660843 -0.018557405 0.05259871 0.17977998 0.14130117
0.05314161 0.012715244 0.11886857 -0.19772612 -0.057100948 0.09381022 0.08622274 0.048555054
