checkpoints/curve50.pt (torch, 53760 bytes, 7 tensors)

convs.0.bias f4 [64]
00000000: eb78 a93d 3312 2dbd 803d b13c 0000 0000
00000010: 0000 0000 f7e6 44bd 43c7 8dbd 21ad d9bd
00000020: 54d3 40bc 747d 0cbe e955 0bbd a3a5 b8bc
00000030: 0000 0000 68e3 853e 2ac8 b2bd 641f 973d
00000040: adfd 8bbd 0000 0000 723f 6abd e51b 5bbe
00000050: 5a6f 253e 0000 0000 1240 b3bd 0000 0000
00000060: 1433 443d 0ba8 733e c860 1cbd 9ae7 07bd
00000070: b2fc d9bd 6b20 203e 8013 30bb 0000 0000
00000080: 6d52 30be 0000 0000 00f8 c5bb 69e4 cebd
00000090: 0000 0000 bd48 e3bd 0000 0000 0000 0000
000000a0: 10d5 06be cd31 cabd 0000 0000 51d0 79bd
000000b0: 79c1 873d b585 bc3c b885 133d 0000 0000
000000c0: 24e7 ba3d 1e6c bebd 0000 0000 2843 7dbc
000000d0: 4789 17be 02c2 5c3a 0000 0000 0000 0000
000000e0: 6dfd 913d 0000 0000 0000 0000 d1a9 8b3d
000000f0: 7a1f 4aba 0000 0000 0000 0000 0000 0000
0.082750164 -0.042253684 0.02163577 0.0 0.0 -0.048071828 -0.06922772 -0.10628725
-0.011769135 -0.13719732 -0.034017477 -0.02253992 0.0 0.2615006 -0.087295845 0.07379034
-0.06835494 0.0 -0.057189412 -0.2139736 0.16155759 0.0 -0.08752455 0.0
0.047900274 0.23794572 -0.038178235 -0.033179857 -0.10643901 0.15637366 -0.0026867092 0.0
-0.17218943 0.0 -0.006041527 -0.101021595 0.0 -0.11097858 0.0 0.0
-0.13167214 -0.0987278 0.0 -0.06098968 0.06628699 0.023012975 0.036016196 0.0
0.09126118 -0.092979655 0.0 -0.015457906 -0.14798461 0.00084212434 0.0 0.0
0.07128415 0.0 0.0 0.06819499 -0.0007710379 0.0 0.0 0.0

convs.0.lin.weight f4 [64, 2]
00000000: c81d 3a3e c1b3 39be 0a41 de3e 54ec 793b
00000010: c75d 0dbf 9211 8e3c 8ee6 a9bd b8b3 ecbd
00000020: 2224 80be ed78 99be 759e 483d 326e 03be
00000030: 34f1 483d 21b9 99be ea97 a83e e129 36be
00000040: aab4 19be f858 afbb 5803 d93d c7b0 6a3e
00000050: 881b cb3e 8c38 90be c40e ab3c 7137 41be
00000060: 1056 07bd 3418 67be f953 993e 84b5 8abe
00000070: eae1 1f3d e422 c8bb 0d3c db3a 1bf6 86be
00000080: d9c8 b53e 89e7 9a3c 88de 1e3d ec0a 88be
00000090: 4b40 583d 59ec eebd 2c7c 57bd bf8b 543e
000000a0: 6d61 393e 5032 2fbe e944 1cbe 60e9 6bbc
000000b0: 33ee 913d 34dd 1cbe e429 30be f474 d3bd
000000c0: d193 a9be d5dc cc3c 3102 673e 141b a3be
000000d0: 8a87 c03c 9cd5 f7bc 5d7a b73c 69b2 0dbe
000000e0: 4284 b33e 2676 b93d 5669 8f3e 586d 2fbe
000000f0: 102c 01be 2ac9 9bbd 882a 5abd a403 b8bd
00000100: 4a59 523e 711b 0f3e 8085 f4bc 5841 8abd
00000110: 3942 d7ba f8f2 c4bc 8f0c e83d ca76 94bd
00000120: 0836 8cbe 0ae1 e3bd 431a b53e 5da7 423d
00000130: a0b3 75bc 4e25 3abe b4e4 3cbe 6f48 8abe
00000140: a82c f5bc 4208 fa3d 0a58 573e bbb8 593d
00000150: 3375 88be 52ab 39be e5aa 84be 694b 2d3e
00000160: d114 05bd 5925 12be 7c08 a23e 73cf abbd
00000170: 3c9b 3ebf 45b7 793d 5a63 0cbe 1493 77bd
00000180: 4865 4fbf 2e9c 2f3e 311a 963e ec48 92bc
00000190: 2148 57be 905b 98be 12b9 1cbf ac5a 033e
000001a0: dd3d 963d 328b fb3d 5bec 623e 38ea a4bc
000001b0: 8080 41bb efcd 6abe 6043 84be b164 90be
000001c0: 81ec 71bc 421b 9dbe 888b 78bd 96af 31be
000001d0: 5c0b 61bd ae4e 59be 055a dbbe fa62 23bd
000001e0: 2bec f8be d4e0 b83d 1019 c6bd b57c 62be
000001f0: 80e6 59bd 24aa 15be e0ea bcbd 94f6 92be
0.18175423 -0.18134977 0.43408996 0.0038135247 -0.5522122 0.017342363 -0.08295928 -0.11557716
-0.25027567 -0.29975072 0.04897924 -0.12835005 0.049058154 -0.30024055 0.329284 -0.17789413
-0.15010324 -0.005351182 0.10596341 0.22918998 0.39669442 -0.28168142 0.020881064 -0.18868805
-0.03304106 -0.22567827 0.2994688 -0.2709161 0.039033808 -0.006107675 0.001672627 -0.2635964
0.35504797 0.018909233 0.03878644 -0.26570833 0.05279569 -0.116661735 -0.052608654 0.20756434
0.18103571 -0.17109036 -0.15260662 -0.014398903 0.07125511 -0.15318757 -0.1720348 -0.103250414
-0.33120587 0.025007645 0.2255943 -0.31856596 0.02350213 -0.030253224 0.022397215 -0.1383759
0.35061842 0.09055738 0.28010052 -0.17131555 -0.12614465 -0.076067284 -0.053263217 -0.089850694
0.20541874 0.13975312 -0.029848814 -0.067507446 -0.0016422934 -0.024041638 0.1133052 -0.0724922
-0.27384973 -0.11126907 0.353716 0.04752289 -0.014996439 -0.18178293 -0.18446618 -0.27008387
-0.02992852 0.12208606 0.21029678 0.05315469 -0.26651916 -0.1813176 -0.25911632 0.16923298
-0.032490555 -0.1427206 0.31647098 -0.08389177 -0.7445562 0.060965795 -0.13709775 -0.060443
-0.8101392 0.17149422 0.29316857 -0.017857037 -0.21023609 -0.29757357 -0.61219895 0.12827557
0.07336018 0.12282409 0.22160475 -0.020131215 -0.0029526055 -0.2293012 -0.25832653 -0.2820182
-0.01476586 -0.3068486 -0.060679942 -0.17352137 -0.054942474 -0.2122142 -0.42842117 -0.039889313
-0.48617682 0.090272576 -0.09672749 -0.22117884 -0.053198338 -0.14615685 -0.09224486 -0.2870375

convs.1.bias f4 [64]
00000000: d300 9bbd b562 223e 684b 213e e028 a63c
00000010: 8d6c 0fbd 66f5 ebbd 4c5d 72bd 8446 b73d
00000020: 30ec 043e 4a9c d5bc b1ee 36bd 3670 a6bd
00000030: cd09 503d 48b9 3c3e 4dbf e53d 8a10 c33c
00000040: d891 b8bc 2556 cbbc c1bf 113e b407 f3bd
00000050: 5269 903c 0caa 80bd aaa2 e3bc 5eef 093e
00000060: 95da 30bd 03ab 74bd d5f6 c23a 3273 1cbd
00000070: 41e7 22bd a0ed 33bd aefa 94bd 3960 b73d
00000080: 8b8e 093e eea5 b6bd 65b6 9bbd a4c2 0c3e
00000090: 3170 69bd c46b bdbd d509 fc3c 47c0 83bd
000000a0: 52c4 fcbc 2638 173e db98 69bd 97fd 3cbd
000000b0: 84ec 3cbc 025b 1f3e 278b f6bc d905 a6bd
000000c0: 387b aabc 449c 5f3d 222e 1abd 3397 dbbc
000000d0: 2d25 ff3d e0f0 5ebd fd1d 223e a2d8 523d
000000e0: aa92 8f3c c332 eb3d 17b9 1a3c ea9a 38bb
000000f0: cc64 283e 4f58 88bd 6435 e13b c15c 003e
-0.075685166 0.15857966 0.15751421 0.020283163 -0.03501563 -0.115214154 -0.059171006 0.08948997
0.12980723 -0.026075501 -0.044661228 -0.08126871 0.050790597 0.18430054 0.11218128 0.023811597
-0.022530481 -0.02482135 0.14233305 -0.11866704 0.017628346 -0.06282434 -0.027787525 0.13470218
-0.043177206 -0.059733402 0.0014874587 -0.038195796 -0.039771322 -0.04392779 -0.07274376 0.089539
0.13433282 -0.08918367 -0.07603148 0.13746125 -0.05699176 -0.0924907 0.030766407 -0.06433158
-0.030855332 0.14767513 -0.05703054 -0.04614028 -0.011530999 0.1556206 -0.03009565 -0.08106584
-0.020810708 0.054592386 -0.037641652 -0.026805496 0.124582626 -0.054428935 0.15831752 0.05147613
0.01752599 0.114842914 0.009443543 -0.0028168508 0.16444701 -0.066574685 0.0068728197 0.12535383

convs.1.lin.weight f4 [64, 64]
00000000: 8d85 06bd ec3f 9b3c d359 d93b 66d2 20be
00000010: 869e b33d 4d67 f23d d6e8 e6bd 44f8 12be
00000020: c685 21be efa5 15be 4fc3 febc 489d 843c
00000030: 8027 c8ba 62c5 b8bd b309 7f3d 1baf 8637
00000040: f7f7 21be bcb1 6abd d673 02be 93b9 0fbe
00000050: 600f 71be dcf3 1a3d ceda 2cbe 667e ab3d
00000060: d60d 033e cb8a 47be d033 19be de2c 2fbe
00000070: ae91 e9bc 0f25 03bd 838d 08be 1ded 053e
00000080: 3000 ec3b 1651 48be b0f3 40bc 6af3 0bbe
00000090: 9cc3 19bd 3228 233d 68c5 bebc b5f9 19be
000000a0: 15ff c73d 766d 87be a847 98bd 1fbc 2a3c
000000b0: d878 353e ee08 073e 72cb 99bd 76f6 933d
000000c0: df24 49be 94c3 fdbd 8cec 89bd 9c4b 2a3d
000000d0: d9f4 3dbe 120d 14bd 1a14 e53d 83c8 2c3e
000000e0: 0b55 67bd 7d8c 4a3e 4277 51be eee7 a8bd
000000f0: eea5 4f3d cc66 633d ead0 d03d c41d 13be
00000100: 9895 f7bd 4db4 45be 8664 4cbe d03d 71bc
00000110: b162 57be 6e48 15be f516 29be 91f5 a9bd
00000120: 2901 8b3d a3dd 09bb 6372 65be b318 f8bd
00000130: 1663 51be ec6c 0cbf 1d35 74be 7090 933c
00000140: 3d22 92bd a463 6fbd a9e0 40be acb0 0a3a
00000150: 3e12 8abe adee 16be d5f8 1a3e 0de0 3a3e
00000160: ddc1 06be a3ba 2dbe e5f3 0f3d b0bf da3c
00000170: e331 053e 44de 55be 8f29 693e ef67 083e
00000180: 6fd3 78bd 7aeb 06be b0a9 5bbe 7e05 fd3d
00000190: fec2 26be e1f6 83bd a01a 0ebe e630 5bbe
000001a0: 22f3 91bd bbed 233e f6ad f73d fcfa 0f3e
000001b0: 34a5 1abe 4c47 15be b0c9 9fbd 208f 8a3b
000001c0: 35ee 2dbe 23e3 1a3d c016 0ebe 00e4 2ebd
000001d0: 288f 2c3e e5d7 b23d 37b8 213e 07e6 1dbe
000001e0: 17e0 d4bd 82e5 08be 10c7 c4bc df63 82bd
000001f0: cf88 cfbd c526 56be 5269 a4bd 3885 ed3c
00000200: 5d28 85be 670f fcbe 6af2 0b3d b763 243e
00000210: 2aaa 05be 428e 4a3c 6336 133e 6603 50be
00000220: b2f9 4bbe 2d08 a73a cce0 ebbd d919 f53d
00000230: 6464 b8bd 38c5 38be f9cf 873b d455 41bc
00000240: 5adb dbbe 4b1a 53be 9d55 43bd 4467 133e
00000250: 8abf 8fbe 9801 89bc ab80 213e cc1b 7dbd
00000260: 760d bbbd cae2 57be 5651 7fbd f81c 633d
00000270: 92ae dfbe 43f3 8dbe 5515 c5bd 90d0 e1bc
00000280: 07a9 22be 8ab3 f73d b8b6 09be ae1e 86be
00000290: 4b5e 20be 5ffa e1be 43e1 d7bd a51a 2f3e
000002a0: f6e9 23be 3b3d cdbe 92bb 34be d62f ffbd
000002b0: 77dc d6bd 188a d0be d543 f9bc 02d8 953d
000002c0: 8dee 7fbc 3d78 33be 847e 4b3d e61c d83d
000002d0: c7e8 f7bd 7209 e5bc 55f1 253e 1af8 d33d
000002e0: f475 843d 7d79 14be fa7b 14be 25e8 953d
000002f0: f5e7 a53c 7f12 483e 38ed e6bc 7805 23bd
00000300: 2ad4 473e 5c43 5abd 43c0 483e 472b e2bd
00000310: 687b 91bd 2fe1 8e3c 7ff9 e03d 4dc1 87be
00000320: 57bb c6bd 8eca b0bc 4c4c 4abd c530 513e
00000330: 5e32 96bd 67f9 aebd 18e3 74be f784 e83c
00000340: 316b 8fbe eabc db3d bf39 173d e576 8ebe
00000350: 869c aa3e 5479 7c3d 82f7 803d 80d4 babd
00000360: 53b2 373e 058b 13be 5da3 bb3d 3213 e7bd
00000370: 4783 bc3c 48af e1bc 3206 393e 7def 39be
00000380: 4565 62be 4c5d 6fbd 314c fdbd 3d10 67be
00000390: e8d7 78bd c5a2 0ebd a35d 1d3e 20ba 11bd
000003a0: abce 98bc 1b81 6abe 8045 e4bd bac8 37be
000003b0: cb2a 1e3e 964b 443e aa23 283e 46d1 973d
000003c0: 5532 aebe a32a 22be 782d 30bd 5ee5 3fbe
000003d0: 6476 95bd c00e 963d fe37 dc3d 007b 8cbb
000003e0: 6a12 ce3d cda4 cfbd a809 c5bc fcd4 523e
000003f0: 5c73 47be 7ce0 0d3d fbaa 22be 3082 72bd
-0.032842208 0.018951379 0.0066330223 -0.1570526 0.0877047 0.11836109 -0.11274879 -0.14352518
-0.15773687 -0.1461408 -0.03109899 0.016188279 -0.0015270561 -0.09022023 0.06226511 1.6055585e-05
-0.15817247 -0.057298407 -0.127395 -0.14035635 -0.23541021 0.03783022 -0.16880342 0.08373718
0.12798247 -0.19486539 -0.14961171 -0.17106959 -0.028511848 -0.032017764 -0.13335232 0.13078733
0.007202171 -0.19562182 -0.01177685 -0.13667074 -0.037540063 0.039833255 -0.02328749 -0.15036662
0.0976545 -0.264507 -0.07435542 0.010420828 0.1772188 0.13187 -0.07509507 0.07224743
-0.19642971 -0.12390819 -0.06734571 0.041576013 -0.18550433 -0.036145277 0.11185475 0.16873364
-0.056477588 0.19780155 -0.2045565 -0.08247362 0.050695352 0.055517957 0.10196097 -0.14366823
-0.120890796 -0.1930706 -0.19960222 -0.01472421 -0.21033742 -0.14578411 -0.16512664 -0.08298791
0.06787331 -0.0021036647 -0.22406916 -0.12114086 -0.20447955 -0.548537 -0.23848386 0.01801321
-0.07135437 -0.058444634 -0.18835701 0.00052906084 -0.26967043 -0.14739485 0.15133984 0.18249531
-0.1315989 -0.16965728 0.035144705 0.026702732 0.13007312 -0.20885569 0.2276976 0.13320898
-0.060748514 -0.13175765 -0.2145145 0.12354563 -0.16285321 -0.06443573 -0.13877344 -0.21405372
-0.07126452 0.16008656 0.12093727 0.14060587 -0.15102082 -0.14577979 -0.07802141 0.0042284876
-0.169854 0.03781427 -0.13875866 -0.042697906 0.16851485 0.08732585 0.15792929 -0.1541978
-0.10394304 -0.133688 -0.024020702 -0.06366705 -0.10133516 -0.20913227 -0.08027901 0.028994188
-0.26007357 -0.492305 0.03416673 0.16053663 -0.13053194 0.0123630185 0.14376216 -0.20313796
-0.1991947 0.0012743525 -0.11517486 0.11967821 -0.09003523 -0.18043983 0.0041446653 -0.011800248
-0.4294079 -0.20615499 -0.04768907 0.14394861 -0.2807582 -0.016724393 0.15771739 -0.061794087
-0.09133427 -0.21082607 -0.062333427 0.05544755 -0.43687874 -0.27724656 -0.096232094 -0.02756527
-0.15884791 0.12094791 -0.13448608 -0.26195282 -0.1566097 -0.4413633 -0.10541012 0.17100008
-0.16007218 -0.40085778 -0.17649677 -0.12460296 -0.10491269 -0.40730357 -0.030427853 0.07316591
-0.01562084 -0.17526336 0.0496812 0.10552387 -0.12104946 -0.027958605 0.16205342 0.10350056
0.0646781 -0.14499469 -0.14500418 0.07319669 0.020252207 0.19538306 -0.028189287 -0.039800137
0.19514528 -0.053286895 0.19604592 -0.11043411 -0.07103616 0.01744136 0.109850876 -0.26514664
-0.09703701 -0.02158096 -0.04938917 0.2042876 -0.073338255 -0.085436635 -0.23914754 0.028383715
-0.28011468 0.10729392 0.036920305 -0.27825084 0.33322543 0.061639145 0.06297208 -0.091225624
0.17939119 -0.144085 0.091620184 -0.11282958 0.023011817 -0.0275494 0.1806877 -0.18157764
-0.22108944 -0.058438584 -0.12368048 -0.22564788 -0.06075278 -0.034823198 0.15367751 -0.035577893
-0.018653234 -0.22900812 -0.111460686 -0.17947665 0.15446012 0.19169459 0.16419855 0.074129626
-0.34022775 -0.15836577 -0.043012112 -0.1873984 -0.07297972 0.07327032 0.10752867 -0.0042871237
0.10062106 -0.10138855 -0.024052456 0.2058906 -0.194776 0.034637913 -0.15885536 -0.059206188

proj.weight f4 [64, 64]
00000000: f76c 4ebd 8b00 2c3c 0fe6 21bc 9839 2e3d
00000010: c0b9 14be 7bae f5bd 7fde b6bd e4f1 94bc
00000020: 6db3 18be e4a4 0abe 9368 54bd 1907 8abc
00000030: c7f2 92bd 6aea 83bd 35da 05be bfc2 e6bd
00000040: 0b0e a33d cea2 a1bd 9461 b4bd 905b ef3c
00000050: dc2c 603d 6704 2fbc 1f09 323c abe0 94bc
00000060: 2986 ff3c 03fa 08bc bbf1 efbd fb2f c9bc
00000070: 7a4e aa3d 739a dd3b fbe2 293d 1064 7dbd
00000080: c1f8 4a3d eb20 1abc 971d 32bd 178f cabd
00000090: d03c 50bd c7b1 f5bd fd9c 0cbe 86ef 9e3d
000000a0: f8ae 003d 6d0c f03d 8d34 82bd f6b6 9e3d
000000b0: ba63 6abd f7c8 11be 8e11 923d 2af6 c0bc
000000c0: 0541 0b3e 8166 cfbd 4de0 c6bd 89b5 b0bd
000000d0: 4fe6 f43d 8caa fb3d b019 d93c f922 9fbd
000000e0: 6533 0b3e dc61 d7bc 9493 a5bc b6f1 193d
000000f0: ce67 cabd 49c0 0d3c 4f66 0b3c 0c46 ae3c
00000100: 6e24 a13a df64 edbd 80fe 52bd 7906 a2bd
00000110: f0af 07bd 2089 b23d 1d69 1d3d 0f40 76bc
00000120: 6683 c6bd 72d3 313d 58a8 18be 6616 423c
00000130: b533 aabd 3a7f 3ebe 43ab edbd 70aa 40bd
00000140: a913 c83d feda cf3d 2766 cfbd c831 bdbd
00000150: 70a7 263e be30 593d f4fe bd3d 44ed 3d3e
00000160: 2dda 0bbc 63c4 c0bd 5df2 c43a 8586 c4bd
00000170: 57d4 a8bd ea58 313c 4a39 69bd 677a 8abd
00000180: 8a91 90bc 60d2 94bd c0e9 afbd a555 a9bd
00000190: 7ed8 d1bd 8d28 023c 2ab0 5f3d 1a0f 573d
000001a0: 413e e63d 2b3f 193e 60e2 a23b 8c0f a9bd
000001b0: 4fd2 553b 5ba5 f9bc 98d1 b1bc eaa6 e23d
000001c0: f935 773d 2909 14bc df99 393e 541f 0f3d
000001d0: dc4a 44bc 8b4b 923d 9721 8e3e 8cc8 48be
000001e0: edbc 493d b75e 883d d840 3ebd f279 6cbd
000001f0: 4cee 5bbe cf6c 99bd c7df 983d 4a6d 99bc
00000200: 0cb0 3bba c039 1cbe 5402 343e 2283 0c3e
00000210: 3ef2 303d c026 973c 1e29 67bd 9c7b ad3d
00000220: b99e 753e cee0 ccbc fa95 cc3c 4aaa 063e
00000230: e463 c5bc ddb6 93ba 9d3e bf3d c60b c4bc
00000240: 7e4f 813d 3723 0b3e f785 103e 7d48 383d
00000250: a697 203e 23ce 9cbd 2e07 ccbc 4de0 58be
00000260: 4f62 eb3c 1b81 f2bd 7a17 bf3d 9632 543d
00000270: 8e08 4dbd e209 71bd a57b f0bd c6a0 bf3d
00000280: 5d68 303c dbb8 debb 0a3c c63c 031d 2a3d
00000290: 1036 13be 638b a03d 9e30 e6bd 0d17 65bc
000002a0: c9d9 a6bd f5a1 bebd 11d9 1fbd c729 47bd
000002b0: 1458 f33d 1b06 473e 804d e33d 5a77 bf3c
000002c0: aba7 533d 8617 83bc bad4 85bd 15d0 3b3e
000002d0: 5611 753e e224 72bd 6d12 44be 99c4 053e
000002e0: c2b2 7e3e ef09 86bd d381 2ebe ec2f 873c
000002f0: f192 623e c3d0 c0bd 4f09 d5bd 626f 8dbc
00000300: ce48 623d 5474 443d 628a 17bd 138b fd3b
00000310: 7eeb 2ebe e750 e5bd df81 79bd 2a23 f5bd
00000320: 650b 8abd 130d 09be 497e 00be a5e7 18bd
00000330: 9174 9bbc f86e acbd 6a7e 073d 4071 393d
00000340: aee9 e1bd b8b5 08bd ef53 ccbc ace2 d3bd
00000350: 806a e5ba 99ae 87bd e8bf a93d ce77 543e
00000360: 98e8 713d 7691 afbd 84d1 4d3c 4d20 84bd
00000370: 6442 d63c fd78 4b3d 6695 823d 7fcf 5dbd
00000380: 4314 a8bd d452 8eba b0a0 2abe db25 76bd
00000390: fd02 15be 71b8 d1bb 6792 b0bd 42cf b43d
000003a0: 569b 37bd c8d5 4c3e 3e17 4fbd 69d5 0fbd
000003b0: 7d78 d1bd fb65 873d 69e4 123d 7da2 14be
000003c0: 0d65 c6bc e29a fbbc 2d11 023d bce3 f93d
000003d0: 5c27 413d 4ddf b6bc e29d 583e f270 02bd
000003e0: 87fc b0bd 740f f3bc c9d9 f9bc 5081 aebd
000003f0: 8001 8fba 79a8 42be b5d2 34be 7a27 18bd
-0.050396886 0.010498176 -0.00988151 0.042535394 -0.14523983 -0.1199617 -0.089291565 -0.018181749
-0.14912196 -0.13539463 -0.051857542 -0.016849088 -0.07175212 -0.06441195 -0.1307152 -0.112676136
0.07961663 -0.07892381 -0.08807674 0.029218465 0.05473028 -0.010682202 0.010866432 -0.018173536
0.031191902 -0.008360389 -0.11716028 -0.024559012 0.083157495 0.0067627965 0.04147623 -0.061863005
0.049553636 -0.009407262 -0.04348525 -0.098905735 -0.050839245 -0.11996799 -0.13731761 0.07760529
0.031416863 0.1172112 -0.063576795 0.07749741 -0.057224013 -0.14236818 0.071322545 -0.02355488
0.13599022 -0.10126973 -0.09710751 -0.08628375 0.119579904 0.122883886 0.026501507 -0.077703424
0.13593824 -0.02629178 -0.020211972 0.03758403 -0.098830804 0.008651801 0.008508279 0.021273635
0.0012294182 -0.11591505 -0.05151224 -0.07911391 -0.03312677 0.08717561 0.038430322 -0.015029921
-0.09693031 0.04341454 -0.14907968 0.0118461605 -0.083106436 -0.1860322 -0.11604931 -0.047037542
0.09769375 0.10149191 -0.10126906 -0.09238011 0.1627481 0.053025 0.09277144 0.18547541
-0.008535904 -0.09412458 0.0015025843 -0.0959597 -0.082436256 0.010824421 -0.0569394 -0.06761628
-0.017647523 -0.07266688 -0.08589506 -0.082682885 -0.10246371 0.007944238 0.054611363 0.052504636
0.11242343 0.14965503 0.0049708337 -0.082549185 0.0032626574 -0.030474355 -0.021706387 0.110669926
0.060354207 -0.009035387 0.18125103 0.034941986 -0.0119807385 0.07143315 0.27760002 -0.19607753
0.04925244 0.066586904 -0.04644856 -0.057733484 -0.21477622 -0.07491457 0.07464557 -0.01872887
-0.0007159717 -0.15256405 0.17579013 0.13721898 0.04319977 0.018451095 -0.056435697 0.08470842
0.23986329 -0.025009539 0.024973858 0.13150898 -0.024095483 -0.0011269707 0.093381144 -0.023931395
0.0631399 0.13587652 0.14113604 0.044991005 0.1568285 -0.07656505 -0.024905767 -0.21179314
0.0287334 -0.11841031 0.0933065 0.051806055 -0.050056987 -0.058847316 -0.11742333 0.09356837
0.01076707 -0.006796939 0.02419855 0.041531574 -0.14376092 0.07839086 -0.11239742 -0.0139825465
-0.08147008 -0.093082346 -0.03902537 -0.048623826 0.11882034 0.19435923 0.11098766 0.023372341
0.051673573 -0.016002428 -0.06534715 0.18341096 0.23932394 -0.059117205 -0.19147654 0.13063277
0.24872878 -0.065448634 -0.17041712 0.016502343 0.22126366 -0.09414818 -0.10402166 -0.017265026
0.055245213 0.0479625 -0.036997207 0.007737526 -0.1708202 -0.111970715 -0.06091487 -0.11969598
-0.067404546 -0.13383894 -0.12548174 -0.03733029 -0.018976482 -0.08419603 0.033079542 0.04527402
-0.11030899 -0.033376426 -0.024942366 -0.103459686 -0.0017503053 -0.06625099 0.08288556 0.20748827
0.05905971 -0.08572666 0.012562159 -0.064514734 0.026154704 0.04967593 0.06376152 -0.05415296
-0.082069896 -0.0010858425 -0.1666286 -0.060094696 -0.14551921 -0.006400161 -0.08621674 0.08828594
-0.044825874 0.20003426 -0.050559275 -0.035115633 -0.102280594 0.06611248 0.03586236 -0.1451511
-0.024218107 -0.030713502 0.03175466 0.1220164 0.047156677 -0.022323275 0.21153978 -0.031845994
-0.08641916 -0.029670455 -0.030499356 -0.08520758 -0.0010910481 -0.1900958 -0.17658503 -0.037147023

proj.bias f4 [64]
00000000: d90f 393d 0637 de3d 8d6a 74bc e37b a23d
00000010: 784e acbc 653f 43be 7b3c 26be 86f9 b03d
00000020: 4194 1ebd 73fa 04be b7a0 41bd c5b9 c1bb
00000030: 8461 d63d f680 d9bd df12 153e 3538 b4bc
00000040: 08be 0d3c 4641 253d f31a 82be b7e6 cdbd
00000050: dea9 2fbe 8e98 0b3d 4ef3 6b3c 6754 11bd
00000060: 58a7 16be ceb6 cc3d 7e0e 6b3c ec6e 00be
00000070: dd0e 0ebd f71e 02bd 7a3f 453a 5a6b c5bd
00000080: baa0 5cbd 2dad a03c 1490 b83d 43dd 70bd
00000090: 3ad3 9639 859e 673c 9ac3 b03c d51b 4b3d
000000a0: 2100 643d c9f2 913d 8c77 973d 87ea 70bb
000000b0: f43d efbd 137e 54bd 3b9c 6a3d 67c2 31bd
000000c0: 647e 6039 bafe 33bd 4dec 9ebd 8f66 713c
000000d0: 8d65 773d 4782 00be 9a22 4f3d 9b05 193d
000000e0: 440f 873c fdf6 a5bd 76c8 19bd b2a2 82bc
000000f0: d31b d6bd e76c d6bb b7a4 033c eb72 0a3e
0.04518113 0.10850339 -0.014917982 0.07933786 -0.02103351 -0.19067152 -0.16234009 0.08641343
-0.038715605 -0.12986164 -0.04727241 -0.005912038 0.104678184 -0.106203005 0.1455798 -0.021999458
0.008651264 0.040345453 -0.25411186 -0.10053771 -0.17154643 0.034081034 0.01440127 -0.035480883
-0.14712274 0.09995805 0.014346717 -0.12542313 -0.034682143 -0.03176781 0.00075244124 -0.09639616
-0.05386422 0.019613827 0.09011856 -0.05880476 0.00028767606 0.014136915 0.021577645 0.04958709
0.055664185 0.07126386 0.07395849 -0.0036760883 -0.116817385 -0.051878046 0.0572779 -0.043398287
0.00021409389 -0.043944098 -0.077599145 0.0147339245 0.06039958 -0.12549697 0.050570108 0.03735886
0.016486771 -0.0810375 -0.03754469 -0.01594672 -0.10454526 -0.006543744 0.008034877 0.135204

scorer.bilin.weight f4 [1, 64, 64]
00000000: 994f f03d ae36 be3d 6af0 23bd bd6a f5bd
00000010: e3ea b2bd 29f0 123d 8a97 bbbd 0359 203d
00000020: 95f4 623c 2704 033e eaed bebd 5fbe ebbd
00000030: 0cdf 253d a639 ac3c 6c95 0fbd 6eba 163e
00000040: 473b f93d 7c2e 41bc b736 303e 475a 35be
00000050: 5935 d3bd 9c7f bc3c 199e 0d3e 68e7 803d
00000060: 61e7 65bd 3afa 363d e392 1a3e 06c7 c53b
00000070: d8d0 dd3d 2347 27bd 3619 76bd 46c5 403b
00000080: 13a9 b5bd 1490 29bd a2e6 443c c9e6 38bd
00000090: 27fd 963c 1675 653d 1325 00be 5945 89bd
000000a0: 23b0 5b3b dd8b 2abd 07cd d53b 2daf aebd
000000b0: 9f02 8a3c afcb 7a3c 5f35 323d 9041 003d
000000c0: 7383 b53c 681c aabd 0b86 94bc 2e68 9d3d
000000d0: 0260 8f3c 4616 bdbc f90f 2e3d 9a6d b53d
000000e0: e137 113c 2b6d 2bbd 6773 9abd 49b0 983d
000000f0: 7101 57bd 5207 ccbd 9815 1e3d 1d13 94bd
00000100: eea2 f7bd 8123 b7bd 8ba6 11bd 192c c4bd
00000110: 0333 4b3e b806 d33d 4c90 af3c 7331 a4bc
00000120: 90bd 633a 2a70 493e 4413 bc3d 63b5 5cbd
00000130: 49a3 f33c 8220 abbd 72bf ecbd e0f4 90bd
00000140: 02e2 173e b270 8dbd 153c 2b3e edf8 b3bd
00000150: 19d2 7abe c72c f5bd 8f44 0d3d d3c2 723d
00000160: f91e d13d 4cb7 c13d 6b27 df3d b40b 243e
00000170: b97d 883d 6982 473d 425d 04bd 8273 463d
00000180: c55e 0c3b 8c49 90bd 1348 b53c 853c 763d
00000190: f171 053e c017 993c 8cdb 1e3c 9892 693b
000001a0: 2d7f 8abd 66b1 d9bb 4364 c8bd db30 823d
000001b0: 69a9 893e ec35 95bc da14 babd d751 86bb
000001c0: fedd cdbc 2e07 4abd 74ee c0bd e8d5 a83d
000001d0: 284c 753d 9a94 d13c 4626 b8bd b4b4 f7bd
000001e0: eb62 de3c 2e84 543d fe34 56bb 011f 29be
000001f0: ab3c b13d 3894 343d 5d68 23bd f4b2 c13d
00000200: c3f3 033e 4a36 843d 6e69 393d 9de1 963d
00000210: 754f 803c 9daf b4bb 103f 2e3c 5433 793d
00000220: 9153 5bbd afba 86bd 9824 cd3d 8179 debb
00000230: 925d 5e3d 686a 8dbd 7b56 31bd ca34 3c3e
00000240: e596 ca3d 51ff 373e 64f0 a03d 8d6c 44bd
00000250: 6b19 ebbd d6f6 d63d 7d4a 153e 20e2 e2bd
00000260: 720f 773c 6743 553d 2d07 3e3d b966 dcbc
00000270: 63f3 1cbe 4c2c 86bd 0b21 d53c 6e0f 9fbd
00000280: c654 ac3b 6cdd fbbc 4bb2 223e 1038 e0bd
00000290: 7605 d1bb 0e64 353e 1be2 97bd a4a7 49bd
000002a0: a5fd ec3d 63b4 de3c b341 823d a19f 10be
000002b0: c642 e63c 4549 13be dafa cd3d e4dc 14be
000002c0: e1b4 e9bd 8e7a 0cbe 241d b0bd 329b 2e3e
000002d0: 4be8 393d 58a4 b7bd 975a 24bc 1b8b 9cbc
000002e0: c949 973c ce4a 0cbe d299 34bd a135 b33b
000002f0: c456 db3d 5119 2ebd a85d d1bc 456a 3b3e
00000300: 315e f0bd 5621 0f3c 74f8 193d 43b8 b63d
00000310: 0d61 933c f7a4 453d eaeb dc3d d141 063e
00000320: 0524 c93b da40 70bc f1f2 433e 5250 083e
00000330: cc4c e1bd ff33 6fbe 8aa0 cbbb 80e6 133e
00000340: 6cd9 9dbd 6a2d b83c 54cc 4a3e f5f7 86bc
00000350: 75ab 37be 7d27 3ebd 015c fabd 9a18 303d
00000360: 48bd 8a3c 9cb9 9f3d 1934 6d3c dd6c 44bc
00000370: 6707 f93d a3be 7a3c 01f4 783d 984c d63d
00000380: 1f8b df3c 8ba0 9bbc 3ad2 d3bd f5eb 4f3c
00000390: 8594 613a 01cc 67bd d167 0ebe 1ad3 b53d
000003a0: 2f93 34be de0c aebd bd75 1dbe 169d 30bc
000003b0: 97c7 863e 0e2c f6bd 0f7e 77be ab20 95bd
000003c0: 0e24 13bd 38f4 b4bc 828d f7bd b8e8 8f3d
000003d0: a05b a73d 3476 b5bd 56df d0bd c811 10bd
000003e0: 1ef5 723d d802 dcbd 9f26 e63d 6c3a 99bd
000003f0: 50f0 493e 1476 03be bae1 413e 76af 793c
0.11733932 0.09287773 -0.0400242 -0.11983249 -0.08736207 0.035873566 -0.09159763 0.03914739
0.013852258 0.12794553 -0.09322722 -0.1151092 0.040495917 0.021023583 -0.03505461 0.14719555
0.121695094 -0.011790868 0.17208372 -0.1771022 -0.1031291 0.023010068 0.1382984 0.06294137
-0.056128863 0.04467223 0.15095095 0.0060356883 0.108308494 -0.040839326 -0.060082637 0.002941446
-0.08870139 -0.04139717 0.012017878 -0.04514197 0.01843126 0.056019865 -0.12514143 -0.0670268
0.0033521734 -0.04163729 0.0065246853 -0.08529506 0.016846953 0.015307351 0.04350793 0.031312525
0.022157406 -0.08306199 -0.018130323 0.07685886 0.017501835 -0.02308191 0.0424957 0.088587955
0.00886342 -0.041852158 -0.075415425 0.07455499 -0.05249161 -0.09962334 0.038594812 -0.07230208
-0.12091623 -0.08942319 -0.03555922 -0.095787235 0.19843678 0.10304016 0.02143111 -0.02004311
0.000868761 0.19671693 0.09183362 -0.05388392 0.029740946 -0.0835581 -0.11559953 -0.07077956
0.14832309 -0.069062606 0.16722138 -0.08787713 -0.24494208 -0.11971431 0.03448921 0.05926783
0.10210986 0.09458789 0.1089619 0.1602009 0.06664605 0.048708353 -0.0323155 0.04845
0.0021418792 -0.07045278 0.022129094 0.06011631 0.13031746 0.018688083 0.009695899 0.0035640355
-0.06762538 -0.006643462 -0.097847484 0.06356975 0.26887062 -0.018214189 -0.09086008 -0.0040991115
-0.025130268 -0.049323253 -0.09420481 0.082439244 0.05988708 0.025583554 -0.08991675 -0.12095013
0.027146777 0.05188387 -0.0032685394 -0.16515733 0.086541496 0.044086665 -0.03989445 0.09457961
0.12885956 0.06455667 0.04526656 0.07367251 0.015662888 -0.005514099 0.010635152 0.060839966
-0.053546492 -0.06578576 0.10016745 -0.0067893867 0.054288454 -0.06905061 -0.043295365 0.18379512
0.09892062 0.17968489 0.07858351 -0.047955085 -0.114794575 0.10496299 0.14579196 -0.11078286
0.015079366 0.052066233 0.046393562 -0.02690445 -0.1532722 -0.06551418 0.026016733 -0.07766615
0.005259129 -0.03074523 0.15888326 -0.10948193 -0.006378825 0.17713949 -0.07416173 -0.04923214
0.11571816 0.027185624 0.063601874 -0.14123394 0.028108012 -0.14383419 0.10057612 -0.14537388
-0.11411453 -0.13718626 -0.08599308 0.1705139 0.045387547 -0.08966893 -0.010031364 -0.0191093
0.0184678 -0.1370041 -0.044092007 0.0054690395 0.107099086 -0.042504612 -0.025557354 0.18302257
-0.117367156 0.008735975 0.03759046 0.08921864 0.017990613 0.048253026 0.107871845 0.13111044
0.006138327 -0.014663899 0.19135644 0.1331189 -0.11000976 -0.23359679 -0.006214206 0.14443398
-0.077074856 0.022482593 0.19804507 -0.016475657 -0.179365 -0.046424378 -0.122245796 0.042992212
0.01693596 0.07799074 0.014477753 -0.011988846 0.12159615 0.01530424 0.060779575 0.10463828
0.027288018 -0.018997451 -0.10342832 0.012690534 0.00086052 -0.056591038 -0.1390679 0.08878155
-0.17634271 -0.08498548 -0.15376945 -0.01077964 0.2632415 -0.120201215 -0.24169181 -0.072816215
-0.035923056 -0.022089109 -0.12087537 0.070268095 0.08171773 -0.08860436 -0.10198848 -0.035173208
0.059315793 -0.1074273 0.11237835 -0.07481846 0.19720578 -0.12838012 0.18933764 0.015239587
