checkpoints/curve30_gcn.pt (torch, 54384 bytes, 7 tensors)

convs.0.bias f4 [64]
00000000: e45c 083e 4683 87bc b378 233e 0000 0000
00000010: 0000 0000 4094 c1bc bff5 6bbd 8733 093e
00000020: cf67 99bd c2e3 8ebe ef3b 9f3d ac87 293e
00000030: 0000 0000 c8f9 0a3e ce4d 90be 3cdf 673e
00000040: 42fa 55bd 0000 0000 c1ec cd3d ec1e 03be
00000050: bb59 1abd 0000 0000 7d7f afbd 0000 0000
00000060: 7e7b 193e b86f 9a3e a243 95be 9289 f1bc
00000070: 07a2 36be 7324 273e d147 97bb 0000 0000
00000080: a5f5 bebe 0000 0000 de4d 13bc b995 f4bd
00000090: 0000 0000 55a6 82bc 0000 0000 0000 0000
000000a0: adad c5ba f7ac a7be 0000 0000 0612 31be
000000b0: f05a 943d 094c 4fbc 2038 e43c 0000 0000
000000c0: de1e 26bd 6909 7ebe 0000 0000 b593 96bd
000000d0: 32cf 64be eee1 5c3d 0000 0000 0000 0000
000000e0: b9ad 4d3d 0000 0000 0000 0000 5c91 8a3e
000000f0: 0532 15be 0000 0000 0000 0000 0000 0000
0.13316685 -0.016542088 0.15964012 0.0 0.0 -0.023630261 -0.05760741 0.13398562
-0.07490503 -0.2790814 0.07775103 0.16555661 0.0 0.13571846 -0.2818436 0.22643751
-0.052240618 0.0 0.10054923 -0.12804765 -0.03768323 0.0 -0.08569238 0.0
0.14988515 0.3016336 -0.29153162 -0.029484544 -0.17835246 0.16322498 -0.0046167155 0.0
-0.37296787 0.0 -0.008990733 -0.1194262 0.0 -0.015948454 0.0 0.0
-0.0015081667 -0.3274915 0.0 -0.17292032 0.072439075 -0.012652406 0.027858794 0.0
-0.04055678 -0.24808277 0.0 -0.07352392 -0.22344664 0.0539264 0.0 0.0
0.050214503 0.0 0.0 0.27064025 -0.14569862 0.0 0.0 0.0

convs.0.lin.weight f4 [64, 2]
00000000: a09a a73e 4369 70be f78f c03e 454e 52bd
00000010: 4d62 8cbf 72b8 113e 8ee6 a9bd b8b3 ecbd
00000020: 2224 80be ed78 99be bc63 f03c 320a 02be
00000030: 1f7e 9e3d 0e7b 99be 748a ad3e bb94 05bf
00000040: fcf3 26bf 99f9 ed3b 27c6 2b3d bcb0 663e
00000050: 8ef7 b53e 71f4 06bf c358 903e 2c78 69be
00000060: 1056 07bd 3418 67be 2035 d93e b2a9 d5be
00000070: bfc6 873e f146 143e 17b1 813e d5a0 a4be
00000080: fbba dc3e 95f3 8dbd 88de 1e3d ec0a 88be
00000090: c21f 2c3e aa20 9ebe daea 46bf 0862 1c3e
000000a0: dc86 f43c 7c8a 51be e944 1cbe 60e9 6bbc
000000b0: f6cb 943d 149b 14be e429 30be f474 d3bd
000000c0: 3077 15bf 1656 2dbe abcd a33e 58c5 cabe
000000d0: 54db 833e 039c 5e3e ce72 163d a270 ecbd
000000e0: 3f2c 9e3e ef63 7bbd 261a 733e 9a50 6ebe
000000f0: 9b78 33be 2a68 61bd 882a 5abd a403 b8bd
00000100: b80a 993d 10da 893e 8085 f4bc 5841 8abd
00000110: ca94 483b 88da abbc 6044 d93e 04e7 c73c
00000120: 0836 8cbe 0ae1 e3bd 64ec 923e 511e eabc
00000130: a0b3 75bc 4e25 3abe b4e4 3cbe 6f48 8abe
00000140: 3ac1 c5be 06c6 e2bb 9585 703e fd8f 233e
00000150: 3375 88be 52ab 39be 546e 06be e47f 2f3e
00000160: 66f7 e0bb 5284 a9be 68e4 9d3e 07c2 6abd
00000170: eb19 54bf 57d1 873d 5a63 0cbe 1493 77bd
00000180: 1f4c 86bf 97c9 123e f4ee 973d 5176 1cbc
00000190: 2148 57be 905b 98be aac9 0bbf c1be 273a
000001a0: 2714 513e e081 1e3e d462 493e 818c 28be
000001b0: 8080 41bb efcd 6abe 6043 84be b164 90be
000001c0: 5d20 7b3e bfc1 adbe 888b 78bd 96af 31be
000001d0: 5c0b 61bd ae4e 59be ef94 d5be a01a 17be
000001e0: 2f19 0dbe 8a25 983c 1019 c6bd b57c 62be
000001f0: 80e6 59bd 24aa 15be e0ea bcbd 94f6 92be
0.32735157 -0.23477654 0.37609836 -0.051344175 -1.0967499 0.14230517 -0.08295928 -0.11557716
-0.25027567 -0.29975072 0.029344432 -0.12699202 0.077388994 -0.29976696 0.33894694 -0.5218007
-0.6521604 0.0072624204 0.04193702 0.22528356 0.35540432 -0.5271674 0.2819272 -0.22799748
-0.03304106 -0.22567827 0.42423344 -0.4173103 0.2651882 0.14480187 0.2533042 -0.32153955
0.43111405 -0.06931225 0.03878644 -0.26570833 0.1680899 -0.30884296 -0.77702105 0.15271771
0.029849462 -0.20462984 -0.15260662 -0.014398903 0.07265465 -0.14512283 -0.1720348 -0.103250414
-0.5838499 -0.1692737 0.3199285 -0.39603686 0.25753272 0.21739201 0.03673058 -0.115449205
0.30893132 -0.0613746 0.23740444 -0.23272935 -0.17526476 -0.05503098 -0.053263217 -0.089850694
0.074727476 0.2692418 -0.029848814 -0.067507446 0.0030606263 -0.020978227 0.42434978 0.024402149
-0.27384973 -0.11126907 0.28695977 -0.02857891 -0.014996439 -0.18178293 -0.18446618 -0.27008387
-0.38623983 -0.006920579 0.23488458 0.15972896 -0.26651916 -0.1813176 -0.13128024 0.1713863
-0.0068654297 -0.33108765 0.30838323 -0.057313945 -0.8285205 0.06631725 -0.13709775 -0.060443
-1.049198 0.14334713 0.074186236 -0.009549693 -0.21023609 -0.29757357 -0.5460459 0.0006398969
0.20417844 0.15479231 0.19666606 -0.16459848 -0.0029526055 -0.2293012 -0.25832653 -0.2820182
0.24524064 -0.3393688 -0.060679942 -0.17352137 -0.054942474 -0.2122142 -0.4171519 -0.1475625
-0.13779138 0.018572588 -0.09672749 -0.22117884 -0.053198338 -0.14615685 -0.09224486 -0.2870375

convs.1.bias f4 [64]
00000000: fc43 5ebd 86be c1bd c8dd e13d 85d2 2dbd
00000010: 802a fc3d 7787 efbd 0fa7 973c 18a1 febd
00000020: 8354 893d c01b d5bd 9f89 e1bc 8b0d 7bbd
00000030: ffeb 083e 8a13 cb3e 91fa 553e 9cae d8bd
00000040: 0c31 9bbd f555 bf3d 4575 2c3e 39ad fbbd
00000050: 5b79 0ebd e84d f6bd 7d9c 0abe e7ab 793e
00000060: bf48 6e3e f65e 44bd 96b9 42bd 73a6 cabd
00000070: f8b0 c3bd d440 503e c9f7 a1bd 2483 de3d
00000080: 4b59 b33d 1a08 13be 7ef9 063e c2d7 e23d
00000090: 2c3d f0bd 1b37 0bbe 9837 e7bd b24c c1bd
000000a0: 7247 00be 492d dabd 7c04 bcbd 61b5 c2bd
000000b0: f09f 58bd 7824 48be 5364 b2bd 5607 fd3d
000000c0: 6bf2 8c3c d7cd 77bd 5a02 893d d583 f9bc
000000d0: 7c63 a8bd 9702 9bbd f437 d0bd dec1 a3bd
000000e0: 8987 ccbd 9efe a63e ff78 a3bd f148 c7bd
000000f0: 3828 1fbe 6cdb 213e 5a9b 4c3e fb03 c2bd
-0.054264054 -0.094601676 0.110286295 -0.042437095 0.12312794 -0.1169576 0.018512277 -0.1243307
0.067055725 -0.104056835 -0.027531443 -0.061292212 0.13371275 0.39663345 0.20896365 -0.10580179
-0.07577714 0.09342567 0.1684161 -0.12288899 -0.034783702 -0.12026578 -0.13536258 0.24381982
0.23269938 -0.047942124 -0.04754027 -0.09895029 -0.095552385 0.2033723 -0.079085894 0.10864857
0.08757266 -0.14358559 0.13181111 0.11076309 -0.117304176 -0.1359524 -0.112899005 -0.094384566
-0.12527254 -0.10653169 -0.09180543 -0.095072515 -0.052886903 -0.19545162 -0.087105416 0.12354915
0.017205438 -0.06049904 0.06689902 -0.03045837 -0.082221 -0.07568853 -0.10166922 -0.079959616
-0.09986789 0.32616132 -0.079820625 -0.09730709 -0.15542686 0.15806359 0.19981137 -0.094734155

convs.1.lin.weight f4 [64, 64]
00000000: 97f1 43bd 6ebc 7b3d dd53 80bb 66d2 20be
00000010: 869e b33d c2d7 2c3d a248 f1bd 03be 1bbe
00000020: f5d8 3ebe 49ec 5abe 0317 31bd 4684 75bd
00000030: 8027 c8ba 78de f0bd 04c9 a23d 31ca bdbd
00000040: 7892 33be bcb1 6abd 55f2 42be f0b1 26be
00000050: 0c22 51be dcf3 1a3d 86be 31be 667e ab3d
00000060: 423c ed3d 6e39 3fbe 635e 5abe e530 61be
00000070: 05e6 bc3a 16a6 e7bc ae0e 2dbe 1ded 053e
00000080: fafa d43c 1651 48be b0f3 40bc 489e 11be
00000090: 9cc3 19bd fa0b 933d 68c5 bebc b5f9 19be
000000a0: eb79 fc3d 7b58 8dbe a847 98bd bfc0 243d
000000b0: 19e6 c33d 9a3c 583e 54df 67bd 76f6 933d
000000c0: 5e7d 39be b724 a4bd 8cec 89bd 9706 df3c
000000d0: 8eba 33be ccae ba3c 1a14 e53d 83c8 2c3e
000000e0: da8c 1abe 7d8c 4a3e 4277 51be e2e6 cdbd
000000f0: 4744 503d cc66 633d ead0 d03d c41d 13be
00000100: 238d 163d 525b 88be a771 29be d03d 71bc
00000110: b162 57be 0ed4 45be 5b40 60be 4ddb 093e
00000120: 4e41 483c f000 12be 5cc9 53bd f084 8bbe
00000130: 1663 51be 1750 58be 5d35 80be 9d85 e13d
00000140: d874 95bd a463 6fbd 64cc 78be 77b8 7bbc
00000150: 4f15 2fbd adee 16be 8234 ef3d 0de0 3a3e
00000160: fe5f 7cbe eabc 9c3d bdc3 debd 5e83 123d
00000170: adae 233d 3f1d edbc dd16 163e ef67 083e
00000180: b6e0 47be 7aeb 06be 8252 52be ca4c 0e3d
00000190: fec2 26be e6a5 5dbe a01a 0ebe e630 5bbe
000001a0: 16d8 5cbe 4cc4 003e f6ad f73d 4ebc f23d
000001b0: b65b 01be bee3 0abe 7cc6 ccbd 208f 8a3b
000001c0: 056a 3abe a57c 44bc c016 0ebe ba43 203c
000001d0: 4a7b 133e 8f0f 9fbc 37b8 213e 07e6 1dbe
000001e0: 1fc9 c1bd 82e5 08be 10c7 c4bc 8617 13be
000001f0: e010 06be c526 56be 5269 a4bd 3885 ed3c
00000200: b59e eebe 8c9d 1ebf 0ad4 de3d b763 243e
00000210: 2aaa 05be 0c97 9abb 7d6b 1f3e 10c4 80be
00000220: e91d 84bd be8a 0fbf 859f 11bc 71bd 2abd
00000230: 6464 b8bd e4a4 a33d c6ad d7be 1ac7 3dbe
00000240: 0780 41bf 4b1a 53be d984 85be 9862 a63d
00000250: 2d86 51be 9801 89bc 2c16 2c3e cc1b 7dbd
00000260: 60bf a1bd f8d1 6bbe 5d65 61bf 867b ac3d
00000270: e52f 2fbf 6bee 98bd db14 c93c 90d0 e1bc
00000280: 894f 3cbf 8ab3 f73d b32c 00be 2e41 0dbf
00000290: 4b5e 20be f1b4 04bf 43e1 d7bd a51a 2f3e
000002a0: 0089 08be a6fd 8ebe 92bb 34be 77d0 09be
000002b0: 3219 0dbe 5609 15bf 67f0 dbbc 02d8 953d
000002c0: b26e 56bd 63d7 b2be 847e 4b3d 7e51 e53d
000002d0: d5a9 c1be 30d2 1fbe 55f1 253e 1af8 d33d
000002e0: 2d88 3b3e 7d79 14be fa7b 14be f306 423d
000002f0: dd9e 163d 7f12 483e 38ed e6bc 7805 23bd
00000300: f12f b73d e1cc b4bd d83a ec3d 472b e2bd
00000310: 687b 91bd b924 73bc 7bde eb3d 569c 4e3e
00000320: 56ad a4be 321b d63d 67d3 bc3e b15f 1c3e
00000330: 5e32 96bd 2358 df3d 3704 c0be 374a 3abd
00000340: 3005 46be eabc db3d a1b0 c63d 5a3a 38be
00000350: 160c 153e 5479 7c3d d5cb 4c3d 80d4 babd
00000360: 0bfe ab3d 97a9 8bbe 90bb cd3b 7eab 00be
00000370: 344e 3bbd ccda 47bd 3b04 9a3d 7def 39be
00000380: 11a1 75be 4c5d 6fbd 188d dbbd 25bc 6fbe
00000390: e8d7 78bd 90f8 e5bc a35d 1d3e 20ba 11bd
000003a0: 7ff9 2b3e 250c 96be 8045 e4bd 66f0 0c3e
000003b0: 08e7 a13e f34e 9d3d b7f6 0e3e 46d1 973d
000003c0: b56b 86be 0c7a 73be 782d 30bd bccc 9ebe
000003d0: ef64 10bc b452 e73d fe37 dc3d 007b 8cbb
000003e0: c334 043e cda4 cfbd a809 c5bc 9f3b 073e
000003f0: 034e 55be 7ce0 0d3d fbaa 22be 3082 72bd
-0.04783782 0.061458997 -0.0039162473 -0.1570526 0.0877047 0.04219795 -0.11781432 -0.15209202
-0.1863745 -0.21379198 -0.043234836 -0.0599406 -0.0015270561 -0.117611825 0.07948497 -0.092670806
-0.17536342 -0.057298407 -0.19037755 -0.16278815 -0.20423144 0.03783022 -0.17357835 0.08373718
0.11583759 -0.18674251 -0.21325068 -0.21991308 0.0014411813 -0.028277438 -0.16900131 0.13078733
0.025998581 -0.19562182 -0.01177685 -0.14220536 -0.037540063 0.07180019 -0.02328749 -0.15036662
0.123279415 -0.27606568 -0.07435542 0.04022288 0.09565372 0.21116868 -0.056609467 0.07224743
-0.1811423 -0.08014815 -0.06734571 0.027224822 -0.17551634 0.022788428 0.11185475 0.16873364
-0.15092793 0.19780155 -0.2045565 -0.10053803 0.050846364 0.055517957 0.10196097 -0.14366823
0.036755692 -0.26632172 -0.16547261 -0.01472421 -0.21033742 -0.19319174 -0.2189955 0.13462563
0.012222601 -0.1425817 -0.051705703 -0.2724986 -0.20447955 -0.21124302 -0.25040713 0.11011813
-0.07297677 -0.058444634 -0.24296719 -0.015363804 -0.04274493 -0.14739485 0.11679937 0.18249531
-0.24645993 0.0765322 -0.10877178 0.035769813 0.039961506 -0.02894461 0.14657159 0.13320898
-0.19519314 -0.13175765 -0.20539287 0.0347412 -0.16285321 -0.21645316 -0.13877344 -0.21405372
-0.21566805 0.12574881 0.12093727 0.118523225 -0.12632641 -0.13563439 -0.099987954 0.0042284876
-0.18204506 -0.011992608 -0.13875866 0.009781772 0.144025 -0.019416599 0.15792929 -0.1541978
-0.09462189 -0.133688 -0.024020702 -0.14364442 -0.13092375 -0.20913227 -0.08027901 0.028994188
-0.4660546 -0.6195915 0.10880287 0.16053663 -0.13053194 -0.004717713 0.15568347 -0.25149584
-0.064510174 -0.5607108 -0.00888813 -0.04168457 -0.09003523 0.07990435 -0.42124766 -0.18532982
-0.7558598 -0.20615499 -0.26077917 0.08124274 -0.2046134 -0.016724393 0.16805333 -0.061794087
-0.0789783 -0.23029315 -0.88045293 0.08421998 -0.68432456 -0.074673496 0.024546077 -0.02756527
-0.7355886 0.12094791 -0.12517051 -0.5517758 -0.1566097 -0.51838595 -0.10541012 0.17100008
-0.13333511 -0.27927893 -0.17649677 -0.1345843 -0.13779142 -0.5821737 -0.026848031 0.07316591
-0.05235166 -0.34929952 0.0496812 0.11197184 -0.37824884 -0.15607524 0.16205342 0.10350056
0.18313666 -0.14499469 -0.14500418 0.04736991 0.036772598 0.19538306 -0.028189287 -0.039800137
0.08944691 -0.0882814 0.11534661 -0.11043411 -0.07103616 -0.014840298 0.11517044 0.20176825
-0.32163495 0.10454406 0.36880037 0.15270878 -0.073338255 0.109054826 -0.37503216 -0.045480933
-0.19337916 0.10729392 0.09701658 -0.1799101 0.14555392 0.061639145 0.049999077 -0.091225624
0.08398064 -0.27277824 0.0062784627 -0.12565419 -0.045728877 -0.048792645 0.07520338 -0.18157764
-0.23987223 -0.058438584 -0.10720271 -0.23411615 -0.06075278 -0.028072625 0.15367751 -0.035577893
0.16794394 -0.2930614 -0.111460686 0.1376358 0.31621575 0.07681074 0.13961302 0.074129626
-0.2625405 -0.23777026 -0.043012112 -0.31015575 -0.008813127 0.11295071 0.10752867 -0.0042871237
0.12910752 -0.10138855 -0.024052456 0.13206337 -0.2083054 0.034637913 -0.15885536 -0.059206188

proj.weight f4 [64, 64]
00000000: a151 efbc 6ed4 313d f0d9 4b3d 39eb 9cbd
00000010: 7f33 5a3d 2f94 a8bd ae74 fbbd c0aa b93c
00000020: 4c17 a03c ab8c 8ebd 39af 0fbd 1f14 26be
00000030: 03aa d43c dbb6 b5be df4c 0e3e b7db 4cbd
00000040: f6fd 46bd 914a 04bc 0fb8 3fbd f69e fa3d
00000050: e473 603e 2068 b03b 8437 4e3e 751e 593e
00000060: 973d 2ebe a00e dcbb acd7 37bd ea80 633c
00000070: 07a1 593d bb04 a03d 6536 b83d 1da6 eebc
00000080: caf5 eabc 973e d93d 6307 64be 3916 4d3c
00000090: 8363 ca3b 3904 87be 320e c7bc e0a9 553c
000000a0: 17b1 48bc 316d a83c bb37 60bd 6121 533e
000000b0: e946 333e 02bb 0fbe dabe bc3c 7b9f 8a3e
000000c0: f410 c8bd 55ac 2d3e 1227 8dbe a2c9 6dbe
000000d0: ca21 da3d f307 a03d 04eb dcbc 369a 0fbd
000000e0: c03e f33d c8de d13e c099 74bd e0bb 8bbd
000000f0: da74 cfbd 418d 9c3d dc51 c13c c901 823d
00000100: c5b0 25bd 253b 55bd a1f1 c73c 8a28 d43d
00000110: 82ce c73d ecfd 493d f0e1 513d 23ef 12bc
00000120: 7292 5b3d 048c e23d cfbd c6bd fffc 92bd
00000130: 3141 55bc 4275 bdbe 2572 33be 2482 2abe
00000140: ceae bb3c cd75 243e ba9f 343e 39b9 a8bd
00000150: 8e26 bebd 600d 893d e607 34bc b92d d5bd
00000160: df2c bcbd af84 98bd 5e05 463e eb01 80be
00000170: 979d 9ebd c013 f93d e50c 64bd 8133 1ebd
00000180: 405b e73d 2d8e cabc 698f 72be 5d13 79be
00000190: 9abe 62bd 2eb8 013e 123f 153e 6513 c3bc
000001a0: c500 063d b61d b8bb baff b63c e43d 233c
000001b0: 253f a0bd f563 103e 7ea1 82bd 1d4f 4abd
000001c0: efad 1abe b941 d93c 2631 0e3c 1d6b 0bbe
000001d0: e392 89ba f560 8e3d 91a4 cf3d 8a15 0dbe
000001e0: e784 50bd a411 0f3e b81e 80bc 8584 02be
000001f0: d76e 98bd 55d9 efbc 9271 913e bb80 aa3d
00000200: dd2a 3c3c 1c9f 0bbd 8e17 543e fcf7 c83b
00000210: df2b 2b3e 2dc7 a93d e8e9 1dbd 3850 d33d
00000220: 0633 223e af07 223d b62d cb3b 913d 6bbd
00000230: b4dc c23c 0a43 d5be e083 34bd e3fe a13b
00000240: 02af a93c 3c63 52bd aae5 fa3d bcda 78bd
00000250: 05dd eb3d 773f 7bbd 092e 033e a078 61be
00000260: e426 a6bd 0791 17be 2ed7 06be 89b6 443e
00000270: bd03 02be 6849 2fbe c7ca 04be 2a63 a6bd
00000280: 8cb8 81be 7b71 f73a 94c7 0bbe 2297 9d3d
00000290: 1b41 1dbe 9bdd a4bb 8ad0 32bd 941c 98bc
000002a0: 44b7 32be 06c0 84bc 824e 0ebd 451a cb3d
000002b0: 3ade 373e 40b0 e73d 6479 9c3c 12ed 5d3f
000002c0: c9cd f93c bf3a 9a3d cbaa e9bd 4b74 06bf
000002d0: c74a ff3c c066 9fbc 8e30 4cbd 36c1 003e
000002e0: b908 fb3d 28fe 033e cbb6 e0bd 217a fdbd
000002f0: 3e75 113d a1aa 0dbe 06c2 4ebe d0d8 dcbd
00000300: bfa6 2b3c d608 543d f2ec 64bd c905 6e3d
00000310: 22a2 2cbe d752 16be 8ef9 8a3e 801b 4abd
00000320: 2bd4 e9bd 099b 24bd a92e 05bd c065 44be
00000330: 07ba c03c a3a2 9a3d b12f 51bd 6f28 0bbd
00000340: 3038 febd 7aad 1fbe 1c49 a43e bf9c e0bd
00000350: 1a9a e73d 1f0c 3dbd 7bda 373e 120c ae3e
00000360: 98b4 06be 1268 b8bd fcff 4f3d f5f8 18bb
00000370: f618 b93d 0c2c 7fbe 8072 a73d 1af6 373c
00000380: 2c22 8dbd 7813 a13d c549 8abe 4ea0 31bd
00000390: 3cb2 3cbd 78fc 553e 1e64 513c 8916 3c3d
000003a0: 9d5d d6bd ad18 313e d694 eebc d43d 74bd
000003b0: 5b96 7cbd d68a d43d c333 373b 6477 8abe
000003c0: 8b9d a0bc 7454 163e 1d5f e6bc 09cf d03c
000003d0: 1c49 ea3d 8382 fdbc 729d 923d fd29 093e
000003e0: 6f8b 4fbd d50f d83b adab 183d 1369 cdbd
000003f0: 96cc 773d 8d0d 81be ae3e 0abe bbd8 1a3d
-0.029213728 0.04341548 0.04976839 -0.07662053 0.053271767 -0.08231389 -0.12278114 0.022664428
0.019542359 -0.06960424 -0.035079215 -0.16218613 0.025959974 -0.3549107 0.13896511 -0.050014224
-0.04858204 -0.008074419 -0.04680639 0.12237351 0.21919209 0.0053835064 0.20138365 0.21203025
-0.17015682 -0.0067156106 -0.044883415 0.013885716 0.053132083 0.07813402 0.0899475 -0.029131943
-0.028681654 0.10607641 -0.22268443 0.012517505 0.0061764135 -0.2637041 -0.024298761 0.01304099
-0.012249253 0.020559879 -0.05474065 0.20618202 0.17507519 -0.14036182 0.023040224 0.270748
-0.097688586 0.1696027 -0.2756887 -0.23221448 0.10650976 0.07814016 -0.026967533 -0.035059176
0.11877203 0.4099028 -0.05971694 -0.06822944 -0.101297095 0.076441295 0.023598604 0.06347997
-0.040451784 -0.052058358 0.02440721 0.10359295 0.09756185 0.049314424 0.05124086 -0.008968147
0.053606458 0.11061862 -0.09704172 -0.071771614 -0.013016031 -0.37003523 -0.17524011 -0.16651207
0.022910502 0.16060562 0.17639056 -0.082384534 -0.092846975 0.06692004 -0.010988211 -0.104091115
-0.09188246 -0.074471824 0.19337985 -0.25001463 -0.077449016 0.1216197 -0.05567636 -0.038623337
0.112967014 -0.024725998 -0.23687519 -0.24323793 -0.055357553 0.12667915 0.1457484 -0.023812959
0.032715578 -0.005618776 0.022338737 0.009963486 -0.07824544 0.1410063 -0.063784584 -0.049391855
-0.15105413 0.026520597 0.00867871 -0.13615079 -0.0010496046 0.06952087 0.101388104 -0.13777748
-0.050907996 0.13971573 -0.015639648 -0.12745865 -0.07443016 -0.029278437 0.2840696 0.08325335
0.011484829 -0.034087285 0.2071211 0.0061330777 0.16715954 0.08289943 -0.03855315 0.10318035
0.15839776 0.03955811 0.0062005175 -0.05743176 0.02378688 -0.4165271 -0.04407108 0.004943715
0.020713333 -0.05136417 0.12250836 -0.060755476 0.115167655 -0.06133982 0.1281053 -0.22018671
-0.081128865 -0.14801417 -0.13168022 0.19210257 -0.12696739 -0.17117846 -0.12967978 -0.08124383
-0.2533611 0.0018878424 -0.13650352 0.07694842 -0.15356867 -0.0050313002 -0.04365591 -0.018568315
-0.17452723 -0.016204845 -0.03474284 0.0991712 0.17955866 0.11312914 0.019100852 0.86689866
0.030493634 0.07530736 -0.11409529 -0.525212 0.031163586 -0.019458175 -0.049850993 0.12573704
0.12257523 0.12889922 -0.10972365 -0.1237681 0.0355122 -0.13834621 -0.20191202 -0.10783541
0.010476767 0.05176624 -0.05589003 0.058110986 -0.16858724 -0.14680038 0.2714352 -0.049342632
-0.11417421 -0.040186916 -0.0325152 -0.1917944 0.023526205 0.07550552 -0.051070873 -0.033974107
-0.12413061 -0.1559352 0.32087028 -0.10967397 0.113086894 -0.046154138 0.17954437 0.33993584
-0.13154829 -0.09004225 0.050781235 -0.002334175 0.09037964 -0.24919146 0.08176136 0.011228109
-0.068912834 0.078650415 -0.27009407 -0.04336577 -0.046068415 0.2089709 0.012780217 0.04591993
-0.10467074 0.1729457 -0.029123705 -0.059629276 -0.061666828 0.10378043 0.0027954436 -0.27044213
-0.019606372 0.14680654 -0.028121525 0.025489347 0.11439726 -0.030946022 0.071589366 0.13394924
-0.050670084 0.006593684 0.037273098 -0.10029807 0.060497843 -0.2520565 -0.13500473 0.037804347

proj.bias f4 [64]
00000000: 9bb1 47bd a312 943b bbe0 4a3d 31fd 6a3c
00000010: 2a8c a83d 6929 ccbd 8af2 f7bd 72d7 87bc
00000020: 26a7 48bd 85d6 85bc 5a1a f7b9 0926 c4bd
00000030: b2d8 fd3d c6c4 1a3e 9f4a 223d 3cce 523b
00000040: ba6c 24bc dec4 b9bb da0b 87be fb34 b53c
00000050: 8ff3 e2bd 96fb d2bb 20fb 20bd da67 9bba
00000060: 9b70 02bd 56f3 c63d ee27 df3c 0219 a3bd
00000070: 67e2 0b3d 7885 2ebd dc90 bc3c 6dd9 f9bc
00000080: d492 fc3b 0e16 0a3e 71e2 fe3c 63d0 1abd
00000090: 0edb 25bd a302 6dbb b6e9 1fbd a67d 8c3d
000000a0: 5642 033d b74b 48bc 310f 803d 32a3 303d
000000b0: 13d1 aabd 5590 663e a48a 473b 4710 30bd
000000c0: f0b4 153d 7dc9 903c c16d 0cbe c454 d03d
000000d0: c0b5 6a3d 1fb2 99bc d169 0d3d 3dbd 863d
000000e0: 7104 9d3c aeb9 90bd 8dc4 87bb 6f80 563d
000000f0: d499 8e3c acb7 49bd 0784 3c3d 6317 013d
-0.048753362 0.004518823 0.049530726 0.014342592 0.08229859 -0.09968836 -0.121068075 -0.016582225
-0.04898753 -0.016337642 -0.00047131145 -0.09577567 0.12394847 0.15114126 0.039621945 0.0032166382
-0.010035688 -0.0056692204 -0.2637623 0.02211999 -0.11081611 -0.006438683 -0.03930199 -0.0011856512
-0.03184567 0.097143814 0.02724072 -0.07963754 0.03415146 -0.042607754 0.023018293 -0.030499185
0.007707933 0.13484976 0.031113835 -0.03779639 -0.04049211 -0.0036164902 -0.039041243 0.06859903
0.032045685 -0.012225083 0.062528975 0.043124385 -0.08340659 0.22515996 0.0030447626 -0.042984273
0.03654951 0.017674202 -0.13713743 0.10172418 0.057302237 -0.018761693 0.034524743 0.06579063
0.019167157 -0.070666656 -0.0041433037 0.052368578 0.017407335 -0.04924743 0.04602435 0.031516444

scorer.bilin.weight f4 [1, 64, 64]
00000000: b5c7 bb3e dd85 a93d e9f5 813c c800 38bd
00000010: 4e50 cebd c52a 22bd 31f3 90bd 4e0c e93d
00000020: be00 823e 9e0a 873e 6bf6 a4be 06f5 31bd
00000030: d1b1 25bd abfe b8bd 7639 6cbe 7e7a 493d
00000040: 408e da3e cbdd b13c 2c35 283e 3afc 66be
00000050: aebf e3bd bdaf 8dbe e450 ff3d 34f1 653e
00000060: 50f4 3fbd 33b9 6d3d f3de 1fbe f181 a93e
00000070: 7a95 9f3d 0514 fe3d abe7 fa3d e9e3 803d
00000080: a523 28be 845c 6dbe ec51 d8bc 38bb 21be
00000090: c378 1d3e 4c22 853d afa3 94bd 5a16 aabb
000000a0: a9f8 883e 4f05 963d 5f86 3cbe f7d3 78be
000000b0: 6499 79bc a9a3 60bc dc81 533e 1c50 863d
000000c0: 5d97 0dbe 4747 61be c6de 8bbd 35eb 803c
000000d0: 63fb 04be 6246 a33e bfd6 f73d 9a7e 693d
000000e0: 4146 88be 5cca b93c 3792 f53d 5f2e b53d
000000f0: df19 81bd afad 08bc 4d08 633c d794 01be
00000100: 32a7 d13d 36f1 8fbd adbb 8b3e 3316 33bd
00000110: 4574 84bd 1ffa 06bc cd4b 4abd ee38 483d
00000120: fd55 d1bb 2f1f 873d bd4b 8dbd aa2a 1a3c
00000130: f0ed 843d 08c3 75bc fe37 933d ccde 12bd
00000140: cd55 1abe c388 6a3e 2d88 f43d ab7f 51be
00000150: e810 e53d edac 813d b429 d03d 7917 e3bd
00000160: dd5c c43d e566 e63d 5124 ab3d 86ad acbd
00000170: 3fea cfbd 865d ea3d a0f1 94bd 8cc8 c8bd
00000180: 3ab5 2a3d 52ae 95bd 240b 18be 5faa f23c
00000190: 973a 16bd 53ca 6f3d 1674 4d3e f39a 03bd
000001a0: 63c7 85bd 8903 bf3c 9ac7 4abe a552 d0bd
000001b0: 15e1 2c3e 18ca 99bd e7e7 3fbc c5a5 233e
000001c0: 4c2b ce3c 282b 05be a972 e2bd f75e 93bd
000001d0: 431c b93d fd6a d53d d1f5 d0bd 0fdc 273d
000001e0: be3e 5e3d 4100 933d edf4 c2bd e881 0cbf
000001f0: e181 2bbd 7b8a 7b3e e620 7fbd ad1d 433e
00000200: d745 a63e 55ed 5ebe 22cb 0b3e 2c07 413e
00000210: fcd9 efbd d3f6 a93c 095b 0d3c fb8b f6bb
00000220: d35b 0b3e 6b14 8bbd 8166 1cbe 636f 8ebc
00000230: b6e8 b0be 29d6 943d b7a8 12be 5dac d93d
00000240: cea2 c53e 720a 8d3e e746 1c3e 20d3 85be
00000250: a2df b93d 425b d2bd 5b4c 6a3e 08ee 4ebe
00000260: 23e7 683e e435 91bd 911e a83c 0ef8 8d3d
00000270: b45b 9bbe 7747 12bd f7fb c7bc 4235 343e
00000280: b4d2 09bd 1b3d dc3d f34a 3f3e 232a 3dbd
00000290: ad81 a43c 74b7 783e 1fc7 bebd 5edc 0e3a
000002a0: 0e9f 3dbc 4d53 063e 1b3e 9fbe 3458 26be
000002b0: 3c2f 0a3d 88b7 c7bd 8778 ce3d 11c2 573e
000002c0: 3477 43be c7a6 e3bd 76cc 18be 9934 c93d
000002d0: 8012 70bd ba65 fdbd cd94 cabd a46a 163d
000002e0: de36 67be b133 713e 2a6f 30be b329 23be
000002f0: a961 b3bc 15d8 713d 04f9 7dbd 35a3 c6bd
00000300: 9748 33bd 6210 d6ba 18c5 bb3d 205b 663d
00000310: b07d 0dbe b516 6bbd c812 243e 1709 353e
00000320: 10c3 18bc e57d dcbc 08c4 1ebe 0fa9 733e
00000330: 54f6 08be 5543 4cbe 91f3 ebbc 31a1 2fbc
00000340: 3a34 ebbd 9d8e e33d e1e2 593e ea34 973c
00000350: f95d 75bc d2b3 ddba a41d d23d 5f95 2c3c
00000360: ae52 14bc e8c9 213e 35d3 7ebe 911a 053e
00000370: 4719 b9bd d739 a13e ac53 323d 3a46 303e
00000380: a2fa 9e3c f409 bdbb b096 043e fb6e 31bd
00000390: 7427 1bbe b180 83bd 9d57 1a3c 1da0 253d
000003a0: 4c05 8ebe 85f8 e4bd 1d37 87be eeb5 75bd
000003b0: 6ae1 313e e6e9 86be 0c24 c1bd 9c8d 1a3e
000003c0: 4f65 ce3d 378d 08be c960 503d 4ccd 433d
000003d0: 0ac2 3ebd f079 4f3d b9a9 79bd 8b0b 5b3c
000003e0: 3258 0d3e 09a7 0d3e 1e6e 1abd 55cd 3cbe
000003f0: 5579 dfbd 5673 fc3d 36ef 823e 24a0 16bc
0.36675802 0.082774855 0.01586433 -0.04492262 -0.10073911 -0.03959157 -0.07077635 0.113793
0.2539119 0.26375288 -0.32219252 -0.043446563 -0.040452782 -0.09032949 -0.23068795 0.049189083
0.42686653 0.021712204 0.16426533 -0.22557154 -0.111205444 -0.2767314 0.124666005 0.22455293
-0.046863854 0.058037948 -0.15612392 0.3310695 0.07792182 0.12406162 0.122512184 0.062934704
-0.16419847 -0.23179823 -0.02640625 -0.15794075 0.15378098 0.06500682 -0.07257783 -0.005190653
0.26752213 0.07325231 -0.18410634 -0.24299608 -0.015234325 -0.013710895 0.20655006 0.065582484
-0.13827272 -0.21999846 -0.068296 0.015737155 -0.12986521 0.31889635 0.121015064 0.057005502
-0.266161 0.0226795 0.11990779 0.08846735 -0.06303763 -0.008342191 0.0138569595 -0.12654434
0.10236968 -0.07028429 0.27291623 -0.043722343 -0.06467489 -0.008238344 -0.049388696 0.048882417
-0.0063884244 0.06597745 -0.068992116 0.009409586 0.064906955 -0.015000112 0.07188414 -0.035857007
-0.15071793 0.22903733 0.11940036 -0.20458858 0.11184865 0.06331811 0.10164204 -0.110884614
0.09588025 0.11250094 0.08356536 -0.084315345 -0.10152101 0.114436194 -0.07272649 -0.09803876
0.041676737 -0.073086396 -0.14848 0.029622255 -0.03667697 0.05854256 0.20063815 -0.032130193
-0.065321706 0.023317115 -0.19802704 -0.10172013 0.16882737 -0.075092494 -0.011713005 0.15981205
0.02516713 -0.13004744 -0.11057026 -0.071958475 0.090385936 0.10420797 -0.10203136 0.04098135
0.054259054 0.07177783 -0.09519372 -0.5488572 -0.04187191 0.24564545 -0.062287234 0.19054289
0.3247516 -0.21770222 0.13651708 0.18850392 -0.11711499 0.020747578 0.0086276615 -0.007524011
0.13609247 -0.06791004 -0.15273477 -0.017387098 -0.34552544 0.0726741 -0.14322172 0.10628579
0.38600773 0.27547032 0.15261422 -0.26137638 0.09075858 -0.10271312 0.2288069 -0.20207989
0.22744422 -0.07090357 0.020522388 0.06932078 -0.303434 -0.035712685 -0.024412138 0.17598441
-0.033648208 0.107538424 0.18680935 -0.046182763 0.020081365 0.24288732 -0.09315323 0.00054497074
-0.011573566 0.13117714 -0.3110207 -0.16244584 0.033736452 -0.09751803 0.100815825 0.21070124
-0.19088441 -0.11115795 -0.14921746 0.09824485 -0.058611393 -0.123729184 -0.09891663 0.036722794
-0.22579524 0.23554875 -0.17229906 -0.15933876 -0.021897154 0.059043963 -0.062005058 -0.09699098
-0.0437704 -0.0016331787 0.09168452 0.056239247 -0.13817477 -0.057394702 0.1602279 0.17679249
-0.00932385 -0.0269155 -0.15504467 0.2379496 -0.13375217 -0.1994756 -0.028802665 -0.010719583
-0.11484571 0.11111186 0.21277954 0.018457849 -0.014976018 -0.0016914553 0.1025956 0.01053366
-0.0090529155 0.15799677 -0.24885257 0.12998416 -0.090380244 0.3148944 0.043536827 0.1721429
0.01940662 -0.005769009 0.12948108 -0.04331873 -0.15151769 -0.0642103 0.009420303 0.0404359
-0.27738416 -0.11180214 -0.26409236 -0.059987955 0.17371145 -0.26350325 -0.094307035 0.15093082
0.10077917 -0.13335119 0.05087355 0.04780321 -0.04657177 0.050653398 -0.060952876 0.013369451
0.13803175 0.1383325 -0.037702672 -0.18437703 -0.10911814 0.12326686 0.25573128 -0.009193454
