checkpoints/curve50_sage.pt (torch, 71870 bytes, 9 tensors)

convs.0.lin_l.weight f4 [64, 2]
-0.63740337 -0.25010002 0.50740755 0.14398134 -0.25968552 -0.8776542 -0.5353854 -0.74349886
-0.90539265 -0.2526099 0.18579519 -0.22803771 -1.0650823 -0.84149456 0.1868955 -0.63130575
-0.18777347 0.2586897 -0.17926234 -0.27604336 -0.40686846 -0.008714412 -0.35033697 -0.8085789
-0.5715947 -0.37862858 0.41097566 -0.23553102 -0.47498488 0.0677567 -0.031858668 0.110647194
-0.031079458 -0.2650702 -0.34148723 -0.089223765 0.21510498 0.07027297 -0.27558294 0.48410377
-0.3882464 -0.31865725 -0.67781264 -0.17005047 0.053413093 -0.31701893 -0.06111492 -0.8522718
-0.24874064 -0.13293423 0.052531708 -0.017617803 -0.4117018 -0.09178853 -0.5212675 -0.34112486
0.13032997 0.19930777 0.3789403 -0.78768283 0.42814437 -0.46021536 -0.14534223 0.21816522
-0.3351151 0.08220252 -0.6024914 -0.27008593 0.4197089 -0.30966192 -0.50019443 -0.36361694
0.12544939 0.012173283 0.22659242 -0.3973683 -0.6445101 -0.07453587 0.2087893 -0.2582705
-0.023549998 0.2969378 -0.18236539 -0.16324721 -0.17401934 -0.6403486 -1.8031824 -0.25855476
-0.10606502 0.22358572 -0.20584637 -0.2766358 0.41830766 0.020811336 0.23497047 -0.5967761
-0.90747565 -0.18907033 -0.22212823 -0.5796262 -0.14896323 -0.2909393 -0.41936952 0.38148957
0.18171218 -0.24804237 -0.11364365 -0.60179627 -0.21423912 0.056840915 0.078967206 -0.3075145
-0.06691938 0.23583506 -0.7782769 0.04119369 -0.33724326 -0.11723759 -0.13973552 0.085728884
-0.83955735 0.2324949 -0.28859916 0.097487025 0.39206046 -0.6537261 -0.28176358 0.5763301
00000000: de2c 23bf 1c0d 80be 76e5 013f d86f 133e
00000010: 80f5 84be f2ad 60bf 040f 09bf f155 3ebf
00000020: d0c7 67bf 1656 81be 1841 3e3e b882 69be
00000030: 9e54 88bf 306c 57bf 8961 3f3e 419d 21bf
00000040: b047 40be fa72 843e 8c90 37be 8e55 8dbe
00000050: 1051 d0be e5c6 0ebc 5e5f b3be 07ff 4ebf
00000060: 0854 12bf 9bdb c1be 676b d23e 0b2f 71be
00000070: 3831 f3be 06c4 8a3d 3c7e 02bd ff9a e23d
00000080: 599a febc 48b7 87be 6ad7 aebe f3ba b6bd
00000090: 7b44 5c3e 46eb 8f3d 3519 8dbe 73dc f73e
000000a0: 3bc8 c6be 0b27 a3be 2185 2dbf b621 2ebe
000000b0: b0c7 5a3d 4e50 a2be a353 7abd 7c2e 5abf
000000c0: deb5 7ebe e91f 08be 7d2b 573d 3653 90bc
000000d0: 94ca d2be a0fb bbbd c971 05bf eba7 aebe
000000e0: 3875 053e 5617 4c3e 7704 c23e 95a5 49bf
000000f0: bd35 db3e 59a1 ebbe 98d4 14be b466 5f3e
00000100: 3594 abbe cb59 a83d e03c 1abf b448 8abe
00000110: 16e4 d63e 028c 9ebe be0c 00bf 002c babe
00000120: ce75 003e 7372 473c d807 683e dc73 cbbe
00000130: 9dfe 24bf 43a6 98bd ddcc 553e 083c 84be
00000140: edeb c0bc 3b08 983e febd 3abe 472a 27be
00000150: 2032 32be e3ed 23bf aece e6bf 4a61 84be
00000160: 9e38 d9bd a8f3 643e 64c9 52be 35a3 8dbe
00000170: 6c2c d63e 897c aa3c 199c 703e 52c6 18bf
00000180: 5350 68bf a79b 41be 9575 63be 6262 14bf
00000190: d189 18be fff5 94be 9ab7 d6be 9a52 c33e
000001a0: c212 3a3e d2fe 7dbe 01be e8bd 520f 1abf
000001b0: 8061 5bbe 05d2 683d 8fb9 a13d 8a72 9dbe
000001c0: 070d 89bd bf7e 713e 283d 47bf b7ba 283d
000001d0: 26ab acbe 431a f0bd d416 0fbe a092 af3d
000001e0: 3bed 56bf 2513 6e3e 45c3 93be 47a7 c73d
000001f0: 26bc c83e 985a 27bf 5143 90be 5f8a 133f

convs.0.lin_l.bias f4 [64]
-0.0027303416 -0.6503439 -0.21731925 -0.76398253 -0.8674138 -0.25910294 0.13275032 0.021057164
-0.66190845 -0.0011065712 -0.23610747 -0.57117856 -0.1593904 0.14282991 -0.15160075 -0.80587476
-0.059969705 -0.3453709 -0.72910297 -0.33096525 0.17505515 0.38956198 -0.10595256 -0.19415556
-0.12072073 -0.33871606 -0.38906986 -0.004821943 -0.5349235 -0.65081686 -0.67132074 -0.2613737
-0.19506258 -0.27464664 -0.30143142 -0.5186536 -0.6022846 -0.46036994 -0.0013614426 -0.40844634
0.35133234 0.16179623 0.15705155 0.058167934 -0.15387286 -0.0010050955 0.1869868 -0.046614517
-0.3997625 0.5134025 -0.59748936 -0.7678366 -0.54711056 -0.9214439 -0.07133677 -0.0024194976
0.12943399 -0.14705276 -0.4792326 -0.37950757 -0.2810406 -0.48643854 -0.43639496 -0.70354474
00000000: 88ef 32bb f07c 26bf f088 5ebe 5c94 43bf
00000010: d50e 5ebf 24a9 84be b3ef 073e 1380 ac3c
00000020: d572 29bf 5e0a 91ba 28c6 71be c238 12bf
00000030: 3d37 23be 0142 123e 3a3d 1bbe cf4d 4ebf
00000040: cba2 75bd 74d4 b0be 7ea6 3abf 4774 a9be
00000050: a841 333e ab74 c73e a8fd d8bd b7d0 46be
00000060: 6e3c f7bd 316c adbe 2a34 c7be 6401 9ebb
00000070: bff0 08bf ef9b 26bf addb 2bbf c6d2 85be
00000080: 7cbe 47be 7c9e 8cbe 3855 9abe 7bc6 04bf
00000090: 532f 1abf 9cb5 ebbe 6f72 b2ba e11f d1be
000000a0: d5e1 b33e e9ad 253e 1fd2 203e 8041 6e3d
000000b0: d990 1dbe 69bd 83ba 7879 3f3e ddee 3ebd
000000c0: acad ccbe 596e 033f 10f5 18bf f090 44bf
000000d0: 700f 0cbf bfe3 6bbf 0319 92bd 6f90 1ebb
000000e0: 588a 043e 0095 16be fa5d f5be d14e c2be
000000f0: 8ee4 8fbe 790e f9be 296f dfbe 821b 34bf

convs.0.lin_r.weight f4 [64, 2]
-0.017965902 -0.56127656 -0.5846118 -0.2292321 0.39639124 -0.97560066 0.523285 -0.039964333
-0.07275363 0.09894553 -0.4477484 -0.023790138 0.2320809 -0.7359512 0.392192 -0.082834125
-0.26920357 0.31738204 0.0066695916 -0.39854857 -0.18058375 0.35941625 0.27099553 -0.12661293
-0.66505575 -0.0044490425 -0.4409027 0.25547025 -0.4059452 -0.5206328 -0.30196613 0.01893196
0.052787457 -0.18527822 0.29322854 0.27627778 0.48134622 -0.44447345 -0.28928888 0.26876915
-0.1302056 -0.24000497 -0.4192062 -0.448712 -0.07377244 -0.32430187 0.0005761649 0.02564937
0.32373717 -0.023628423 -0.2571893 -0.89197683 -0.49605465 -0.43923616 -0.6231367 -0.47661373
-0.7660447 -0.6297593 -0.5911024 -0.76539576 -0.6296533 0.26117948 0.1445892 -0.68905944
-0.5040894 -0.24948414 -0.3488659 -0.3343431 0.3791986 -0.7935737 0.009044586 0.06404805
-0.22414559 -0.2800942 -0.41181272 -0.009755671 -0.110203 -0.1395659 0.013117411 0.2974533
-0.7576906 -0.22491454 -0.5193367 -0.54154336 -0.05662346 -0.62242144 0.25964904 0.024653768
-0.47564447 0.2263304 -0.6692256 -0.27350834 -0.19533563 -0.25152963 -0.67512304 -0.28088993
0.11640573 0.040397845 0.20825182 -0.20675057 -0.49931848 0.08009201 0.30910295 -0.015798533
-0.18346287 -0.7294608 -0.2112059 0.11109852 -0.32741615 -0.05303661 -0.762804 -0.41040805
-0.07330233 -0.6291248 -0.39313895 -0.20505275 -0.8380661 0.05571578 -0.46754476 -0.34510422
-0.019711373 0.2585854 -0.27676657 -0.81489617 -0.9256819 -0.4730751 -0.6523469 -0.07472218
00000000: 3a2d 93bc d2af 0fbf 1ea9 15bf d2bb 6abe
00000010: cbf3 ca3e f7c0 79bf 01f6 053f a4b1 23bd
00000020: dbff 94bd f4a3 ca3d 473f e5be 89e3 c2bc
00000030: 9ea6 6d3e 4c67 3cbf 64cd c83e f0a4 a9bd
00000040: 0dd5 89be e67f a23e 978c da3b 8f0e ccbe
00000050: f2ea 38be 6805 b83e edbf 8a3e d2a6 01be
00000060: 1841 2abf 46c9 91bb 00be e1be ffcc 823e
00000070: 0dd8 cfbe 3148 05bf 4e9b 9abe 3317 9b3c
00000080: a937 583d 93b9 3dbe 0d22 963e 4874 8d3e
00000090: 0373 f63e 0692 e3be ac1d 94be 1c9c 893e
000000a0: 9e54 05be ddc3 75be 32a2 d6be 94bd e5be
000000b0: 0116 97bd e50a a6be c609 173a a11e d23c
000000c0: e1c0 a53e 6590 c1bc 51ae 83be 9858 64bf
000000d0: e0fa fdbe 90e3 e0be e385 1fbf b706 f4be
000000e0: 811b 44bf e837 21bf 7d52 17bf faf0 43bf
000000f0: f530 21bf 51b9 853e 310f 143e 3366 30bf
00000100: 010c 01bf c578 7fbe 8d9e b2be 052f abbe
00000110: 5226 c23e a527 4bbf be2f 143c a02b 833d
00000120: 6c86 65be 8268 8fbe 1ed9 d2be 40d6 1fbc
00000130: 1cb2 e1bd 5dea 0ebe 69ea 563c cd4b 983e
00000140: 03f8 41bf ff4f 66be 40f3 04bf 96a2 0abf
00000150: 00ee 67bd 0357 1fbf b8f0 843e b3f6 c93c
00000160: ac87 f3be 28c3 673e 5e52 2bbf 4909 8cbe
00000170: 1006 48be 7ec8 80be ddd4 2cbf ced0 8fbe
00000180: 2166 ee3d 3678 253d f73f 553e 6cb6 53be
00000190: aca6 ffbe 4807 a43d be42 9e3e ed6b 81bc
000001a0: b1dd 3bbe f1bd 3abf 5c46 58be 9f87 e33d
000001b0: 17a3 a7be eb3c 59bd 1f47 43bf 0121 d2be
000001c0: 881f 96bd 530e 21bf 8249 c9be 59f9 51be
000001d0: 808b 56bf 3b36 643d 0762 efbe 80b1 b0be
000001e0: bf79 a1bc 4e65 843e 59b4 8dbe 099d 50bf
000001f0: 7df9 6cbf e636 f2be 3500 27bf f107 99bd

convs.1.lin_l.weight f4 [64, 64]
-0.055346984 0.033046804 0.041234903 -0.010080727 -0.18650413 -0.20288132 -0.041592207 0.093998484
-0.07414063 0.20953414 -0.34014514 0.056042362 0.11397558 -0.53207165 -0.09526335 -0.39339042
0.055312235 -0.16030037 -0.1691804 -0.2553582 0.031744245 0.10243719 -0.030718066 0.023776911
-0.27895394 -0.21044487 -0.11985269 -0.00016595349 0.2825959 -0.12969454 -0.0528733 0.098300844
-0.3414202 0.08588269 -0.35495982 -0.081536695 -0.26356047 0.084027395 0.10743061 -0.3785338
-0.4276366 0.085226834 -0.08050412 -0.57019097 -0.23799717 0.039490998 -0.5062926 0.0040251534
-0.107192524 0.76444966 0.14905262 -0.18117155 -0.22659083 -0.25859138 0.048438024 0.1789913
-0.0035628048 -0.09680063 -0.148136 -0.050452054 -0.5973469 0.25689718 -0.08411736 0.14532669
-0.010552321 0.14514357 0.074438184 0.30746582 0.034863632 0.17988972 0.2310038 -0.12650801
-0.041165363 -0.2806271 -0.36391056 -0.2000916 -0.07987576 0.014280623 -0.021111235 0.056512684
-0.02659835 -0.09813147 -0.037947647 -0.12408937 0.0062214606 -0.057672843 0.26601526 0.09543172
-0.030249199 0.056962486 0.08459136 -0.09664124 0.04311182 -0.079860725 -0.40931576 -0.0037761638
0.04451828 0.06950641 -0.60139793 -0.28314945 0.23167989 -0.009586498 -0.14972377 -0.15858954
-0.10387796 0.035038274 0.0023027658 0.14751115 -0.09418853 0.043885127 0.12057472 -0.015169054
0.2579739 0.13254218 -0.15328872 -0.11515346 -0.12881012 -0.072082676 -0.15735176 -0.063706234
0.22449818 -0.10062058 -0.15993917 0.10517505 0.06394393 -0.10611849 -0.054169003 0.044703964
-0.02990717 -0.019688312 -0.00902625 -0.2280599 0.14665611 -0.05956224 0.12072458 -0.8039832
0.11799012 0.13817741 -0.54686046 0.055622205 -0.19463685 -0.89180446 0.11353844 -0.004906076
-0.6234914 -0.30389217 -0.13274759 -0.53196406 -0.28889695 0.10003491 -0.0391615 -0.13876104
-0.13308424 -0.25890782 0.12409523 0.04586453 0.07446392 0.052843884 -0.1452127 -0.15196307
-0.25725517 0.07994141 -0.04866647 -0.20379363 -0.130062 -0.030001417 0.06660272 -0.6832256
-0.61721 -0.008954216 -0.0144114345 -0.11473008 -0.62677455 -0.105834305 -0.83496165 0.073925965
-0.15818445 -0.28046566 0.012199884 0.13766453 -0.009571591 0.066458255 0.020360366 -0.03797139
0.1374702 0.018872684 0.116675735 -0.12142956 -0.37892094 -0.22981516 -0.07782297 0.49542817
-0.0049783736 -0.06096846 0.08443177 0.10290186 0.0048575234 -0.09729608 -0.06475547 -0.11469017
-0.053836152 -0.11165458 -0.09149211 -0.088773355 0.059692625 -0.18001702 -0.11783458 -0.14052345
-0.09025862 -0.037342876 0.09680647 0.032632403 -0.050301444 0.029346526 -0.009070948 0.05518313
0.015624115 0.0734956 0.08526231 0.10405868 0.006385982 0.087505385 -0.08167456 -0.11697348
-0.0906076 -0.03742701 -0.024602236 -0.1291026 -0.11313474 -0.0117177665 0.010148332 0.0458287
-0.10781297 0.03049849 0.05768597 -0.11545947 -0.08831612 -0.06551728 -0.003332585 -0.068687856
-0.05485493 -0.05685081 0.0966726 -0.079651386 -0.12127127 0.0043284823 0.06816499 -0.054435194
-0.07475172 -0.07122293 -0.12189303 -0.046507716 -0.025239198 -0.09325877 -0.118726715 -0.07431428
00000000: 85b3 62bd 165c 073d eee5 283d a229 25bc
00000010: f0fa 3ebe 1fc0 4fbe 975c 2abd 4782 c03d
00000020: 0bd7 97bd 1e90 563e 8127 aebe ad8c 653d
00000030: 076c e93d d935 08bf 6e19 c3bd 786a c9be
00000040: 158f 623d c825 24be a03d 2dbe 4fbe 82be
00000050: 4106 023d 97ca d13d 74a4 fbbc ccc7 c23c
00000060: 0dd3 8ebe dc7e 57be 5475 f5bd cd03 2eb9
00000070: 69b0 903e a5ce 04be ac91 58bd f451 c93d
00000080: a1ce aebe 44e3 af3d 4bbd b5be b6fc a6bd
00000090: 66f1 86be 8e16 ac3d 9404 dc3d 2fcf c1be
000000a0: 2ff3 dabe 688b ae3d 58df a4bd 09f8 11bf
000000b0: 88b5 73be 50c1 213d 649c 01bf 6fe5 833b
000000c0: c187 dbbd f9b2 433f 40a1 183e 0985 39be
000000d0: 6d07 68be 1766 84be f366 463d 7f49 373e
000000e0: f27d 69bb 693f c6bd f7b0 17be d0a6 4ebd
000000f0: baeb 18bf 0788 833e b945 acbd 85d0 143e
00000100: a4e3 2cbc 84a0 143e 0c73 983d 296c 9d3e
00000110: 2bcd 0e3d 0335 383e 438c 6c3e 518b 01be
00000120: 039d 28bd 5bae 8fbe 7c52 babe d0e4 4cbe
00000130: e795 a3bd 46f9 693c 78f1 acbc d879 673d
00000140: c8e4 d9bc 27f9 c8bd fe6e 1bbd 9122 febd
00000150: 65dd cb3b 5c3a 6cbd 2733 883e b571 c33d
00000160: 2bcd f7bc 7f51 693d 3c3e ad3d d8eb c5bd
00000170: 0596 303d 058e a3bd d691 d1be 8479 77bb
00000180: cd58 363d 6059 8e3d 37f5 19bf f7f8 90be
00000190: 7e3d 6d3e b010 1dbc 3051 19be 4c65 22be
000001a0: f8bd d4bd 4b84 0f3d 00ea 163b 2a0d 173e
000001b0: ebe5 c0bd e4c0 333d e1ef f63d a087 78bc
000001c0: 2815 843e 23b9 073e b8f7 1cbe 94d5 ebbd
000001d0: cde6 03be 15a0 93bd d220 21be 6a78 82bd
000001e0: dae2 653e 2a12 cebd 18c7 23be 0466 d73d
000001f0: 09f5 823d a754 d9bd 51e0 5dbd 811b 373d
00000200: e2ff f4bc 6249 a1bc d6e2 13bc 8988 69be
00000210: 052d 163e 89f7 73bd 733e f73d d8d1 4dbf
00000220: cea4 f13d 617e 0d3e 0cff 0bbf 1cd4 633d
00000230: e24e 47be 4c4d 64bf d786 e83d 26c3 a0bb
00000240: 229d 1fbf c197 9bbe fcee 07be cc2e 08bf
00000250: 4dea 93be 1adf cc3d cf67 20bd 6017 0ebe
00000260: 3c47 08be 918f 84be a425 fe3d 72dc 3b3d
00000270: 8a80 983d d472 583d a3b2 14be 359c 1bbe
00000280: f3b6 83be 52b8 a33d 7e56 47bd 47af 50be
00000290: f92e 05be 88c5 f5bc 0267 883d dfe7 2ebf
000002a0: 7901 1ebf b4b4 12bc f01d 6cbc 9bf7 eabd
000002b0: 4c74 20bf a8bf d8bd 0cc0 55bf 7f66 973d
000002c0: 1bfb 21be 3299 8fbe 06e2 473c eef7 0c3e
000002d0: 2ad2 1cbc 441b 883d c8ca a63c e387 1bbd
000002e0: fdc4 0c3e e39a 9a3c b0f3 ee3d 10b0 f8bd
000002f0: ed01 c2be aa54 6bbe a661 9fbd c3a8 fd3e
00000300: a021 a3bb 10ba 79bd 90ea ac3d 36be d23d
00000310: dc2b 9f3b 2b43 c7bd 849e 84bd aee2 eabd
00000320: 4c83 5cbd 28ab e4bd 3760 bbbd cece b5bd
00000330: 4180 743d 6256 38be 4253 f1bd 61e5 0fbe
00000340: 83d9 b8bd d8f4 18bd 7842 c63d 8ea9 053d
00000350: e308 4ebd 2068 f03c 509e 14bc b507 623d
00000360: 4afc 7f3c dc84 963d 029e ae3d b81c d53d
00000370: 8041 d13b 0636 b33d fe44 a7bd cb8f efbd
00000380: 7a90 b9bd 104d 19bd a18a c9bc 7933 04be
00000390: 30b3 e7bd e0fb 3fbc 3145 263c e0b6 3b3d
000003a0: 0ccd dcbd f8d7 f93c 2048 6c3d 0476 ecbd
000003b0: 15df b4bd ec2d 86bd 8067 5abb 38ac 8cbd
000003c0: 90af 60bd 65dc 68bd 49fc c53d 4420 a3bd
000003d0: 125d f8bd f1d5 8d3b 169a 8b3d 70f7 5ebd
000003e0: 6e17 99bd 54dd 91bd 0ea3 f9bd e07e 3ebd
000003f0: 6fc2 cebc 74fe bebd fe26 f3bd 1632 98bd

convs.1.lin_l.bias f4 [64]
-0.25506046 0.24662459 0.16895294 -0.16631955 0.24434087 0.24461205 0.17281997 -0.12001821
0.16301474 -0.0929943 -0.19193259 0.021808531 -0.12129767 -0.24910498 0.08162428 -0.17552675
0.17161529 0.37605596 0.03696397 -0.1420282 -0.12766251 0.069628395 -0.20865917 -0.11173873
-0.05420882 -0.19117716 -0.07884307 -0.14270255 0.15160766 0.24594118 0.21467572 0.28689384
-0.2366513 -0.21282764 0.17935942 -0.1538679 -0.3005196 0.05894412 -0.10878051 0.13229463
-0.12362948 -0.15724124 0.33840224 0.30712995 -0.2589967 -0.086827286 -0.041887417 0.26895252
0.22637129 -0.092912726 -0.16667794 0.14129181 -0.097049646 -0.07343581 0.18330264 -0.27314538
-0.1660982 0.18175824 -0.03575396 0.33108935 -0.004742226 0.11284235 -0.17141515 0.0921395
00000000: 4997 82be 288b 7c3e 0002 2d3e ac4f 2abe
00000010: 7e34 7a3e 957b 7a3e b8f7 303e 1bcc f5bd
00000020: 56ed 263e cc73 bebd fa89 44be cea7 b23c
00000030: ea6a f8bd 6015 7fbe a12a a73d 49bd 33be
00000040: ebbb 2f3e 688a c03e 8867 173d d76f 11be
00000050: f6b9 02be 5599 8e3d c0aa 55be 46d7 e4bd
00000060: 110a 5ebd f2c3 43be 7a78 a1bd 9e20 12be
00000070: 0a3f 1b3e 01d8 7b3e f4d3 5b3e c0e3 923e
00000080: b854 72be 7def 59be ffa9 373e 8c8f 1dbe
00000090: b4dd 99be 646f 713d 51c8 debd 3e78 073e
000000a0: 7431 fdbd d903 21be 0f43 ad3e 2340 9d3e
000000b0: 379b 84be 81d2 b1bd 2492 2bbd 25b4 893e
000000c0: e0cd 673e 0749 bebd 9fad 2abe cdae 103e
000000d0: f7c1 c6bd 8465 96bd b0b3 3b3e b6d9 8bbe
000000e0: a615 2abe d51e 3a3e bf72 12bd 8b84 a93e
000000f0: ad64 9bbb e419 e73d 7487 2fbe a2b3 bc3d

convs.1.lin_r.weight f4 [64, 64]
0.19310293 -0.5531991 -0.068316065 0.035710335 0.07161324 0.028388336 0.088345125 0.12994657
-0.07937493 -0.0507781 -0.093893945 0.0029507359 -0.101506345 0.0111532975 0.038249988 -0.3884141
0.014000852 -0.22816466 -0.5807735 -0.1532625 0.11134025 -0.085503764 0.07827128 -0.057873104
-0.00038562997 -0.19454767 -0.10712266 -0.03758993 -0.43937716 -0.16051549 -0.05410607 0.12403449
0.013077679 0.047850728 -0.45320836 -0.14002772 -0.1545893 -0.11852741 -0.033745445 -0.13114566
0.052913636 -0.2209617 -0.014054688 -0.3599778 0.1488325 -0.07597024 -0.092940904 0.064348504
0.09225663 -0.29954582 -0.35765687 -0.35388374 -0.03791462 0.081290714 -0.02511743 -0.12326468
-0.14563689 -0.07642566 -0.080201544 -0.022524163 -0.054843638 -0.048165534 -0.025523843 0.047245447
-0.020137394 -0.15843582 0.1348894 -0.0044061467 -0.007720412 -0.0049193217 0.007866744 -0.12823854
0.1348567 -0.29379058 -0.0012078119 -0.086142376 -0.09220356 0.22777417 0.008957349 0.121702895
0.029077878 -0.87844914 -1.1271625 -1.0831192 -0.048624936 -0.20783353 -0.018636163 -0.1956295
-0.5966394 -0.26026523 0.025516078 0.20172769 0.033114668 0.015793696 -0.06841203 -0.14942996
-0.31240615 -0.03447546 -0.49530345 -0.45059785 0.105679944 0.11231242 -0.19821863 -0.46870187
-0.021638086 -0.2768243 0.1806366 -0.27047026 0.031341866 0.04136827 -0.3195703 -0.025579723
-0.19167112 -1.204754 -0.29139778 -0.63524956 -0.11580023 -0.33863744 -0.014473364 -0.33856484
-0.076883815 -0.10014223 -0.09397745 -0.075006604 -0.43120095 -0.1947269 -0.12016764 0.028724028
-0.069786854 -0.2868315 0.27872446 0.04960612 -0.08810313 0.08491284 -0.6268061 -0.4165354
-0.15447369 -0.17220795 -0.019721102 0.221067 0.062459666 0.06791031 -0.016140342 -0.23937392
-0.35322112 0.13283367 0.014962173 -0.023807375 -0.054740246 0.02165953 0.021735413 -0.1429586
-0.056853358 -0.062440656 0.09686579 -0.3654068 0.2557344 0.09367212 -0.08245964 -0.14554597
0.012780103 -0.08131488 0.14607668 -0.017475372 -0.01254371 -0.073087305 -0.06486374 -0.27502918
-0.06582533 -0.16428298 -0.096507676 -0.04218945 -0.089297496 0.0681879 -0.9972002 -0.040859666
-0.22946282 0.0421807 0.040878803 -0.34619245 -0.071762405 -0.21231869 0.08514271 0.09315125
-0.3269819 -0.10921705 0.0022710662 0.09455784 0.09733527 0.072587505 0.008462691 -0.008271462
-0.03183061 -0.23427436 0.11240439 -0.0811473 0.13988325 -0.11535423 -0.030780643 -0.0017483069
-0.13893308 -0.089205235 -0.18205737 -0.14876564 0.031020373 -0.055772457 -0.04688722 0.010677285
-0.07801333 -0.13320771 -0.026266033 -0.07562148 0.022816949 0.01292651 -0.02619516 0.09950733
-0.0447755 -0.13138935 -0.033328205 0.0008429885 0.034282755 -0.0720862 -0.06135958 -0.014750199
-0.05436881 -0.11400965 -0.0048623313 -0.115485206 0.020111293 0.01166065 -0.11938615 -0.11291167
-0.037134856 -0.06936749 -0.09668329 -0.048071157 -0.21165997 -0.014273241 -0.01975792 0.006552294
-0.018038254 -0.052203216 0.09938309 -0.15489224 0.055496983 0.051230215 -0.026768286 -0.087621115
-0.14530186 -0.011034455 0.07190877 0.07581331 -0.07626048 0.01149339 0.12498428 -0.063067906
00000000: c6bc 453e 759e 0dbf 4be9 8bbd 0045 123d
00000010: f6a9 923d a88e e83c 4aee b43d b710 053e
00000020: 538f a2bd b2fc 4fbd 784b c0bd 2261 413b
00000030: 8fe2 cfbd 52bc 363c 05ac 1c3d 37de c6be
00000040: d463 653c ffa3 69be 92ad 14bf d8f0 1cbe
00000050: 5b06 e43d 991c afbd b14c a03d 590c 6dbd
00000060: 612e cab9 8137 47be 2063 dbbd e6f7 19bd
00000070: 0bf6 e0be 2c5e 24be 549e 5dbd cb05 fe3d
00000080: c343 563c 20ff 433d ed0a e8be 6d63 0fbe
00000090: a84c 1ebe 80be f2bd aa38 0abd 0c4b 06be
000000a0: f8bb 583d c943 62be a245 66bc 034f b8be
000000b0: 8c67 183e 4996 9bbd cd57 bebd 26c9 833d
000000c0: 0bf1 bc3d 125e 99be cd1e b7be 4030 b5be
000000d0: 5c4c 1bbd bf7b a63d 12c3 cdbc 3172 fcbd
000000e0: d621 15be 0e85 9cbd b540 a4bd 9884 b8bc
000000f0: b9a3 60bd 3949 45bd 6117 d1bc 7184 413d
00000100: 2df7 a4bc 003d 22be 7220 0a3e 7061 90bb
00000110: 83fb fcbb 4332 a1bb 84e3 003c f750 03be
00000120: e017 0a3e b86b 96be 714f 9eba 6a6b b0bd
00000130: 38d5 bcbd a23d 693e d8c1 123c 5e3f f93d
00000140: bb34 ee3c 0be2 60bf dc46 90bf a6a3 8abf
00000150: f12a 47bd 50d2 54be deaa 98bc 1a53 48be
00000160: 5cbd 18bf 7c41 85be 1807 d13c b491 4e3e
00000170: 3fa3 073d c861 813c 9b1b 8cbd 2b04 19be
00000180: b3f3 9fbe 2436 0dbd 6a98 fdbe c3b4 e6be
00000190: ba6e d83d 0e04 e63d d3f9 4abe b1f9 efbe
000001a0: 5b42 b1bc eabb 8dbe cdf8 383e 147b 8abe
000001b0: 5460 003d c671 293d b89e a3be 918c d1bc
000001c0: 6f45 44be 6135 9abf 1732 95be b79f 22bf
000001d0: ac28 edbd e361 adbe b021 6dbc 5f58 adbe
000001e0: 4375 9dbd 5f17 cdbd 4077 c0bd 109d 99bd
000001f0: 5fc6 dcbe 7d66 47be 741a f6bd a74e eb3c
00000200: 69ec 8ebd 94db 92be f9b4 8e3e c92f 4b3d
00000210: 6a6f b4bd c8e6 ad3d 5d76 20bf 2144 d5be
00000220: 5a2e 1ebe 4857 30be 268e a1bc 635f 623e
00000230: b5d5 7f3d 9014 8b3d c038 84bc 701e 75be
00000240: 66d9 b4be 8d05 083e e723 753c af07 c3bc
00000250: 4f37 60bd 546f b13c 770e b23c bd63 12be
00000260: 11df 68bd c6c1 7fbd 9261 c63d 9a16 bbbe
00000270: 9fef 823e 2bd7 bf3d 9ae0 a8bd 010a 15be
00000280: a363 513c 6a88 a6bd 2095 153e 8328 8fbc
00000290: 2284 4dbc ccae 95bd 48d7 84bd a0d0 8cbe
000002a0: 6ecf 86bd cc39 28be d1a5 c5bd d8ce 2cbd
000002b0: 9be1 b6bd 19a6 8b3d 8348 7fbf 775c 27bd
000002c0: 4df8 6abe abc5 2c3d 8870 273d 2340 b1be
000002d0: 2bf8 92bd 126a 59be 4d5f ae3d 15c6 be3d
000002e0: 2c6a a7be 30ad dfbd 2bd6 143b 8aa7 c13d
000002f0: b757 c73d c2a8 943d 19a7 0a3c 0785 07bc
00000300: d060 02bd 9ee5 6fbe 4634 e63d 8e30 a6bd
00000310: 8e3d 0f3e d73e ecbd b027 fcbc 7227 e5ba
00000320: 7944 0ebe 3cb1 b6bd 3f6d 3abe 0556 18be
00000330: 701e fe3c a971 64bd d00c 40bd c7ef 2e3c
00000340: 74c5 9fbd 9a67 08be dd2b d7bc 6fdf 9abd
00000350: 9cea ba3c b6c9 533c 3b97 d6bc 80ca cb3d
00000360: 8466 37bd ee8a 06be 2883 08bd 00fc 5c3a
00000370: 136c 0c3d eea1 93bd 2f54 7bbd d2aa 71bc
00000380: d4b1 5ebd e47d e9bd 3154 9fbb 8283 ecbd
00000390: 70c0 a43c 500c 3f3c ba80 f4bd 3c3e e7bd
000003a0: b81a 18bd 8b10 8ebd e401 c6bd 43e6 44bd
000003b0: 64bd 58be 50da 69bc 5ddb a1bc a0b4 d63b
000003c0: f6c4 93bc 0ad3 55bd 5d89 cb3d 129c 1ebe
000003d0: ce50 633d c6d6 513d 2a49 dbbc b372 b3bd
000003e0: 03ca 14be dcc9 34bc e844 933d 0244 9b3d
000003f0: 742e 9cbd c64e 3c3c c2f7 ff3d bf29 81bd

proj.weight f4 [64, 64]
-0.1436738 0.014522685 -0.067533575 0.010114038 -0.101127006 0.031069614 -0.027409328 -0.09319166
-0.1126149 -0.029805528 0.044789545 0.020786308 0.20727961 -0.07525056 0.024551107 0.07924009
-0.06170134 0.002289729 0.04002774 -0.03504704 -0.0057725 -0.021894911 -0.047766715 -0.10275867
-0.3765185 0.05132249 0.12878539 -0.0048821135 0.10927706 -0.12668984 -0.06299446 0.17967138
0.48703453 -0.004703485 -0.009574501 0.07065724 0.09712156 0.0017875353 0.404105 0.08125151
0.013976619 0.1270639 -0.038027305 0.010405609 0.08135244 -0.24030487 0.18085541 -0.017628906
-0.14956851 -0.11404329 0.21005492 -0.008326249 0.058042936 0.08022032 -0.0024173185 -0.08944994
0.081740886 0.2729272 -0.09045912 -0.015300151 0.19612116 0.017064119 0.13943833 -0.036950864
0.13663612 0.38966542 0.186925 0.11591599 -0.09129613 -0.08454732 0.0082004955 -0.07517149
0.08673387 -0.10761003 -0.18727261 0.11275238 0.009326097 0.046822514 0.07543554 -0.17338097
0.12089895 -0.08720631 0.11103695 0.21380453 0.09904954 -0.22071351 -0.002557471 -0.07056182
-0.30304307 -0.021684311 -0.15822256 -0.09714228 -0.13705991 -0.2536541 -0.022236228 0.17030552
0.10007198 -0.0015537256 -0.12431495 0.0034071608 0.06724305 0.122942485 0.18859789 -0.12442571
0.006700866 -0.06288428 0.22068605 -0.0057005226 -0.17739435 0.061833825 0.009962363 -0.29011858
0.22454041 0.10194038 0.044252083 -0.009539705 -0.011024185 0.017797414 -0.0044340314 -0.04506955
0.09261646 0.15600085 -0.11675052 -0.115240365 -0.031018676 -0.006424153 0.2583294 -0.15022086
-0.10671303 -0.18840122 0.01694368 -0.0065448876 0.08543151 0.4565397 0.030634647 0.14667171
-0.20560937 0.020481242 -0.008668666 0.20781928 -0.045731924 0.033847526 0.16126786 0.12232292
-0.14846855 -0.20851578 -0.18745354 0.41381884 -0.035397686 0.18686321 0.042311713 0.117000744
-0.059832204 -0.24279107 0.011740863 0.026121998 -0.13489445 0.123334385 -0.032753717 0.11299552
0.027965443 0.06520715 -0.044215865 -0.04967163 -0.2027042 -0.45656702 -0.051387116 0.2512469
-0.11261832 -0.047627334 -0.10606594 -0.40260312 0.053761445 -0.23145767 -0.15320626 -0.31709665
-0.101125285 -0.06087719 -0.20544432 -0.09456061 -0.014707734 0.12179879 -0.0566197 -0.08644444
-0.010565586 0.24306671 0.29947868 0.2833892 0.15468223 0.08768678 0.19076218 0.44185096
-0.10611818 -0.03552579 0.41749015 0.20030022 0.20947534 -0.26425818 0.18825145 -0.032323204
0.49266896 -0.12862812 -0.071698405 -0.17253287 0.014354322 -0.06859398 0.16353282 0.061442025
-0.40670377 0.05674987 0.01870856 -0.113043316 -0.054905012 0.18315898 -0.07046714 -0.13874929
-0.23484923 -0.12225106 -0.007863949 -0.025717536 0.44699177 -0.3360825 -0.23017825 -0.6240849
-0.004388536 -0.056973062 -0.34846094 -0.15341096 -0.04650473 0.43511376 0.06211905 -0.1533698
0.00592055 -0.14462799 -0.21027127 -0.4602603 0.07623057 -0.1665209 -0.10261076 -0.598383
-0.28377098 -0.057813093 0.004176212 0.43851167 0.049123947 0.023259832 -0.29792732 -0.07206514
-0.043706756 -0.10801599 -0.31170642 0.12741464 0.008408656 0.5454755 0.074020684 0.1207702
00000000: 3a1f 13be 8ef0 6d3c 0b4f 8abd 5ab5 253c
00000010: ad1b cfbd b485 fe3c 8789 e0bc 45db bebd
00000020: a4a2 e6bd b92a f4bc 3e75 373d 0c48 aa3c
00000030: 1b41 543e f71c 9abd 671f c93c a148 a23d
00000040: 8bba 7cbd 470f 163b 21f4 233d 7c8d 0fbd
00000050: 3d27 bdbb f55c b3bc 08a7 43bd 2373 d2bd
00000060: 08c7 c0be 8837 523d 51e0 033e 23fa 9fbb
00000070: a7cc df3d fbba 01be 3d03 81bd c6fb 373e
00000080: 975c f93e b11f 9abb 5ede 1cbc beb4 903d
00000090: abe7 c63d bb4b ea3a dae6 ce3e 3167 a63d
000000a0: 30fe 643c 0a1d 023e 85c2 1bbd 4a7c 2a3c
000000b0: 1c9c a63d 7b12 76be 2932 393e 7f6a 90bc
000000c0: 7d28 19be 878f e9bd a318 573e d26a 08bc
000000d0: 6ebe 6d3d 8d4a a43d e06b 1ebb 8831 b7bd
000000e0: c467 a73d 1dbd 8b3e a242 b9bd 7cad 7abc
000000f0: fcd3 483e 0dca 8b3c ecc8 0e3e ca59 17bd
00000100: 57ea 0b3e 3a82 c73e 4469 3f3e 5d65 ed3d
00000110: 77f9 babd 2527 adbd 5f5b 063c 83f3 99bd
00000120: 87a1 b13d a662 dcbd 64c4 3fbe b8ea e63d
00000130: 7ccc 183c f7c8 3f3d f37d 9a3d c88a 31be
00000140: de99 f73d 3999 b2bd 5767 e33d 93ef 5a3e
00000150: 7cda ca3d b902 62be 3e9b 27bb b782 90bd
00000160: 7628 9bbe 4ca3 b1bc 1805 22be 88f2 c6bd
00000170: 6f59 0cbe f3de 81be c028 b6bc 9264 2e3e
00000180: 8af2 cc3d 61a6 cbba d698 febd ac4a 5f3b
00000190: b9b6 893d 45c9 fb3d ce1f 413e e8d2 febd
000001a0: f092 db3b 79c9 80bd 86fb 613e 73cb babb
000001b0: dda6 35be 7745 7d3d 2e39 233c 6c8a 94be
000001c0: eced 653e 1ec6 d03d ac41 353d 6c4c 1cbc
000001d0: c99e 34bc e2cb 913c 5a4b 91bb d99a 38bd
000001e0: b3ad bd3d b0be 1f3e e61a efbd 2403 ecbd
000001f0: e11a febc b481 d2bb c043 843e 7fd3 19be
00000200: 5c8c dabd 40ec 40be 79cd 8a3c 7f76 d6bb
00000210: b7f6 ae3d 92bf e93e 83f5 fa3c 1c31 163e
00000220: 438b 52be 47c8 a73c 0507 0ebc 94ce 543e
00000230: 6651 3bbd b4a3 0a3d 6723 253e 7084 fa3d
00000240: 2408 18be 2985 55be d2f3 3fbe 10e0 d33e
00000250: 2afd 10bd 1259 3f3e 0c4f 2d3d 169e ef3d
00000260: 9d12 75bd 399e 78be c05c 403c cdfd d53c
00000270: c521 0abe bd96 fc3d c328 06bd 326a e73d
00000280: c917 e53c 548b 853d b21b 35bd 7b74 4bbd
00000290: b191 4fbe 27c3 e9be 4c7b 52bd 6fa3 803e
000002a0: 6fa4 e6bd e114 43bd 1939 d9bd ff21 cebe
000002b0: f634 5c3d 3d03 6dbe 1ae2 1cbe 7e5a a2be
000002c0: c61a cfbd 5c5a 79bd ff5f 52be fea8 c1bd
000002d0: b5f8 70bc a571 f93d 0fea 67bd c809 b1bd
000002e0: 481b 2dbc 7be6 783e 4555 993e 6418 913e
000002f0: 0565 1e3e 2095 b33d 2957 433e 4a3a e23e
00000300: 7d54 d9bd 7e83 11bd 45c1 d53e 801b 4d3e
00000310: b480 563e d94c 87be fdc4 403e 5665 04bd
00000320: 1b3f fc3e 17b7 03be 9dd6 92bd 75ac 30be
00000330: 642e 6b3c 007b 8cbd 2675 273e a2aa 7b3d
00000340: 7a3b d0be 8d72 683d b242 993c 4183 e7bd
00000350: 14e4 60bd 078e 3b3e 1351 90bd 4b14 0ebe
00000360: 517c 70be c45e fabd cbd7 00bc 95ad d2bc
00000370: 1bdc e43e 0113 acbe d9b3 6bbe 07c4 1fbf
00000380: b5cd 8fbb 965c 69bd 7969 b2be c317 1dbe
00000390: be7b 3ebd 3bc7 de3e 8c70 7e3d f90c 1dbe
000003a0: 2c01 c23b 5c19 14be 5a51 57be 3da7 ebbe
000003b0: c61e 9c3d 7484 2abe 9725 d2bd a12f 19bf
000003c0: 6e4a 91be 6ccd 6cbd 9bd8 883b 9a84 e03e
000003d0: 3136 493d 678b be3c ee89 98be e396 93bd
000003e0: db05 33bd 7d37 ddbd fc97 9fbe fc78 023e
000003f0: 76c4 093c 48a4 0b3f 2898 973d 5e56 f73d

proj.bias f4 [64]
0.03201464 0.04041185 -0.025697604 0.123336904 0.05128606 0.0022431966 -0.07170946 -0.08644896
-0.026365614 -0.092347175 -0.013155099 -0.023467025 0.052947022 -0.00074005546 -0.039767023 0.028391885
-0.03195018 -0.106932245 -0.013378476 0.25765973 -0.049833555 0.18181787 -0.00979006 -0.024158765
-0.012236987 0.014327029 0.021180656 0.005290031 -0.34681478 0.078398086 0.03339633 -0.034517854
-0.23791423 -0.040939398 0.009906136 -0.19203463 0.066297956 0.03020528 -0.026038699 -0.18512028
0.020602513 0.03196009 0.057544105 0.026348779 0.058870483 0.0041021807 -0.032114647 0.010010714
-0.029432282 -0.08714595 -0.021628536 0.22905263 0.30779424 0.10562326 0.040058 0.03132285
-0.23431663 -0.06741005 0.11510926 -0.035225272 -0.0091344435 0.008551457 -0.023109283 -0.009708088
00000000: c821 033d e586 253d c883 d2bc 0f98 fc3d
00000010: 5511 523d 9802 133b 69dc 92bd 270c b1bd
00000020: b3fc d7bc 8420 bdbd 7c88 57bc eb3d c0bc
00000030: fade 583d 4800 42ba bfe2 22bd 1996 e83c
00000040: 31de 02bd 4bff dabd 6531 5bbc faeb 833e
00000050: 451e 4cbd 772e 3a3e 7d66 20bc 9ae8 c5bc
00000060: a57d 48bc eabb 6a3c 0e83 ad3c ff57 ad3b
00000070: b591 b1be 2d8f a03d 97ca 083d 9862 0dbd
00000080: ca9f 73be 12b0 27bd 594d 223c baa4 44be
00000090: 39c7 873d 1071 f73c 1c4f d5bc 2c90 3dbe
000000a0: 9ac6 a83c 95e8 023d 5eb3 6b3d 65d9 d73c
000000b0: 2d22 713d 966b 863b a68a 03bd fa03 243c
000000c0: f81b f1bc 9379 b2bd 542e b1bc c68c 6a3e
000000d0: 3597 9d3e 0251 d83d db13 243d 644c 003d
000000e0: b3f0 6fbe 480e 8abd 67be eb3d 6048 10bd
000000f0: a2a8 15bc 691b 0c3c ae4f bdbc ac0e 1fbc

scorer.bilin.weight f4 [1, 64, 64]
-0.20840485 -0.12541954 0.037139397 -0.04562013 -0.066186786 0.11275257 0.060152642 0.06916988
0.015831446 -0.03292293 -0.08887261 -0.04630303 0.06578032 -0.08122677 0.020560024 0.15647352
-0.027879326 -0.0073507805 0.01772038 -0.02037254 -0.03203627 -0.057121284 -0.16414845 0.06560364
-0.057360396 0.0038608396 -0.06222863 0.052548546 0.046615228 0.10143828 0.021694044 0.01875648
-0.04211612 -0.25858313 0.028190471 -0.13800037 0.0751693 0.08545996 -0.015795527 0.045908056
-0.2877023 -0.07548554 0.017137902 0.025602292 -0.10328007 -0.073238604 0.015922492 0.013603085
-0.01639344 0.04096863 -0.118703246 -0.026549745 -0.069291174 -0.060883448 -0.010309135 0.0800001
-0.10152097 0.0016079819 0.12643379 -0.06919791 0.06179816 0.02823555 -0.048388794 0.04790388
0.06094324 -0.0062940824 0.09172238 0.054447647 0.03578104 0.0826912 0.15032601 0.15439722
-0.006249744 -0.28902838 -0.015830949 0.02943226 0.12836768 -0.05461199 -0.22783561 0.026017135
0.18953905 0.06718081 -0.103268705 0.080102965 0.09910443 -0.14027402 0.20185956 -0.1368561
-0.006158909 0.074965104 0.09602114 -0.091035716 -0.042542193 0.0062647015 -0.005559529 -0.067655176
0.016735598 -0.076072924 0.056008216 -0.20704792 0.14301535 0.08683445 -0.09511486 -0.08811865
-0.24576177 -0.057736296 0.13707423 0.29234684 -0.17986482 -0.13366456 -0.11756615 0.17804568
-0.016874008 0.02599578 -0.15503877 -0.19454972 -0.024915487 0.094183944 0.2572636 0.011213195
0.19390304 -0.119660854 -0.15660913 -0.12658451 -0.027545765 0.09033492 0.05791849 0.03375124
-0.08034928 -0.17837533 0.0035418859 0.002938241 0.0044537596 0.06575714 -0.08548004 0.2143061
-0.013468586 -0.10579497 0.16267864 -0.25318736 -0.09830622 0.10230335 0.52873784 0.071797386
-0.10272912 0.02642865 -0.10681327 0.045609828 0.0027064006 0.025305932 0.04956616 0.09541216
0.009518466 0.14388956 -0.07905772 -0.0057730293 -0.22297888 -0.019692305 0.043204393 -0.077234834
0.086672544 -0.22240677 0.036436282 -0.42006865 -0.0773203 0.07218525 0.088930055 0.056654476
-0.11553422 0.21933371 0.1236412 -0.05103563 0.016472913 0.17032522 0.06655765 -0.103646755
-0.027623665 -0.25842562 -0.053697612 0.0037899187 -0.24110632 0.22512849 -0.09679481 -0.0006149218
-0.28217363 0.07115169 0.42967632 0.09544414 0.13050424 -0.13485317 -0.007524151 -0.017795803
0.11941462 0.111288555 -0.04736459 0.7800637 -0.015856633 0.046579823 0.01166701 -0.10862046
0.06849104 -0.028546458 -0.08815589 0.016981665 0.38566843 -0.02320718 0.38434017 -0.07384088
-0.033267863 -0.5687389 0.09907548 -0.5856993 0.0096221715 0.47115797 -0.23973612 0.016518911
0.09859348 -0.027710872 0.054589856 0.062657066 -0.4828681 -0.009597591 -0.021493409 0.03337832
-0.13760632 0.025068222 -0.007536402 0.23244764 0.03962722 0.06269358 0.13412316 0.16506006
-0.0467479 -0.026368432 0.47409502 -0.032041404 -0.12750015 0.06932168 0.03646513 0.050965477
-0.038842607 0.08699266 0.05639812 0.0017065315 -0.11927104 -0.26942942 -0.070597745 -0.007726104
0.11932845 0.057374414 0.41563454 0.03168494 0.013673881 -0.050376836 0.067658655 0.074644774
00000000: 1568 55be fb6d 00be 7b1f 183d 2cdc 3abd
00000010: f08c 87bd d2ea e63d 9e62 763d f0a8 8d3d
00000020: f3b0 813c 32da 06bd d802 b6bd 3fa8 3dbd
00000030: d5b7 863d 395a a6bd 7f6d a83c 983a 203e
00000040: 2f63 e4bc d1de f0bb 552a 913c 50e4 a6bc
00000050: 7738 03bd 02f8 69bd 8816 28be 345b 863d
00000060: bcf2 6abd 2406 7d3b 73e3 7ebd 253d 573d
00000070: 9cef 3e3d dfbe cf3d b5b7 b13c 31a7 993c
00000080: f481 2cbd 0265 84be b4ef e63c f84f 0dbe
00000090: 5df2 993d a205 af3d 9f65 81bc 160a 3c3d
000000a0: b74d 93be 2a98 9abd c964 8c3c e6bb d13c
000000b0: 8084 d3bd 1ffe 95bd e36f 823c 79df 5e3c
000000c0: 894b 86bc b9ce 273d b01a f3bd da7e d9bc
000000d0: 88e8 8dbd ec60 79bd a5e7 28bc 18d7 a33d
000000e0: 3aea cfbd ebc2 d23a dc77 013e a2b7 8dbd
000000f0: 1120 7d3d 3d4e e73c 5433 46bd dc36 443d
00000100: 9e9f 793d 973e cebb f1d8 bb3d 7f04 5f3d
00000110: 248f 123d 015a a93d 10ef 193e 4e1a 1e3e
00000120: a7ca ccbb 87fb 93be e8af 81bc ec1b f13c
00000130: d172 033e d2b0 5fbd bd4d 69be e321 d53c
00000140: 8616 423e 1896 893d 8b7e d3bd 060d a43d
00000150: 43f7 ca3d fea3 0fbe 46b4 4e3e 0124 0cbe
00000160: acd0 c9bb 4e87 993d bba6 c43d ef70 babd
00000170: b940 2ebd 2048 cd3b b62c b6bb cc8e 8abd
00000180: 1819 893c 1fcc 9bbd df68 653d 5f04 54be
00000190: 9e72 123e 43d6 b13d 94cb c2bd 8d77 b4bd
000001a0: f9a8 7bbe e57c 6cbd 305d 0c3e 7cae 953e
000001b0: 7c2e 38be 5ddf 08be 86c6 f0bd 9b51 363e
000001c0: 5c3b 8abc 1af5 d43c 7cc2 1ebe 0b38 47be
000001d0: 901b ccbc 83e3 c03d 0eb8 833e 8cb7 373c
000001e0: 858e 463e c010 f5bd 255e 20be 5f9f 01be
000001f0: a8a7 e1bc 8401 b93d f03b 6d3d bd3e 0a3d
00000200: 2a8e a4bd 06a8 36be fc1e 683b 818f 403b
00000210: d8f0 913b aeab 863d 2910 afbd 0f73 5b3e
00000220: 58ab 5cbc 09ab d8bd 3b95 263e c6a1 81be
00000230: c554 c9bd 6b84 d13d 5d5b 073f 820a 933d
00000240: a563 d2bd e580 d83c eac0 dabd 5fd1 3a3d
00000250: de5d 313b 634e cf3c e305 4b3d 7367 c33d
00000260: 57f3 1b3c c957 133e 04e9 a1bd ae2b bdbb
00000270: 9354 64be c251 a1bc 17f7 303d 4c2d 9ebd
00000280: 6081 b13d 9abe 63be 363e 153d 3d13 d7be
00000290: 1b5a 9ebd dcd5 933d f620 b63d 860e 683d
000002a0: 359d ecbd 0499 603e 9937 fd3d bd0a 51bd
000002b0: 34f2 863c bc69 2e3e 614f 883d c044 d4bd
000002c0: 064b e2bc 5d50 84be 07f2 5bbd 4960 783b
000002d0: 93e4 76be 1588 663e 5b3c c6bd b432 21ba
000002e0: 1079 90be fab7 913d 89fe db3e 3878 c33d
000002f0: e7a2 053e f316 0abe 278d f6bb 81c8 91bc
00000300: a78f f43d 41eb e33d 5f01 42bd 41b2 473f
00000310: c5e5 81bc 7cca 3e3d fd26 3f3c 6774 debd
00000320: 0845 8c3d 43da e9bc 138b b4bd 221d 8b3c
00000330: 5576 c53e fc1c bebc 3cc8 c43e e339 97bd
00000340: e243 08bd df98 11bf 16e8 ca3d 64f0 15bf
00000350: 50a6 1d3c 9e3b f13e 637d 75be ab52 873c
00000360: 61eb c93d e901 e3bc 9d99 5f3d 5952 803d
00000370: 7d3a f7be 373f 1dbc f212 b0bc b5b7 083d
00000380: ace8 0cbe df5b cd3c ecf3 f6bb c106 6e3e
00000390: 2750 223d 7e65 803d 9557 093e 8105 293e
000003a0: ba7a 3fbd 9c02 d8bc 95bc f23e d93d 03bd
000003b0: 668f 02be 86f8 8d3d 765c 153d 2dc1 503d
000003c0: 6d19 1fbd 3529 b23d b701 673d b2ad df3a
000003d0: 6044 f4bd a7f2 89be 8d95 90bd 422b fdbb
000003e0: 7962 f43d 6f01 6b3d 0dce d43e 11c8 013d
000003f0: 6a08 603c f157 4ebd 9f90 8a3d 5cdf 983d
